10000specmodel.pt (torch, 145714 bytes, 16 tensors)

weight_ih_l0 f4 [128, 16]
-0.12969872 -0.11642237 0.16018511 0.099090636 0.06916237 0.009674253 -0.057787355 0.17783614
-0.033780806 -0.09922161 -0.23370714 -0.025705284 0.12781173 -0.1815648 0.17857984 -0.12852973
-0.069995664 0.14782189 0.13579622 -0.078366764 -0.12433601 -0.02239021 -0.085993 0.10091825
-0.1401021 0.1182072 -0.12894407 -0.1481845 -0.12590031 -0.03727332 -0.09265341 -0.08854759
-0.15736265 0.016757963 -0.16553763 0.047383714 0.045685597 0.13151875 0.15232424 -0.014282492
-0.052182645 -0.20362042 -0.103740074 0.023328865 -0.17544442 -0.16241965 0.15822892 -0.07451979
-0.14387025 -0.17038724 -0.15045305 -0.13739753 -0.1468971 -0.04633459 0.15133333 0.158882
0.1062101 0.023069857 0.084432386 0.14061823 0.06203484 0.030276017 0.10947362 0.035473406
0.09342016 -0.05856496 -0.05942168 0.08443369 -0.16024278 -0.07529931 -0.17648736 -0.021292105
-0.10879652 -0.048636496 0.05806771 -0.12047476 -0.1060822 0.038241938 0.025491744 -0.03736314
-0.19920646 0.07673631 0.026151985 -0.17769182 -0.040683836 0.13080047 0.14898278 0.09222957
-0.00047814666 0.009959548 -0.082520254 -0.16175723 0.055885367 0.12724681 -0.12972093 0.013088763
-0.04944382 -0.11634121 -0.17820004 0.1654488 0.105227195 0.074010916 -0.100778736 0.11341266
0.017940892 -0.12888438 0.111292146 0.009029969 -0.09210707 0.13681835 0.14725244 -0.22234303
-0.004915192 -0.119957514 -0.046408333 0.013543602 -0.112393364 -0.08055802 -0.0674364 0.06315349
0.09556362 0.1373777 0.06291989 -0.08541037 0.10188707 -0.053451795 0.13347554 0.07133415
0.060156018 -0.014497307 0.016310602 0.07434157 -0.17205657 0.05658716 0.06677408 -0.06601481
-0.16401835 0.13981509 -0.09362786 -0.061629657 -0.06943373 -0.18721803 -0.026939858 -0.15135777
0.11472052 0.02655615 -0.20396776 -0.12178897 0.13593659 -0.20022567 -0.03320338 -0.16752918
0.045316536 -0.009252348 -0.03784926 0.10985145 0.020433294 -0.15452686 0.03573473 -0.107160605
-0.008601397 0.08021547 -0.1398491 -0.083833724 -0.075990975 -0.11849837 -0.112276144 0.011097491
0.009655416 0.0700299 0.06454153 0.062112972 -0.17523243 -0.14997971 -0.074209556 -0.013906375
-0.025580503 0.17067963 0.14835842 -0.102103345 0.09529702 0.17220978 0.05068393 0.02450302
0.07228722 0.17059363 0.12848027 -0.15478839 -0.14792357 0.06524843 -0.1096776 0.06300114
0.15970163 0.116330214 -0.018021649 0.15986514 0.027782626 0.09050674 0.10609632 -0.129894
-0.06262487 -0.0062654205 0.08582665 -0.03261188 0.039168566 -0.073062144 0.026697222 -0.14388144
0.039657176 0.14432481 -0.14862885 -0.054485343 0.0243744 -0.19140491 -0.0036533594 -0.07171167
-0.09356079 0.13297199 0.0156184975 -0.028027253 0.09289191 -0.09657879 0.14537595 0.16186234
0.0010868758 -0.12714267 -0.02933374 -0.14941795 -0.01994966 0.15607975 -0.14439291 0.05235547
0.07824011 -0.16203621 -0.0769904 -0.111849286 -0.07521448 0.11134003 -0.13781267 -0.00047777593
0.06394124 0.06383335 0.142253 0.21151008 -0.068609886 0.010085954 0.119298756 -0.037016477
-0.026279222 -0.00249151 -0.1850087 0.056777127 -0.15085074 -0.15299994 -0.15406048 0.12414987
00000000: becf 04be da6e eebd 9107 243e 08f0 ca3d
00000010: 00a5 8d3d c280 1e3c 6fb2 6cbd ad1a 363e
00000020: be5d 0abd b334 cbbd ed50 6fbe e393 d2bc
00000030: 14e1 023e 1fec 39be a2dd 363e 4c9d 03be
00000040: e359 8fbd 9f5e 173e 2a0e 0b3e c17e a0bd
00000050: e1a3 febd ac6b b7bc 191d b0bd 3aae ce3d
00000060: ed76 0fbe 9e16 f23d ea09 04be adbd 17be
00000070: 03ec 00be e9ab 18bd 12c1 bdbd 7058 b5bd
00000080: ad23 21be ff47 893c b282 29be 6d15 423d
00000090: d220 3b3d daac 063e e3fa 1b3e 1d01 6abc
000000a0: 78bd 55bd df81 50be ad75 d4bd 2d1c bf3c
000000b0: b4a7 33be 5651 26be c306 223e d59d 98bd
000000c0: b952 13be fe79 2ebe 5d10 1abe f0b1 0cbe
000000d0: 326c 16be 57c9 3dbd 20f7 1a3e f7b1 223e
000000e0: ae84 d93d fffc bc3c e3ea ac3d 3afe 0f3e
000000f0: 3f18 7e3d 6905 f83c b533 e03d 904c 113d
00000100: 1253 bf3d d0e1 6fbd 2664 73bd 92eb ac3d
00000110: af16 24be 8636 9abd 1ab9 34be c86c aebc
00000120: b6d0 debd 1037 47bd 68d8 6d3d 79bb f6bd
00000130: a041 d9bd 94a3 1c3d 10d4 d03c 180a 19bd
00000140: c7fc 4bbe ed27 9d3d b03c d63c d8f4 35be
00000150: 18a4 26bd 8ff0 053e f18e 183e dbe2 bc3d
00000160: c2af fab9 5f2d 233c 6100 a9bd b0a3 25be
00000170: 0ee8 643d fd4c 023e 90d5 04be 4072 563c
00000180: 9a85 4abd 4d44 eebd 127a 36be 696b 293e
00000190: 5b81 d73d 0993 973d 1565 cebd e644 e83d
000001a0: c7f8 923c 44fa 03be 23ed e33d 6ff2 133c
000001b0: a2a2 bcbd 1c1a 0c3e 58c9 163e e4ad 63be
000001c0: 9e0f a1bb 49ac f5bd aa16 3ebd fce5 5d3c
000001d0: 7e2e e6bd 9afb a4bd 181c 8abd 9e56 813d
000001e0: dcb6 c33d bdac 0c3e 25dc 803d a2eb aebd
000001f0: 2baa d03d 45f0 5abd d0ad 083e a417 923d
00000200: 2866 763d 1d86 6dbc d09d 853c 6540 983d
00000210: 992f 30be f0c7 673d d9c0 883d c632 87bd
00000220: 6df4 27be b02b 0f3e f7bf bfbd 616f 7cbd
00000230: 4533 8ebd 15b6 3fbe fab0 dcbc 88fd 1abe
00000240: 98f2 ea3d 488c d93c eddc 50be 7f6c f9bd
00000250: f632 0b3e f507 4dbe 4400 08bd c58c 2bbe
00000260: d59d 393d 2997 17bc d307 1bbd ccf9 e03d
00000270: b963 a73c 4a3c 1ebe 955e 123d 0577 dbbd
00000280: e0ec 0cbc 0248 a43d 9a34 0fbe 04b1 abbd
00000290: 28a1 9bbd 46af f2bd 09f1 e5bd 40d2 353c
000002a0: c031 1e3c d66b 8f3d 5a2e 843d 2c6a 7e3d
000002b0: 2170 33be 4894 19be 2efb 97bd 90d7 63bc
000002c0: 348e d1bc a4c6 2e3e 45eb 173e 8f1b d1bd
000002d0: 162b c33d c357 303e f499 4f3d 8fba c83c
000002e0: 520b 943d 19b0 2e3e 5590 033e d980 1ebe
000002f0: 4779 17be f8a0 853d a69e e0bd be06 813d
00000300: d388 233e 893e ee3d 23a2 93bc b0b3 233e
00000310: 6498 e33c 995b b93d 0749 d93d ef02 05be
00000320: 7841 80bd 284e cdbb e2c5 af3d 0994 05bd
00000330: 386f 203d 9ba1 95bd 22b4 da3c a855 13be
00000340: 906f 223d e2c9 133e 2932 18be 062c 5fbd
00000350: d2ac c73c a6ff 43be 336d 6fbb 91dd 92bd
00000360: cd9c bfbd cf29 083e bae4 7f3c 6999 e5bc
00000370: 1d3e be3d 1acb c5bd 6fdd 143e 3ebf 253e
00000380: 8075 8e3a b031 02be 504d f0bc 0501 19be
00000390: 786d a3bc 5fd3 1f3e bcdb 13be b072 563d
000003a0: 5a3c a03d d2ec 25be 25ad 9dbd 3d11 e5bd
000003b0: 0d0a 9abd 3e06 e43d c41e 0dbe 007e fab9
000003c0: a0f3 823d 0fbb 823d c5aa 113e 1996 583e
000003d0: 5783 8cbd 8f3f 253c e852 f43d 979e 17bd
000003e0: 8647 d7bc 9a48 23bb ec72 3dbe 228f 683d
000003f0: 9e78 1abe 04ac 1cbe 08c2 1dbe 4942 fe3d

weight_hh_l0 f4 [128, 32]
0.017100973 0.07159851 0.03615038 0.055159613 -0.08516466 -0.15198155 0.059014946 -0.06535749
-0.047601253 -0.064026006 0.03822323 0.04525193 -0.10310887 -0.0052174935 -0.007629558 -0.07504079
-0.019945247 -0.09522389 0.1954552 -0.1170471 0.009878718 0.020087956 0.098495446 -0.011085467
0.06728326 0.0434125 0.08729941 -0.0006933698 0.009164444 0.013914883 0.022750176 -0.14929713
-0.060672313 0.1626395 -0.15699406 -0.11473278 -0.14186291 0.05710967 -0.020906437 -0.100386165
-0.14361086 0.045879055 0.017158637 -0.035867214 0.14663248 0.03615815 0.06676287 -0.113368675
-0.011097334 0.10646683 -0.120952666 -0.1616562 0.0148706315 -0.11634332 -0.055767193 0.0768958
-0.037398566 -0.14421825 -0.0465862 0.1263244 -0.098150715 -0.06212424 0.1129797 0.071732685
-0.0750296 0.09911977 0.12990743 0.082313605 -0.021528158 0.10290836 -0.063191764 0.17426865
0.15793766 -0.15182173 0.15331349 -0.04362808 -0.14321642 0.12038901 -0.17113948 0.04784492
-0.12939914 0.17298555 0.01331428 0.13623127 0.113091335 -0.007130789 0.079982 -0.15364754
-0.028336447 0.15753941 -0.04513428 0.10358659 0.062718526 -0.03249568 -0.007850909 0.08506958
-0.12581769 -0.06741567 0.104415104 -0.06297892 0.13773312 0.06905986 0.02745847 0.12923625
0.09175816 -0.10744844 -0.11445656 -0.05037783 -0.08877154 -0.019576196 -0.2053557 0.217717
-0.13303642 -0.06202321 -0.026584793 0.0096199075 0.07126802 0.1254823 -0.14567803 -0.13394248
0.067734905 -0.010072631 -0.15650891 0.0014695693 0.14044148 -0.13554008 0.016661303 0.15609853
0.12602957 -0.120468184 -0.03684087 0.101993635 -0.0424048 -0.014877781 0.056195065 -0.039177313
-0.039728552 0.14989083 -0.016538367 -0.055743292 0.05531968 0.09065972 -0.091174506 0.12088294
-0.06550718 0.03974293 -0.10876068 -0.06261983 -0.1078992 -0.1571533 0.10965775 -0.16845113
0.057298616 0.041656926 0.028812245 0.16155173 -0.16478436 0.1734144 0.16985472 0.11949916
-0.13198985 -0.16275863 0.1604635 -0.07408801 0.09543142 -0.18571334 0.11174323 -0.15491106
0.047497913 0.1084028 0.0075979703 0.039912954 -0.1464459 0.15812442 0.094421156 -0.14486432
-0.11364792 0.03574676 -0.12385723 0.098885104 -0.14995067 -0.014752961 0.028637702 -0.10965469
-0.062472835 -0.10426268 0.11449164 -0.011444759 0.034539994 -0.11842884 0.087156765 -0.13686967
-0.09083286 -0.18450633 -0.020840606 0.023901626 0.032803886 -0.01960312 0.059271038 0.0097165555
0.067311354 0.12377579 -0.17692144 -0.12670437 -0.0741322 0.098120056 0.06208183 0.060646847
0.109419346 -0.08811875 -0.18016061 -0.07353523 -0.12801963 0.074165426 0.025978135 -0.14798626
0.10414803 -0.07106059 -0.019901972 -0.006017787 0.17204058 -0.1881421 -0.015808199 0.09432937
-0.15830904 -0.10828981 -0.103220284 -0.006337637 0.074049085 0.05498987 -0.080020264 0.005000051
0.054572344 0.046305023 -0.026328696 0.012927057 -0.045021646 0.021726958 0.12576017 0.06283842
0.052362118 0.03891768 0.020573288 0.09397239 -0.08252556 0.07367095 0.14457098 0.08755463
0.051067226 -0.13788423 -0.087297715 0.12461226 0.16729815 -0.10342831 0.012914413 -0.09476437
00000000: 5717 8c3c 3da2 923d 6c12 143d 0cef 613d
00000010: cf6a aebd 0da1 1bbe a8b9 713d 26da 85bd
00000020: 88f9 42bd 1120 83bd f68f 1c3d 165a 393d
00000030: be2a d3bd 82f7 aabb 5f01 fabb fcae 99bd
00000040: 3764 a3bc be04 c3bd 6825 483e 64b6 efbd
00000050: 59da 213c 7f8f a43c fbb7 c93d d29f 35bc
00000060: cecb 893d 4ed1 313d 08ca b23d 42c3 35ba
00000070: 7726 163c 40fb 633c 945e ba3c 59e1 18be
00000080: 8883 78bd f88a 263e 0dc3 20be 05f9 eabd
00000090: 8344 11be d4eb 693d fa43 abbc 4397 cdbd
000000a0: ba0e 13be adeb 3b3d 4590 8c3c 80e9 12bd
000000b0: d326 163e 911a 143d f9ba 883d d62d e8bd
000000c0: 98d1 35bc 480b da3d 08b6 f7bd 3489 25be
000000d0: f3a3 733c 6845 eebd 246c 64bd 8c7b 9d3d
000000e0: 3d2f 19bd f3ad 13be 2cd1 3ebd 2f5b 013e
000000f0: 3e03 c9bd fd75 7ebd e761 e73d 96e8 923d
00000100: 1ea9 99bd 4eff ca3d 7406 053e 0994 a83d
00000110: d25b b0bc 9ec1 d23d af6a 81bd 7b73 323e
00000120: 69ba 213e 2877 1bbe 36fe 1c3e 5cb3 32bd
00000130: 53a7 12be 838e f63d 303f 2fbe 09f9 433d
00000140: 3581 04be 2023 313e 2324 5a3c 3680 0b3e
00000150: 6e9c e73d 65a9 e9bb 9acd a33d c855 1dbe
00000160: d621 e8bc 0352 213e b9de 38bd 3525 d43d
00000170: 9272 803d 311a 05bd 19a1 00bc f638 ae3d
00000180: 5ad6 00be 3a11 8abd 96d7 d53d 18fb 80bd
00000190: e909 0d3e 426f 8d3d 96f0 e03c 8256 043e
000001a0: b4eb bb3d ed0d dcbd 3368 eabd fc58 4ebd
000001b0: dacd b5bd 425e a0bc c448 52be 35f1 5e3e
000001c0: b33a 08be 0d0c 7ebd 5ac8 d9bc d19c 1d3c
000001d0: f8f4 913d 6f7e 003e 9f2c 15be 3828 09be
000001e0: 99b8 8a3d ad07 25bc df43 20be 909e c03a
000001f0: e4cf 0f3e 05cb 0abe 497d 883c 4bd8 1f3e
00000200: e50d 013e 06b8 f6bd 74e6 16bd 0ae2 d03d
00000210: a8b0 2dbd f0c1 73bc cc2c 663d 6478 20bd
00000220: 68ba 22bd fb7c 193e 787b 87bc 1453 64bd
00000230: e496 623d ceab b93d b3b9 babd 7a91 f73d
00000240: a128 86bd 7cc9 223d ebbd debd d33e 80bd
00000250: 41fa dcbd cbec 20be 3e94 e03d 747e 2cbe
00000260: f4b1 6a3d 74a0 2a3d a807 ec3c d16d 253e
00000270: 3bbd 28be 8b93 313e 65ee 2d3e fabb f43d
00000280: 5928 07be 33aa 26be 8b50 243e 74bb 97bd
00000290: 8c71 c33d a32b 3ebe a2d9 e43d 01a1 1ebe
000002a0: 2c8d 423d 4a02 de3d 65f8 f83b c47b 233d
000002b0: eaf5 15be 5eeb 213e e15f c13d 5057 14be
000002c0: 3ec0 e8bd 326b 123d dca8 fdbd 4684 ca3d
000002d0: ab8c 19be 67b6 71bc 9d99 ea3c a392 e0bd
000002e0: 84e3 7fbd ac87 d5bd 987a ea3d cc82 3bbc
000002f0: cf79 0d3d d28a f2bd 3f7f b23d 9027 0cbe
00000300: 9406 babd 3aef 3cbe ebb9 aabc 58cd c33c
00000310: 5e5d 063d b996 a0bc 30c6 723d 3032 1f3c
00000320: 89da 893d 297e fd3d e52a 35be cabe 01be
00000330: 9fd2 97bd 2bf3 c83d 8449 7e3d d468 783d
00000340: 4017 e03d 9a77 b4bd 067c 38be a399 96bd
00000350: 9417 03be 0be4 973d 19d0 d43c b689 17be
00000360: 904b d53d 3788 91bd 7609 a3bc db30 c5bb
00000370: 682b 303e 53a8 40be 3280 81bc c22f c13d
00000380: c41b 22be 0cc7 ddbd 2865 d3bd f4ab cfbb
00000390: 0ca7 973d 0f3d 613d aae1 a3bd 78d7 a33b
000003a0: 4087 5f3d 56aa 3d3d 47af d7bc 02cc 533c
000003b0: 9e68 38bd bcfc b13c 46c7 003e 6eb1 803d
000003c0: a979 563d 2568 1f3d 5089 a83c 9974 c03d
000003d0: 2903 a9bd cce0 963d 6a0a 143e d84f b33d
000003e0: de2b 513d 8631 0dbe 25c9 b2bd b634 ff3d
000003f0: 3550 2b3e 39d2 d3bd f996 533c d213 c2bd

bias_ih_l0 f4 [128]
-0.09102818 0.13160166 -0.0796169 0.057648122 -0.083780475 -0.11580983 -0.1005811 0.09297514
0.080083914 -0.11318198 0.0083051175 0.040662088 -0.057437822 0.09601932 -0.17223883 -0.030853655
0.13747184 -0.112305656 0.13149302 -0.11418792 0.0502051 0.013192974 -0.15991656 0.030786568
0.08062511 0.04665184 -0.045990042 0.18390453 0.10771979 -0.10169647 -0.039567426 -0.13814409
-0.15963975 -0.14655375 -0.173071 0.19513817 0.06629349 -0.043381672 0.10691258 0.06430143
0.04046133 -0.024958743 0.1755993 -0.15259936 0.037265856 -0.004752546 0.13930741 0.009972939
-0.14641787 0.18929572 -0.0955427 -0.11955338 -0.13310409 -0.024812073 0.12012094 -0.057574026
0.025579125 -0.011548405 -0.14656463 -0.0020346488 0.103513055 -0.031649467 -0.1304124 0.12694936
0.07775849 -0.1389324 -0.18439035 -0.04330121 0.036072623 0.15168983 0.109724 -0.046813577
0.07494048 0.055275083 0.070628926 0.17473482 -0.07133171 -0.15019134 0.021724552 0.040122807
0.0013493145 -0.11330578 -0.016938608 0.1635144 -0.14189084 0.01950322 0.011617005 0.018588
0.15007938 0.12723343 0.05711113 -0.10399328 0.070116565 -0.13924198 -0.028832644 -0.10956882
-0.09706691 0.047912482 -0.15419087 0.011667893 0.16320273 0.06772338 0.10062474 0.008984554
-0.08263174 -0.11178779 -0.20028698 0.04675715 0.11093327 0.016551014 -0.14056732 0.18901378
-0.04196967 -0.025251126 -0.032294575 0.19392326 -0.12765335 0.014747894 0.1416167 -0.06836898
0.06795811 -0.078945935 -0.16686507 0.098077975 -0.07228527 0.012015857 -0.007497753 0.01968728
00000000: fc6c babd 96c2 063e 2f0e a3bd 7020 6c3d
00000010: 1995 abbd b42d edbd 77fd cdbd c069 be3d
00000020: 0903 a43d f4cb e7bd 3012 083c 4a8d 263d
00000030: ec43 6bbd c7a5 c43d 605f 30be cec0 fcbc
00000040: 6bc5 0c3e 8200 e6bd 1ba6 063e 5bdb e9bd
00000050: dda3 4d3d 5827 583c 2bc1 23be 1d34 fc3c
00000060: c71e a53d 0016 3f3d 0e60 3cbd 7851 3c3e
00000070: 319c dc3d 3d46 d0bd 7411 22bd a575 0dbe
00000080: 9a78 23be 3012 16be 8639 31be 4dd2 473e
00000090: e2c4 873d fbb0 31bd fcf4 da3d 78b0 833d
000000a0: c8ba 253d 4776 ccbc 4ed0 333e 0243 1cbe
000000b0: 15a4 183d 3fbb 9bbb 9aa6 0e3e 8a65 233c
000000c0: 91ee 15be bdd6 413e e4ab c3bd 67d8 f4bd
000000d0: 704c 08be b042 cbbc f801 f63d bed2 6bbd
000000e0: 508b d13c 8535 3dbc 0a15 16be be57 05bb
000000f0: a7fe d33d dfa2 01bd d48a 05be 03ff 013e
00000100: d83f 9f3d 4c44 0ebe d3d0 3cbe 9c5c 31bd
00000110: e3c0 133d 9454 1b3e fab6 e03d 98bf 3fbd
00000120: 657a 993d 2068 623d e6a5 903d afed 323e
00000130: 5c16 92bd c2cb 19be b0f7 b13c d057 243d
00000140: 7bdb b03a dc0c e8bd d6c2 8abc 5270 273e
00000150: d54b 11be 38c5 9f3c 4055 3e3c dd45 983c
00000160: 69ae 193e 7b49 023e 5ced 693d 6efa d4bd
00000170: 4699 8f3d 7395 0ebe 7032 ecbc 9e65 e0bd
00000180: 04cb c6bd e13f 443d 36e4 1dbe b12a 3f3c
00000190: 9e1e 273e 8eb2 8a3d 5814 ce3d f333 133c
000001a0: d43a a9bd fff0 e4bd 0818 4dbe 6d84 3f3d
000001b0: fb30 e33d fe95 873c e1f0 0fbe d48c 413e
000001c0: 64e8 2bbd 73db cebc 5147 04bd d293 463e
000001d0: 8fb7 02be 27a1 713c f803 113e 0905 8cbd
000001e0: 9f2d 8b3d 68ae a1bd adde 2abe 1bdd c83d
000001f0: 4d0a 94bd 28de 443c b6af f5bb 3847 a13c

bias_hh_l0 f4 [128]
-0.21082458 -0.13592494 -0.076945975 -0.07855681 0.04170631 -0.06867659 0.10776482 0.11069903
-0.117007576 -0.108841345 0.16422449 0.07752335 0.06792899 0.107468046 0.15166609 -0.19234072
0.1232418 0.18717656 0.16096525 -0.15915251 0.03513613 0.08136941 -0.09166433 0.17691888
0.16407266 0.16585763 -0.08799628 -0.055360183 -0.0782932 0.14463392 -0.06595786 -0.060609214
-0.082733326 -0.12398239 0.16405432 0.13055798 -0.023847334 0.038419813 0.04596571 -0.114615984
0.18589078 -0.16273108 -0.04383647 0.08664651 0.15991576 -0.16338518 -0.121317 -0.17168841
-0.13067362 0.13731404 0.048496038 -0.057383586 -0.044638216 0.15828796 0.093201354 -0.16399173
-0.04412395 -0.042925492 0.1529681 -0.07669014 0.033812117 -0.1182938 -0.0114851445 0.03834322
-0.09896549 0.15754038 -0.011360473 0.06518775 0.16805983 0.10766411 -0.15987037 -0.08800869
-0.16229463 0.06591156 0.13942981 0.12152596 -0.036039516 -0.061717127 -0.045089096 0.048882216
-0.10937982 0.16490951 0.10010766 0.1544737 0.05501094 0.08481476 0.093856975 -0.15711822
0.16965531 0.04227346 -0.06266788 -0.056641765 0.010129336 -0.023880228 0.08181338 -0.0014302582
-0.086506054 0.15611233 -0.14000273 -0.18703018 -0.12034722 -0.16078597 0.13214606 -0.0019367202
-0.06308677 0.21105272 -0.19505753 -0.12372339 0.1746906 -0.005132273 -0.13060424 0.04394486
-0.0627329 0.06203433 -0.09654646 0.18485211 -0.033508137 0.15379757 0.019572377 0.095741965
-0.041648615 -0.14022695 -0.15440561 -0.10674078 0.16070715 -0.14616573 0.060092434 0.14929156
00000000: 66e2 57be e82f 0bbe da95 9dbd 65e2 a0bd
00000010: 3cd4 2a3d 50a6 8cbd cdb3 dc3d 2cb6 e23d
00000020: aba1 efbd 36e8 debd 772a 283e 90c4 9e3d
00000030: 5b1e 8b3d 3518 dc3d 5b4e 1b3e f7f4 44be
00000040: 3266 fc3d 36ab 3f3e 13d4 243e e0f8 22be
00000050: e7ea 0f3d 01a5 a63d 82ba bbbd 392a 353e
00000060: aa02 283e 95d6 293e 6537 b4bd 5cc1 62bd
00000070: 2f58 a0bd ea1a 143e ea14 87bd 5e41 78bd
00000080: 1770 a9bd 7bea fdbd dbfd 273e feb0 053e
00000090: 7c5b c3bc 185e 1d3d 8a46 3c3d c9bb eabd
000000a0: 275a 3e3e faa2 26be df8d 33bd ba73 b13d
000000b0: f5c0 233e 724e 27be 0c75 f8bd 16cf 2fbe
000000c0: 4ecf 05be 0d9c 0c3e c8a3 463d 0d0b 6bbd
000000d0: 90d6 36bd 3d16 223e 5ae0 be3d 73ed 27be
000000e0: 51bb 34bd a4d2 2fbd aba3 1c3e b80f 9dbd
000000f0: 937e 0a3d 0544 f2bd 302c 3cbc c80d 1d3d
00000100: 6bae cabd 4452 213e 4721 3abc 2881 853d
00000110: e017 2c3e 007f dc3d 0fb5 23be e63d b4bd
00000120: 9030 26be a4fc 863d b0c6 0e3e 9ae2 f83d
00000130: 2c9e 13bd 19cb 7cbd 58af 38bd b838 483d
00000140: 8702 e0bd 0ade 283e 3f05 cd3d 5b2e 1e3e
00000150: 2753 613d 5cb3 ad3d 1638 c03d 99e3 20be
00000160: 1fba 2d3e f026 2d3d 0458 80bd 3201 68bd
00000170: 84f5 253c 78a0 c3bc c68d a73d 8077 bbba
00000180: 162a b1bd e9db 1f3e e05c 0fbe d784 3fbe
00000190: 9a78 f6bd 14a5 24be 4c51 073e 8cd9 fdba
000001a0: a333 81bd 341e 583e 29bd 47be b062 fdbd
000001b0: 18e2 323e a02c a8bb 1ebd 05be 87ff 333d
000001c0: 1b7a 80bd b617 7e3d 27ba c5bd df49 3d3e
000001d0: d43f 09bd 1c7d 1d3e 4056 a03c 5d14 c43d
000001e0: bd97 2abd a797 0fbe 811c 1ebe e99a dabd
000001f0: 6a90 243e 78ac 15be 7c23 763d e3df 183e

weight_ih_l0 f4 [256, 32]
-0.08740888 0.04388895 -0.05869789 -0.12712674 0.04210298 -0.03451913 -0.013745547 0.12392724
0.14543283 -0.11930367 -0.10377145 -0.1119017 -0.017494205 0.028291976 0.048900504 0.109097496
-0.021888664 -0.06692172 0.050971318 -0.031201027 0.02283246 0.08844958 -0.100730285 0.0999679
-0.105952844 -0.15617464 -0.028819127 0.14901607 -0.045481097 -0.09982365 0.115243465 0.0022376925
-0.0674504 0.013288431 -0.072603635 0.16037032 -0.016669126 -0.004161986 -0.0056179725 0.09669722
0.12648273 -0.15789662 -0.04108542 0.08763783 0.011187373 0.16753398 0.08741652 0.13238837
-0.039688323 0.24409567 -0.1826421 0.1449814 0.030830413 -0.16402535 -0.11692689 0.19033961
-0.057239447 -0.1315272 0.13865827 0.07491654 -0.13428469 -0.30333242 0.041714203 -0.09586258
-0.36405206 0.22220066 -0.37728202 0.12573883 -0.03298029 0.15592305 0.27266872 0.100325875
0.25611565 -0.34269452 -0.08621311 -0.014531985 -0.012106076 -0.38343945 0.27016705 0.09783122
-0.2929509 -0.12151478 -0.38014808 0.00977633 0.029586775 -0.27020687 -0.19827259 0.4059912
-0.37831 -0.39219823 0.17696877 -0.12438918 -0.22705103 -0.07551813 0.44762704 -0.11280809
-0.30750784 0.117024384 -0.015385646 0.009619025 -0.13086738 0.20792283 0.12845679 0.09802453
0.20736454 -0.23993991 -0.1635147 -0.056862265 -0.117011294 -0.03507868 0.054794442 0.2257656
-0.15127802 0.13904908 -0.18194947 0.13130169 0.09395865 -0.2060415 -0.14545129 0.02875261
-0.083728835 -0.24287231 0.2078767 -0.044310678 -0.23303583 -0.07096604 -0.16163497 0.00032053888
-0.043604188 -0.033736467 -0.09816773 0.34937188 -0.12277741 -0.028744632 0.07746795 -0.035891656
0.20702073 -0.22523811 -0.168146 0.11959252 0.083767265 -0.10491352 0.24449259 0.11315894
0.06340309 0.032737665 -0.040547427 0.14894445 0.27279657 -0.11828253 -0.16789798 0.07590285
-0.0578532 -0.10902771 -0.031765323 0.070473194 -0.19699942 -0.061517432 -0.02925995 0.1031861
-0.13498701 0.17306451 -0.15620866 0.118165076 -0.14293392 0.08504961 0.09370581 0.0071157007
0.09122439 -0.16918488 0.05777287 0.05099751 0.065040246 0.19683976 -0.043657947 0.040666528
-0.0704067 0.42257336 -0.118480064 0.079302266 0.3557937 -0.18324602 -0.19987206 0.10831489
-0.07090574 0.03249554 -0.07326696 0.068747155 -0.05235369 -0.09485597 -0.18719552 -0.079408154
-0.23665681 0.19348826 -0.23365915 0.25160676 -0.1477234 -0.04763204 0.20537959 -0.01819496
0.09589318 -0.33151516 -0.24413112 -0.017848253 -0.040896237 -0.21253498 0.13280112 0.0860595
-0.208312 0.073329076 -0.26106808 0.1399875 0.065346 -0.25375742 -0.19946018 0.23856726
-0.09259019 -0.17643711 0.049292102 -0.17311348 -0.18879563 -0.18896249 0.1117733 -0.0053559244
-0.090452544 0.14718094 -0.056148168 0.1382209 0.053254686 0.07091971 0.15189451 -0.07766275
0.023698187 -0.19757241 0.07043455 -0.10789125 0.096888855 -0.10344104 0.15401341 0.05166777
-0.19332948 -0.1423325 -0.011892176 -0.07688183 0.0055692378 0.019513113 0.015023431 -0.043371316
-0.046363138 -0.1607386 -0.029479677 -0.16875531 -0.054355636 0.04177061 0.080873735 0.06610723
00000000: 6d03 b3bd e6c4 333d 336d 70bd 832d 02be
00000010: 2d74 2c3d ee63 0dbd 0135 61bc 91cd fd3d
00000020: 58ec 143e 7c55 f4bd 2086 d4bd b82c e5bd
00000030: 0250 8fbc 93c4 e73c e54b 483d 826e df3d
00000040: db4f b3bc 410e 89bd 4dc7 503d 4c99 ffbc
00000050: 240b bb3c 0e25 b53d ae4b cebd f8bb cc3d
00000060: cefd d8bd 3fec 1fbe 1716 ecbc ab97 183e
00000070: 634a 3abd 5870 ccbd c404 ec3d 40a6 123b
00000080: 6f23 8abd b8b7 593c 37b1 94bd 1e38 243e
00000090: b18d 88bc 4561 88bb f816 b8bb 3109 c63d
000000a0: b084 013e a7af 21be 2f49 28bd 767b b33d
000000b0: 3e4b 373c 078e 2b3e 6f07 b33d d190 073e
000000c0: 3990 22bd 37f4 793e 8806 3bbe 0176 143e
000000d0: 1090 fc3c 43f6 27be 5e77 efbd 63e8 423e
000000e0: e973 6abd 11af 06be 6ffc 0d3e d86d 993d
000000f0: ed81 09be 634e 9bbe 83dc 2a3d 9a53 c4bd
00000100: 0865 babe 9288 633e 1c2b c1be aec1 003e
00000110: 5716 07bd 4baa 1f3e 3c9b 8b3e a777 cd3d
00000120: 9721 833e a875 afbe 8090 b0bd 9017 6ebc
00000130: 9058 46bc 2d52 c4be 5653 8a3e bc5b c83d
00000140: a9fd 95be bedc f8bd c5a2 c2be e62c 203c
00000150: f75f f23c 8e58 8abe f807 4bbe 14de cf3e
00000160: d9b1 c1be 35ce c8be 4d37 353e c1bf febd
00000170: 1180 68be 40a9 9abd 5f2f e53e ee07 e7bd
00000180: ab71 9dbe 7baa ef3d 1414 7cbc 1d99 1d3c
00000190: 1902 06be b9e9 543e 2d8a 033e 16c1 c83d
000001a0: 5f57 543e cfb2 75be 6670 27be 68e8 68bd
000001b0: 9ea3 efbd a9ae 0fbd 2370 603d 192f 673e
000001c0: a0e8 1abe e262 0e3e f650 3abe f373 063e
000001d0: 656d c03d 8bfc 52be 2ff1 14be 988a eb3c
000001e0: 067a abbd 85b3 78be a1dd 543e 1d7f 35bd
000001f0: f2a0 6ebe a556 91bd a383 25be 000e a839
00000200: 4e9a 32bd 402f 0abd 2a0c c9bd dfe0 b23e
00000210: b972 fbbd dd79 ebbc 84a7 9e3d 2103 13bd
00000220: 3efd 533e d2a4 66be 772e 2cbe ecec f43d
00000230: 2c8e ab3d e6dc d6bd 445c 7a3e e0bf e73d
00000240: 7bd9 813d ee17 063d 0f15 26bd e584 183e
00000250: feab 8b3e 1c3e f2bd 73ed 2bbe f472 9b3d
00000260: 7af7 6cbd ec49 dfbd 5b1c 02bd 4054 903d
00000270: 37ba 49be b4f9 7bbd 90b2 efbc 3c53 d33d
00000280: 093a 0abe d337 313e 2af5 1fbe 8800 f23d
00000290: 455d 12be 7d2e ae3d d5e8 bf3d d32a e93b
000002a0: dad3 ba3d cd3e 2dbe 3fa3 6c3d c4e2 503d
000002b0: d233 853d 5d90 493e add2 32bd f291 263d
000002c0: 6331 90bd 895b d83e ada5 f2bd 3a69 a23d
000002d0: 982a b63e d8a4 3bbe 43ab 4cbe 32d4 dd3d
000002e0: 0737 91bd 0b1a 053d fd0c 96bd 4fcb 8c3d
000002f0: d370 56bd d943 c2bd 2fb0 3fbe bea0 a2bd
00000300: 2a56 72be c921 463e 5844 6fbe 9ad2 803e
00000310: ce44 17be d019 43bd 074f 523e 990d 95bc
00000320: a563 c43d 5bbc a9be 82fd 79be 8036 92bc
00000330: d082 27bd c5a2 59be 04fd 073e f73f b03d
00000340: be4f 55be 8e2d 963d b7aa 85be e258 0f3e
00000350: 20d4 853d 7eec 81be 4a3f 4cbe fa4a 743e
00000360: ed9f bdbd eeab 34be 84e6 493d a944 31be
00000370: a453 41be 627f 41be 66e9 e43d c080 afbb
00000380: 2f3f b9bd 9ab6 163e 9ffb 65bd c889 0d3e
00000390: 9621 5a3d 5a3e 913d 3c8a 1b3e a60d 9fbd
000003a0: b322 c23c 6c50 4abe fd3f 903d 16f6 dcbd
000003b0: aa6d c63d e5d8 d3bd b1b5 1d3e 95a1 533d
000003c0: 2af8 45be 9cbf 11be 67d7 42bc 3974 9dbd
000003d0: 277e b63b f7d9 9f3c d624 763c 1fa6 31bd
000003e0: 46e7 3dbd a998 24be 5d7f f1bc 31ce 2cbe
000003f0: 04a4 5ebd a917 2b3d 21a1 a53d 3a63 873d

weight_hh_l0 f4 [256, 64]
-0.12840015 0.10029265 -0.07430254 -0.12158273 -0.047721576 0.027172696 -0.08502155 -0.09519785
-0.03188719 -0.044244137 -0.093225524 -0.025888272 -0.082748234 0.08330744 0.106149 0.06927233
0.10153527 0.06200312 0.037990604 0.12785256 0.08634624 0.030148817 -0.083398245 -0.11763108
0.018517518 -0.08850955 0.079086386 -0.057355274 -0.002182911 -0.008921071 0.092583254 -0.119271405
0.05346421 -0.06349311 -0.07577863 0.0852473 0.05446747 0.033929486 -0.03263271 0.11778754
0.086421706 0.11058248 -0.019807648 0.024117816 -0.07530261 0.09799718 0.028166624 0.025961395
0.08144291 -0.05151195 0.10793293 -0.00014152254 -0.07857043 -0.037324224 0.043467615 0.1322094
0.030805865 -0.030881844 0.013187229 -0.07620799 0.07655688 0.10513561 0.13789375 -0.118671305
-0.107479945 -0.05977418 0.17296253 -0.13470584 0.09611765 -0.037746593 0.17123865 0.07769636
0.025494918 0.048347224 -0.01684703 0.17564256 0.117468454 -0.15005288 0.022585055 -0.10328034
-0.08983556 -0.041193582 0.063483916 0.104760475 -0.071044944 0.084251605 -0.05984798 0.016006147
0.20075615 -0.059057586 -0.116623774 -0.018356107 -0.026549214 -0.023401206 -0.10598535 -0.03755792
-0.15810972 -0.08015582 -0.15397714 0.050135568 -0.113469064 -0.2014244 0.004039675 0.09640923
-0.072020344 0.11358764 0.027838452 -0.118858166 -0.009952663 -0.16110183 0.01264873 -0.106283106
0.0035479425 -0.094769716 -0.022176566 -0.17409241 0.0076591745 0.17279015 -0.052402668 0.058432795
-0.06345297 -0.09031805 0.04628447 0.19701533 0.12385001 -0.15931913 -0.20259118 -0.028717339
-0.21092947 -0.09584112 0.013137537 -0.19120464 0.06966364 0.09101859 0.20959568 0.1754428
-0.15406339 0.05327003 -0.14864843 0.17767814 0.24852754 -0.077045254 -0.05550342 -0.115788564
-0.26293066 -0.21750362 0.14325449 -0.023614625 -0.23999165 0.12597269 -0.034704793 -0.08480594
0.2546769 0.15721431 -0.043223206 0.25467408 -0.23742905 0.0524081 -0.15922873 -0.020968506
-0.17107859 0.17086384 -0.056133244 0.09096727 -0.21167137 -0.1935629 0.14128529 0.22665784
-0.099999614 0.24195947 -0.27518082 0.055797976 0.17331034 -0.18629959 -0.041786823 -0.097372904
-0.067922466 -0.025747862 0.16193044 -0.08894281 0.22016971 0.16369995 -0.07989153 0.14279264
-0.29449645 -0.15874855 0.07402481 0.08253091 0.1074075 -0.112619504 -0.11786961 0.20526516
-0.037842106 -0.07784646 0.103886105 0.087034926 0.013553849 -0.025352508 0.14536574 0.007994703
0.029762173 0.004273462 0.031852853 0.10086445 -0.059505217 -0.09489017 0.036339372 -0.034966562
-0.13580059 -0.088468075 -0.06477536 -0.10602611 -0.03876495 0.15589106 -0.06177813 -0.13390602
0.12066571 -0.05383517 0.017269805 -0.07623084 -0.048393033 -0.07956845 -0.04769439 -0.07198682
-0.07932585 -0.05538127 0.045645606 0.01942906 0.071748875 -0.011539695 0.11584206 0.06718045
0.101105206 0.0075288936 0.10785137 -0.074010335 0.10795367 -0.016618561 0.09988752 0.0798102
0.037655912 0.040787477 -0.095788844 -0.08785768 0.011372754 0.10089382 -0.1464153 -0.0758949
-0.024015795 -0.04569652 0.12708832 0.13598588 0.041465096 -0.061288424 0.043480203 0.09606889
00000000: 547b 03be 3c66 cd3d ee2b 98bd 5e00 f9bd
00000010: b377 43bd 4699 de3c c71f aebd 17f7 c2bd
00000020: 249c 02bd 5739 35bd 06ed bebd a413 d4bc
00000030: e877 a9bd 179d aa3d a664 d93d a7de 8d3d
00000040: b9f1 cf3d fcf6 7d3d 099c 1b3d c8eb 023e
00000050: 4cd6 b03d a7fa f63c b3cc aabd 90e8 f0bd
00000060: 0db2 973c 7f44 b5bd 0bf8 a13d 5ded 6abd
00000070: 2b0f 0fbb af29 12bc 4a9c bd3d 9144 f4bd
00000080: 4afd 5a3d ad08 82bd d431 9bbd 2396 ae3d
00000090: 4819 5f3d a5f9 0a3d e0a9 05bd 983a f13d
000000a0: ddfd b03d 1179 e23d a643 a2bc ba92 c53c
000000b0: 4138 9abd bfb2 c83d b1bd e63c feac d43c
000000c0: 8acb a63d 32fe 52bd f10b dd3d ab65 14b9
000000d0: 89e9 a0bd 49e1 18bd 190b 323d e761 073e
000000e0: 955c fc3c ecfb fcbc 3f0f 583c ef12 9cbd
000000f0: dac9 9c3d 5751 d73d 0534 0d3e f109 f3bd
00000100: 721e dcbd c5d5 74bd 171d 313e 54f0 09be
00000110: 55d9 c43d 2c9c 1abd 2f59 2f3e 451f 9f3d
00000120: b8da d03c bd07 463d c802 8abc a5db 333e
00000130: 4d93 f03d 76a7 19be 4b04 b93c a584 d3bd
00000140: b5fb b7bd 9aba 28bd db03 823d a98c d63d
00000150: 0380 91bd 1b8c ac3d 2823 75bd 531f 833c
00000160: 0593 4d3e 5ee6 71bd 72d8 eebd 8c5f 96bc
00000170: bd7d d9bc e3b3 bfbc d90e d9bd 55d6 19bd
00000180: 84e7 21be bc28 a4bd 2fac 1dbe f45a 4d3d
00000190: 7862 e8bd 3342 4ebe 405f 843b 3472 c53d
000001a0: 677f 93bd a3a0 e83d 770d e43c e96b f3bd
000001b0: 7f10 23bc e1f7 24be 9e3c 4f3c f5aa d9bd
000001c0: 9984 683b a016 c2bd a1ab b5bc 4845 32be
000001d0: d0f9 fa3b e7ef 303e 2ea4 56bd 3a57 6f3d
000001e0: a1f3 81bd abf8 b8bd c994 3d3d 63be 493e
000001f0: 13a5 fd3d 8e24 23be 1074 4fbe a040 ebbc
00000200: e5fd 57be 5948 c4bd d33e 573c 26cb 43be
00000210: cfab 8e3d f467 ba3d 40a0 563e 47a7 333e
00000220: cbc2 1dbe ad31 5a3d 4b37 18be 42f1 353e
00000230: 017e 7e3e e7c9 9dbd 8e57 63bd 8e22 edbd
00000240: d99e 86be 45b9 5ebe 4eb1 123e 7573 c1bc
00000250: 5fc0 75be fcfe 003e 9d26 0ebd bdae adbd
00000260: 0365 823e cafc 203e d10a 31bd a464 823e
00000270: 9a20 73be e0a9 563d db0c 23be 25c6 abbc
00000280: 3a2f 2fbe eef6 2e3e f9eb 65bd 0c4d ba3d
00000290: 61c0 58be 5a35 46be 17ad 103e fe18 683e
000002a0: 99cc ccbd 39c4 773e 80e4 8cbe 6b8c 643d
000002b0: 4478 313e 52c5 3ebe a928 2bbd 726b c7bd
000002c0: ef1a 8bbd 2eed d2bc 18d1 253e a627 b6bd
000002d0: 2b74 613e f6a0 273e 2c9e a3bd 3c38 123e
000002e0: 3dc8 96be fb8e 22be 529a 973d f705 a93d
000002f0: 77f8 db3d 0ea5 e6bd 9f65 f1bd 0831 523e
00000300: 5300 1bbd f76d 9fbd 3dc2 d43d 5e3f b23d
00000310: f710 5e3c 10b0 cfbc c2da 143e 37fc 023c
00000320: cdcf f33c 6608 8c3b 2378 023d 0592 ce3d
00000330: bebb 73bd c755 c2bd 98d8 143d 1939 0fbd
00000340: 4f0f 0bbe c02e b5bd f2a8 84bd 3824 d9bd
00000350: ffc7 1ebd e8a1 1f3e 100b 7dbd a91e 09be
00000360: 951f f73d 4482 5cbd 6879 8d3c ea1e 9cbd
00000370: c637 46bd c9f4 a2bd 315b 43bd d36d 93bd
00000380: 9775 a2bd 78d7 62bd e3f6 3a3d b129 9f3c
00000390: 13f1 923d fd10 3dbc 9a3e ed3d e795 893d
000003a0: 3f10 cf3d f0b4 f63b 2ee1 dc3d bb92 97bd
000003b0: d016 dd3d a623 88bc d491 cc3d 8873 a33d
000003c0: 163d 1a3d c510 273d f12c c4bd baee b3bd
000003d0: ca54 3a3c 6ba1 ce3d e4ed 15be c96e 9bbd
000003e0: c6bc c4bc 462c 3bbd 7123 023e e23f 0b3e
000003f0: 4ed7 293d 9209 7bbd 4c18 323d c4bf c43d

bias_ih_l0 f4 [256]
0.06912156 -0.026398877 0.32556227 0.1384771 0.16637558 0.16237941 0.21394576 0.067376666
0.05869251 0.1861464 0.080895424 0.098020844 0.021940764 0.019468414 0.067063324 -0.07991695
-0.0013581824 0.09065541 0.3355312 0.018313436 0.13716038 0.1495592 0.005658671 -0.025607867
0.18235342 0.35581365 0.0330728 0.088669926 0.17938608 0.12738097 0.19125858 0.09714043
0.07598752 0.2517662 0.07329124 -0.01483691 0.14712249 -0.021633077 0.133923 0.07519926
0.15911421 0.10402928 -0.025487252 0.09432623 -0.007882464 0.029284386 0.18863608 -0.033781417
0.42067856 -0.024718804 0.06383272 0.096354805 0.18042539 0.00894639 0.3842595 0.033824235
-0.053146 0.04290409 0.22113733 0.22581734 0.16785575 0.27196765 -0.044152346 0.15205385
-0.031477254 -0.10823587 0.08556502 -0.09370814 0.028552245 -0.12257546 -0.010956399 0.01161237
0.068406045 0.06795917 -0.057473846 -0.07850819 0.07416336 0.12295389 0.08370558 0.060201205
-0.11623666 -0.07771591 -0.00010753822 -0.1394167 0.112264074 0.020062486 0.103439264 0.10183836
0.07422038 0.022896454 0.01971012 -0.08168286 -0.029812798 -0.018632883 -0.06728089 -0.18490018
-0.0011900775 -0.12578851 -0.09653182 -0.01636649 0.044273052 0.043600313 0.0078517245 0.052592345
-0.035514515 0.039313644 -0.018067189 -0.0883398 0.053826947 -0.023914183 0.001994549 -0.05206699
-0.041757427 -0.08387901 -0.101079054 -0.09517881 -0.0076508923 -0.11964684 -0.19605272 0.11138195
0.13547191 0.09956676 0.09635104 -0.07403893 0.003066423 0.047973435 -0.009577689 0.060631223
-0.011540296 0.06894464 -0.051399693 -0.055230916 0.08311735 -0.043269094 0.17266117 0.1015353
-0.109594285 -0.086038664 -0.1027545 0.03568081 -0.014958904 -0.13035291 -0.101948954 -0.010519788
-0.03362921 -0.02603876 0.18561833 0.056253772 -0.15470237 0.27819097 -0.12187958 0.03215563
0.06524693 -0.04160182 -0.073048756 0.17868318 0.11531222 0.04824973 -0.13434397 0.014655337
-0.066464454 0.013154079 -0.047640793 -0.03251592 -0.090381615 0.06890948 0.05330633 0.09210959
-0.06366899 0.021592395 -0.12514752 0.056668084 0.10672512 -0.06795768 -0.15886532 -0.11344921
0.02750666 -0.09118185 0.088301644 -0.14652291 0.060368426 0.06342458 -0.1554274 0.00015547656
0.035594292 0.030971957 0.27504408 0.101885386 -0.020434374 0.036266103 0.03087561 0.051081687
0.022187244 -0.050617404 0.2084758 0.12462284 0.20578818 0.23339017 0.03810863 -0.033090074
0.0072625475 0.27562732 -0.06986036 0.08316069 0.02632299 0.061536014 0.09647744 0.057504207
0.109783754 0.07129195 0.14384913 0.10009397 0.12208898 0.15003432 0.0078727575 0.15430792
0.04432416 0.40451607 0.17022072 0.007699381 0.13581283 -0.019605657 0.31579354 0.014626881
0.0764392 0.20631823 0.004748011 0.0653933 0.0011193171 0.120660976 0.040802795 -0.051977754
0.23086715 -0.05387487 -0.05484867 0.069938205 -0.02233578 0.13853061 0.1576606 0.17031708
0.30925524 0.15960328 -0.04472906 0.044536505 0.19257556 0.076039165 0.30823192 0.027201107
0.15732813 0.041668475 0.17999373 0.17149818 0.25956398 0.23721115 -0.023977224 -0.04822446
00000000: 9b8f 8d3d 7542 d8bc 19b0 a63e f1cc 0d3e
00000010: 5c5e 2a3e ca46 263e 9914 5b3e c7fc 893d
00000020: 8f67 703d 299d 3e3e 80ac a53d 27bf c83d
00000030: 1ebd b33c 397c 9f3c 7f58 893d 7fab a3bd
00000040: 0a05 b2ba 8ba9 b93d bfca ab3e 0f06 963c
00000050: c573 0c3e 0c26 193e 5f6c b93b 97c7 d1bc
00000060: dbba 3a3e 352d b63e 5877 073d 9498 b53d
00000070: fcb0 373e 2870 023e 4ad9 433e 90f1 c63d
00000080: 589f 9b3d 80e7 803e b819 963d 8316 73bc
00000090: 47a7 163e da37 b1bc 1c23 093e 1202 9a3d
000000a0: d6ee 223e 4e0d d53d a4ca d0bc 1c2e c13d
000000b0: 7325 01bc cfe5 ef3c d129 413e 625e 0abd
000000c0: 2e63 d73e 177f cabc bbba 823d ab55 c53d
000000d0: 6fc1 383e e193 123c a9bd c43e 488b 0a3d
000000e0: 9faf 59bd 33bc 2f3d d371 623e a93c 673e
000000f0: 61e2 2b3e 583f 8b3e 17d9 34bd 01b4 1b3e
00000100: 4bee 00bd c5aa ddbd b73c af3d 0eea bfbd
00000110: 66e6 e93c d808 fbbd 7882 33bc cf41 3e3c
00000120: 7818 8c3d 2d2e 8b3d b269 6bbd e7c8 a0bd
00000130: f6e2 973d 40cf fb3d d56d ab3d 8a95 763d
00000140: 7c0d eebd 8529 9fbd 2486 e1b8 40c3 0ebe
00000150: b5ea e53d 155a a43c f7d7 d33d a190 d03d
00000160: db00 983d 5891 bb3c 1e77 a13c 5849 a7bd
00000170: f839 f4bc fda3 98bc 90ca 89bd 7956 3dbe
00000180: 60fc 9bba b4ce 00be 7ab2 c5bd 0413 86bc
00000190: a957 353d 3e96 323d 85a4 003c 126b 573d
000001a0: ab77 11bd 5807 213d a401 94bc 7feb b4bd
000001b0: a579 5c3d ade7 c3bc fbb6 023b 3244 55bd
000001c0: d609 2bbd c2c8 abbd 8902 cfbd 1ced c2bd
000001d0: 56b4 fabb 6709 f5bd 0bc2 48be 381c e43d
000001e0: 26b9 0a3e a8e9 cb3d b253 c53d b9a1 97bd
000001f0: 0bf6 483b cb7f 443d bdeb 1cbc 7258 783d
00000200: 8213 3dbc d932 8d3d 7c88 52bd d039 62bd
00000210: 6e39 aa3d ef3a 31bd 17ce 303e bdf1 cf3d
00000220: f872 e0bd 0a35 b0bd f470 d2bd 0b26 123d
00000230: 3116 75bc 3c7b 05be 9dca d0bd 305b 2cbc
00000240: c8be 09bd 3d4f d5bc bb12 3e3e 5b6a 663d
00000250: 4c6a 1ebe 0c6f 8e3e 009c f9bd 9fb5 033d
00000260: 2fa0 853d ac66 2abd 969a 95bd b9f8 363e
00000270: d028 ec3d 82a1 453d 7791 09be f01c 703c
00000280: 841e 88bd 3584 573c fe22 43bd 6a2f 05bd
00000290: ff19 b9bd 6a20 8d3d bd57 5a3d f4a3 bc3d
000002a0: e364 82bd 89e2 b03c ac26 00be cb1c 683d
000002b0: b392 da3d 652d 8bbd 97ad 22be 0f58 e8bd
000002c0: a655 e13c 8dbd babd 7ed7 b43d 1a0a 16be
000002d0: e244 773d bfe4 813d 5c28 1fbe 6c07 2339
000002e0: 52cb 113d e7b8 fd3c 94d2 8c3e 49a9 d03d
000002f0: fd65 a7bc c48b 143d d9ee fc3c 083b 513d
00000300: 06c2 b53c 3254 4fbd ae7a 553e 423a ff3d
00000310: 23ba 523e d5fd 6e3e cb17 1c3d 7589 07bd
00000320: aafa ed3b 061f 8d3e f312 8fbd 2750 aa3d
00000330: 50a3 d73c 300d 7c3d f795 c53d 8889 6b3d
00000340: 4ed6 e03d 8401 923d 304d 133e 11fe cc3d
00000350: ca09 fa3d 99a2 193e bdfc 003c e502 1e3e
00000360: 408d 353d bb1c cf3e 574e 2e3e 174b fc3b
00000370: 8512 0b3e 0b9c a0bc b1af a13e 96a5 6f3c
00000380: 288c 9c3d 1645 533e 3495 9b3b ecec 853d
00000390: 0db6 923a 1a1d f73d d520 273d a0e6 54bd
000003a0: 7068 6c3e e5ab 5cbd 00a9 60bd c33b 8f3d
000003b0: 87f9 b6bc f8da 0d3e c871 213e 9a67 2e3e
000003c0: b456 9e3e 0b6f 233e d235 37bd e96b 363d
000003d0: 8732 453e 6cba 9b3d 93d0 9d3e dbd4 de3c
000003e0: a01a 213e 90ac 2a3d 4750 383e 389d 2f3e
000003f0: 92e5 843e 7be7 723e e26b c4bc 0387 45bd

bias_hh_l0 f4 [256]
0.14021835 -0.007668691 0.27646515 0.119311765 0.08915551 0.08268025 0.2561649 -0.048233617
0.07844831 0.25599912 0.1380359 0.15691596 0.0017564656 -0.010617274 0.050832894 0.050795224
0.065662004 0.15249605 0.35737625 -0.018575797 -0.056333434 0.24936765 0.016501186 0.15829965
-0.009650915 0.29370344 0.20781358 0.14717087 -0.012163607 0.15037222 0.21197324 0.10760185
0.119799286 0.38696676 0.14000794 0.15813659 -0.0036241899 0.017907515 0.20148335 0.12147508
0.23609067 -0.018059323 0.15021248 0.2230726 0.1343213 0.11754416 0.04594378 0.0643071
0.29731318 0.13086803 -0.03224705 0.028452234 0.064181164 -0.0772254 0.34640142 0.1572098
0.10854162 0.11907868 0.39322844 0.21776211 0.17748524 0.30680144 0.16803043 -0.02842302
-0.057120536 -0.0056352215 -0.13543943 -0.049785014 -0.06918213 0.0058781183 0.06814622 0.09518023
-0.006728217 -0.07598416 -0.061764564 0.015490488 0.1426739 -0.03310128 -0.06405495 -0.067286946
-0.05042086 0.07963074 0.11277785 -0.026069107 -0.03429624 0.11059657 0.036921732 0.0758936
-0.0686026 0.023872819 0.04210321 -0.11175361 -0.13196237 0.04431012 0.063668884 -0.00041426835
-0.088973776 -0.11375128 -0.056327805 -0.120670885 0.056946788 -0.080217056 0.12096892 -0.016800558
-0.11769416 -0.07531943 -0.05643776 -0.05797203 0.09681818 0.04921864 -0.025080519 0.03407924
-0.06129006 -0.036560338 0.09944601 0.121025406 0.03116534 -0.030302143 -0.16251396 0.15963252
0.015110486 -0.119073965 0.123884045 0.12774405 -0.07022456 0.052783463 -0.018976366 -0.018968849
-0.13931517 0.0960581 0.1750634 0.022059197 0.17245862 0.09405986 0.16743933 0.19525905
-0.1975798 0.03277177 -0.050894402 0.013159795 0.12652694 -0.12977216 -0.15948157 0.07702997
-0.008818898 -0.04384984 0.38327044 -0.098479405 -0.14162505 0.25664005 -0.02194647 -0.057738245
-0.024575762 0.048984773 -0.21705373 0.019816723 0.06854508 0.067664154 0.03586303 -0.12126827
-0.032309424 -0.06577749 -0.10562889 -0.02382955 -0.027110936 -0.12823291 0.023963349 0.058846325
-0.11010027 -0.063685946 0.062034626 -0.059933033 -0.042624176 -0.030741608 -0.053586535 0.0016506145
-0.06947331 -0.09440089 0.022041824 -0.10513909 0.15365472 0.17070459 -0.01105635 0.20432733
0.0018035722 -0.11664057 0.4141683 0.15166785 0.01543928 -0.120591216 -0.111214474 0.19510694
-0.08756091 0.13335271 0.19660765 0.13192365 0.09945325 0.10471597 -0.028281318 -0.0067140833
-0.018055193 0.160686 0.0073922263 -0.010207424 0.07424547 -0.00857371 -0.043814912 0.039663848
0.005340578 0.015150909 0.18105634 -0.043263454 0.115427196 0.3070997 0.049562097 0.0038745992
0.1481985 0.22202541 0.027047928 -0.024144636 0.11106866 0.044363838 0.5239117 0.14749438
0.19835639 0.33702266 0.047547184 0.12047105 0.18155757 0.13552052 0.044310573 0.15498817
0.14589322 0.06270508 -0.075138934 0.2371327 0.06349134 0.09991753 0.16987093 0.1955603
0.3343646 -0.016205471 0.13447472 0.07274809 0.031620257 -0.009778844 0.33811688 0.13772397
-0.045724742 0.09491931 0.29308066 0.07505015 0.14489563 0.3282942 -0.058230463 0.12422847
00000000: 6695 0f3e a549 fbbb d78c 8d3e ba59 f43d
00000010: 2a97 b63d 4354 a93d 0c28 833e 9d90 45bd
00000020: 82a9 a03d 5112 833e 4859 0d3e 94ae 203e
00000030: 3539 e63a 13f4 2dbc 2736 503d a70e 503d
00000040: cd79 863d ed27 1c3e 05fa b63e 452c 98bc
00000050: e3bd 66bd 3c5a 7f3e 7f2d 873c 4e19 223e
00000060: df1e 1ebc 4c60 963e 15cd 543e f6b3 163e
00000070: de49 47bc 2dfb 193e 830f 593e 5c5e dc3d
00000080: 5459 f53d 8220 c63e 3e5e 0f3e 8fee 213e
00000090: d183 6dbb c8b2 923c a751 4e3e edc7 f83d
000000a0: c1c1 713e 25f1 93bc 4dd1 193e 256d 643e
000000b0: 868b 093e feba f03d 8c2f 3c3d 71b3 833d
000000c0: 6f39 983e 4502 063e 7c15 04bd a914 e93c
000000d0: 6a71 833d 5a28 9ebd 875b b13e 9bfb 203e
000000e0: 124b de3d 86df f33d 3d55 c93e 08fd 5e3e
000000f0: b1be 353e 1415 9d3e 2b10 2c3e 65d7 e8bc
00000100: 39f7 69bd aaa7 b8bb a2b0 0abe 5feb 4bbd
00000110: 5caf 8dbd 3b9d c03b 3f90 8b3d daed c23d
00000120: 6078 dcbb 959d 9bbd d7fc 7cbd d1cb 7d3c
00000130: 1b19 123e 3595 07bd 3e2f 83bd bdcd 89bd
00000140: 1b86 4ebd 7115 a33d 13f8 e63d e18e d5bc
00000150: 377a 0cbd 7480 e23d 3e3b 173d 1b6e 9b3d
00000160: 857f 8cbd ee90 c33c 6a74 2c3d 14df e4bd
00000170: 2521 07be 877e 353d d564 823d 2832 d9b9
00000180: e237 b6bd 6ef6 e8bd fcb7 66bd 4c22 f7bd
00000190: 0941 693d d748 a4bd 8ebe f73d 53a1 89bc
000001a0: a309 f1bd 1341 9abd 482b 67bd 1474 6dbd
000001b0: 9c48 c63d 7c99 493d a975 cdbc ac96 0b3d
000001c0: 490b 7bbd 4bc0 15bd 5aaa cb3d 2bdc f73d
000001d0: 754e ff3c 333c f8bc 0f6a 26be b576 233e
000001e0: f991 773c 0ddd f3bd ebb6 fd3d 56cf 023e
000001f0: e5d1 8fbd 7933 583d 5374 9bbc 8f64 9bbc
00000200: a3a8 0ebe 1cba c43d d243 333e 7db5 b43c
00000210: fe98 303e 75a2 c03d 3775 2b3e fdf1 473e
00000220: 5c52 4abe b13b 063d a676 50bd 2e9c 573c
00000230: 4790 013e fee2 04be 234f 23be e4c1 9d3d
00000240: 247d 10bc e49b 33bd 063c c43e 92af c9bd
00000250: 2806 11be 5366 833e 15c9 b3bc f07e 6cbd
00000260: 1c53 c9bc 42a4 483d 5543 5ebe ae56 a23c
00000270: 5d61 8c3d 8193 8a3d 1de5 123d 805b f8bd
00000280: e356 04bd 59b6 86bd f653 d8bd 3036 c3bc
00000290: c117 debc 7d4f 03be c94e c43c d808 713d
000002a0: 407c e1bd c76d 82bd 0518 7e3d 577c 75bd
000002b0: b096 2ebd d3d5 fbbc 8e7d 5bbd 6f59 d83a
000002c0: 0648 8ebd 4155 c1bd 0e91 b43c 2a53 d7bd
000002d0: aa57 1d3e 2fcd 2e3e b125 35bc 2f3b 513e
000002e0: d765 ec3a 40e1 eebd de0d d43e d14e 1b3e
000002f0: 09f5 7c3c 87f8 f6bd 6ac4 e3bd 1dca 473e
00000300: 2253 b3bd 9d8d 083e 8453 493e fe16 073e
00000310: 25ae cb3d 5475 d63d 39ae e7bc d001 dcbb
00000320: 7ce8 93bc df8a 243e 7d3a f23b 0a3d 27bc
00000330: 020e 983d bf78 0cbc 4477 33bd 8f76 223d
00000340: 0400 af3b 853b 783c d566 393e 0535 31bd
00000350: 1865 ec3d 2c3c 9d3e a001 4b3d fdec 7d3b
00000360: 59c1 173e a15a 633e 9e93 dd3c f9ca c5bc
00000370: f777 e33d dbb6 353d 141f 063f c408 173e
00000380: f01d 4b3e 3c8e ac3e d6c0 423d 87b9 f63d
00000390: 3aea 393e e4c5 0a3e 017f 353d 38b5 1e3e
000003a0: 0865 153e 856b 803d 71e2 99bd ead2 723e
000003b0: bf07 823d 90a1 cc3d a5f2 2d3e f640 483e
000003c0: d631 ab3e 56c1 84bc beb3 093e f3fc 943d
000003d0: 3e84 013d 7237 20bc a81d ad3e 8307 0d3e
000003e0: de49 3bbd 0e65 c23d ab0e 963e e5b3 993d
000003f0: 855f 143e 2d16 a83e 1183 6ebd 7f6b fe3d

weight f4 [32, 64]
0.051665373 -0.029622108 0.3060455 -0.10996534 0.09530148 -0.23887818 0.0340536 0.061649986
-0.01565657 -0.47588536 -0.07171908 0.115966305 -0.013572044 -0.123551235 -0.02959404 0.13515377
-0.020503633 0.0496784 0.22682428 0.41916844 -0.115157016 -0.053445145 0.31121123 -0.0128496885
-0.09492159 -0.325079 0.013172068 0.06321921 0.0034036927 0.2024129 -0.4076738 -0.14739014
-0.13820171 -0.043852597 0.14743981 -0.007791148 0.006670456 -0.05930003 -0.14785628 0.05267136
0.18392475 0.088941656 0.06887848 -0.5873881 -0.0057356884 0.048921708 -0.13704741 0.029272413
0.5514195 0.038773775 0.11407294 -0.047951974 -0.023099573 0.060423672 -0.5153807 0.12287619
-0.13632314 -0.091927536 0.21400258 0.09121421 -0.1959817 -0.26827654 -0.11243127 0.16989186
0.02014244 -0.021750655 0.22998792 -0.043176226 0.034428895 -0.20217827 -0.038214955 0.077063605
0.01857866 -0.6900965 0.082148895 0.12276759 -0.009803605 -0.13284579 0.051426314 0.19696559
-0.096588954 -0.087485395 0.07983479 0.3136338 -0.013103508 0.018453067 0.24543741 -0.0098155495
0.007395163 -0.19522578 -0.058808796 0.03605618 0.11077065 0.07076037 -0.42080277 -0.09827979
-0.14398986 -0.1637062 0.14196709 -0.09387987 -0.004379654 -0.04722869 -0.08757269 -0.04080248
0.097822145 0.013593453 -0.028801978 -0.61969596 0.08511602 -0.03500202 -0.14048123 -0.052364487
0.38841474 0.016040059 -0.0126997195 0.06091946 -0.021192024 -0.05939565 -0.36300087 0.012995089
-0.10075183 -0.03998879 0.113642894 0.0070946896 -0.21729815 -0.13516273 -0.03330469 0.11817907
-0.08574278 0.0012375916 0.08177417 -0.07066148 -0.13159092 -0.04665215 -0.17583483 -0.08438373
0.11792013 -0.39352596 0.18224615 0.065817535 0.08903607 0.055181157 0.07102588 0.17858486
0.07032973 0.098824605 0.010760639 0.3758048 0.10834054 -0.06183082 0.040426604 0.1446582
0.062438738 0.0078051975 0.1483672 0.072477475 0.0036930898 -0.20731954 -0.034678638 -0.20763603
-0.05479716 -0.052214343 0.05634454 -0.13126864 0.08871891 -0.0548438 -0.13423406 -0.0933014
-0.110096164 0.04712551 0.04108202 -0.10889017 -0.012387764 0.12586723 0.03739147 0.04908826
0.17998572 -0.0009931211 0.040989336 -0.042665895 0.016156873 0.0040448895 -0.2083666 -0.030382646
0.08426815 0.087013595 -0.17662464 -0.13027889 -0.031083591 -0.06631137 0.17978273 0.05955973
0.05203604 -0.02275317 -0.009157993 -0.18716332 -0.04873112 0.21581627 -0.013695031 0.08697382
0.043775942 0.6041641 -0.10667197 -0.13817252 0.062383033 0.022867613 0.051927958 -0.25186902
-0.113873675 0.049307488 -0.043968447 -0.166046 0.016415644 0.13076702 -0.23751616 -0.008588779
0.011733238 0.42393887 -0.08122955 0.14317724 -0.19141492 -0.09350334 0.4220614 0.08898528
-0.15138246 0.25813884 -0.2506131 0.06387965 -0.12493064 -0.16735299 0.09104426 0.06504487
-0.31882125 0.18772125 -0.14198954 0.5823283 0.1793989 -0.14577445 -0.05315773 -0.12526388
-0.32788685 -0.03512633 -0.034449372 -0.055710275 0.04867839 -0.05489846 0.34654778 -0.06382353
-0.091873184 -0.168041 0.084107615 0.016980303 0.19941607 0.17076197 0.115208015 -0.05880823
00000000: 129f 533d 10aa f2bc ffb1 9c3e 8235 e1bd
00000010: 6c2d c33d 7b9c 74be ca7b 0b3d b284 7c3d
00000020: 3542 80bc 3fa7 f3be 74e1 92bd be7f ed3d
00000030: 475d 5ebc 6e08 fdbd 336f f2bc c065 0a3e
00000040: 3cf7 a7bc 947b 4b3d a044 683e 3f9d d63e
00000050: 71d7 ebbd 4ce9 5abd 1457 9f3e 8087 52bc
00000060: 4066 c2bd c170 a6be a8cf 573c 1379 813d
00000070: 7d10 5f3b 5445 4f3e 9fba d0be 71ed 16be
00000080: c084 0dbe c89e 33bd 76fa 163e e34c ffbb
00000090: d793 da3b 97e4 72bd a367 17be edbd 573d
000000a0: c556 3c3e 0b27 b63d 2910 8d3d 115f 16bf
000000b0: 71f2 bbbb 2162 483d 2856 0cbe b3cc ef3c
000000c0: d429 0d3f 40d1 1e3d 139f e93d 4a69 44bd
000000d0: 513b bdbc d07e 773d fdef 03bf 83a6 fb3d
000000e0: 4b98 0bbe 8144 bcbd 7e23 5b3e 84ce ba3d
000000f0: 6daf 48be 8b5b 89be 5e42 e6bd 22f8 2d3e
00000100: c201 a53c 6e2e b2bc f481 6b3e 8ed9 30bd
00000110: 5005 0d3d d207 4fbe 4987 1cbd 86d3 9d3d
00000120: 4632 983c 2aaa 30bf ae3d a83d 936d fb3d
00000130: 4d9f 20bc ba08 08be 66a4 523d 59b1 493e
00000140: 6ed0 c5bd 8b2b b3bd 6c80 a33d 9c94 a03e
00000150: 19b0 56bc e32a 973c f253 7b3e 66d1 20bc
00000160: 2053 f23b 44e9 47be 7ee1 70bd a5af 133d
00000170: b9db e23d d0ea 903d 7673 d7be ea46 c9bd
00000180: 1472 13be 99a2 27be d25f 113e 1744 c0bd
00000190: 3383 8fbb df72 41bd 4f59 b3bd 8020 27bd
000001a0: fa56 c83d 13b7 5e3c 20f2 ebbc 65a4 1ebf
000001b0: 4f51 ae3d 475e 0fbd 50da 0fbe 257c 56bd
000001c0: 4cde c63e 7166 833c 7c12 50bc af86 793d
000001d0: e59a adbc da48 73bd 40db b9be 5be9 543c
000001e0: fa56 cebd 49cb 23bd 9bbd e83d 927a e83b
000001f0: 6883 5ebe 1968 0abe 806a 08bd de07 f23d
00000200: e999 afbd af36 a23a 3779 a73d f7b6 90bd
00000210: c5bf 06be 5316 3fbd 0c0e 34be 61d1 acbd
00000220: 1c80 f13d 3c7c c9be bc9e 3a3e 58cb 863d
00000230: 8b58 b63d a305 623d 0476 913d f3de 363e
00000240: 0909 903d 8e64 ca3d 644d 303c 7d69 c03e
00000250: a5e1 dd3d 5042 7dbd 5e96 253d 4721 143e
00000260: c3bf 7f3d bec2 ff3b 92ed 173e 126f 943d
00000270: c407 723b 934b 54be 300b 0ebd 8a9e 54be
00000280: fd72 60bd b5de 55bd 88c9 663d 496b 06be
00000290: 43b2 b53d e4a3 60bd a774 09be ce14 bfbd
000002a0: 197a e1bd ae06 413d 9f45 283d cf01 dfbd
000002b0: 0cf6 4abc 57e3 003e cc27 193d c510 493d
000002c0: 2d4e 383e 9d2b 82ba 6fe4 273d 6fc2 2ebd
000002d0: 6b5b 843c fe8a 843b 0e5e 55be 07e5 f8bc
000002e0: c894 ac3d 2f34 b23d 17dd 34be d467 05be
000002f0: 04a3 febc 41ce 87bd f718 383e e7f4 733d
00000300: be23 553d db64 babc 680b 16bc bea7 3fbe
00000310: 489a 47bd f1fe 5c3e 2061 60bc 551f b23d
00000320: 674e 333d 80aa 1a3f d576 dabd 197d 0dbe
00000330: 5a85 7f3d dc54 bb3c 69b2 543d faf4 80be
00000340: 9a36 e9bd a6f6 493d 4218 34bd f607 2abe
00000350: 1a7a 863c cae7 053e 7037 73be f3b7 0cbc
00000360: c43c 403c 840e d93e ae5b a6bd 0e9d 123e
00000370: 4602 44be ae7e bfbd 6f18 d83e ea3d b63d
00000380: 0104 1bbe c62a 843e 5c50 80be 55d3 823d
00000390: a3db ffbd 955e 2bbe 6a75 ba3d 3f36 853d
000003a0: 8a3c a3be 003a 403e b565 11be 7813 153f
000003b0: 58b4 373e e645 15be ebbb 59bd 2d45 00be
000003c0: c9e0 a7be a0e0 0fbd c91a 0dbd 7530 64bd
000003d0: fe62 473d 35dd 60bd b66e b13e e9b5 82bd
000003e0: 0228 bcbd f112 2cbe 9d40 ac3d 471a 8b3c
000003f0: ba33 4c3e 3adc 2e3e 2ef2 eb3d e6e0 70bd
