100000specmodel.pt (torch, 145734 bytes, 16 tensors)

weight_ih_l0 f4 [128, 16]
000000 af 10 fb 3b 4e 8e 7d bd 53 85 c3 bd 31 0d 85 3c
       0.007661901 -0.06190329 -0.09546914 0.016241642
000010 a3 44 2b bd 53 3e 0f be 9a 88 85 bd ea 5d 6d 3d
       -0.041813504 -0.13988619 -0.06520195 0.05795089
000020 01 e2 e5 3d 78 9c c6 bd e8 a6 91 3c 46 15 0d 3d
       0.112247474 -0.09697813 0.017779782 0.034444116
000030 a4 8f 98 bd 12 17 3d be de da 83 3d 0d 1f fb bd
       -0.07449272 -0.18465832 0.0643823 -0.12261782
000040 0d 13 33 3e e4 aa f0 3b e9 7a 63 be 28 69 61 be
       0.17487736 0.0073445905 -0.22214855 -0.2201277
000050 fd bd 3e 3c 8d ae 10 be d0 e4 36 3c af b2 24 3e
       0.011641976 -0.14129086 0.011162952 0.16083787
000060 6c 8d ee 3d a5 fc 3b 3e 9a 8c 02 be 19 7b 51 bd
       0.11648068 0.18358095 -0.12748948 -0.051142786
000070 6b a5 53 3d d4 63 3a ba 5a 90 6a bd 37 71 fa 3d
       0.051671427 -0.00071102125 -0.05726657 0.12228625
000080 3a 69 5e 3b f4 15 27 3e a7 01 02 be 83 74 0a bd
       0.0033937232 0.16316968 -0.12695943 -0.03380252
000090 f7 29 be 3d 85 a0 04 3e f8 fb 34 3d 27 39 2f 3e
       0.09285348 0.12951858 0.04418561 0.17111646
0000a0 f3 8b eb 3b 93 af 25 3e 15 90 89 bc f7 6c 34 bd
       0.007188314 0.16180257 -0.016792336 -0.04404923
0000b0 6f 43 b7 bb a2 6c da bd 4b 22 b8 bc b3 b4 97 bd
       -0.0055927555 -0.10665251 -0.02247729 -0.074075125
0000c0 08 17 83 bd ac a9 d7 3b a3 32 1b 3d 0e c0 d9 bc
       -0.06400877 0.0065815058 0.037890088 -0.026580837
0000d0 b9 4a 5e be ba ce 4a be 27 c3 67 3d f8 93 ad 3d
       -0.21708192 -0.19805422 0.056582596 0.084754884
0000e0 18 81 e2 b9 75 07 f3 bd b3 42 38 be 89 54 a1 3d
       -0.0004320226 -0.11866657 -0.17994194 0.07877452
0000f0 d7 ef 00 be 4f d8 48 3d 9c eb 0e bd f7 17 9d 3d
       -0.12591492 0.049034413 -0.034892663 0.076705866
000100 f3 70 3f 3e 39 a2 51 3d 36 4c 89 3c b6 8d ff 3d
       0.1869543 0.0511801 0.016759973 0.12478201
000110 d7 9b 0f 3d 8a dc 59 be 2b cf 24 3e aa 00 a7 bd
       0.03506073 -0.21275535 0.16094653 -0.081544235
000120 cb 68 25 3d 91 a5 1b be cf 03 43 be 97 83 69 3c
       0.04038314 -0.15199877 -0.19044422 0.014252565
000130 77 3d d8 bd 9e 0f 8c be 8b b0 0a bd 3d 08 7a be
       -0.105585985 -0.27355665 -0.03385977 -0.24417205
000140 de c9 60 bd 14 58 00 3c 80 ec fd 3b 71 a7 e6 3d
       -0.054880016 0.007833499 0.0077491403 0.11262406
000150 89 78 12 3e f4 8d ab bb 0d 3a 8c 3b 59 8e 85 3d
       0.14303793 -0.005235428 0.004279381 0.06521291
000160 b1 67 31 bb de c2 d3 3d 4c f6 14 3e 17 07 28 3d
       -0.0027069862 0.10339902 0.1454708 0.041022386
000170 f8 9f a0 bc a6 e9 32 3e f9 91 da 3d 12 c0 7c 3c
       -0.019607529 0.17471942 0.10672373 0.0154266525
000180 d2 e8 24 3d 50 12 4c bd 6e 40 e3 3d a2 bd bd bd
       0.040261097 -0.04982215 0.11096273 -0.09264685
000190 05 c1 cc 3d ff 21 fd bc c3 a6 73 be f7 d8 bd 3d
       0.09997753 -0.0309 -0.23794083 0.092698984
0001a0 ae 5f 71 3d f3 b9 14 be c4 d9 52 be 4d 0e f1 bd
       0.058929138 -0.14524059 -0.20590883 -0.11770306
0001b0 a9 e2 94 3d 7e 55 de bc 4b c9 b7 bc d9 ea 31 be
       0.072697945 -0.027140375 -0.022434851 -0.17374744
0001c0 68 8d 2d be 99 eb 42 3d 0e f7 38 be a0 01 6f bd
       -0.16948473 0.047587965 -0.18062994 -0.05835116
0001d0 3c 6b da 3d 32 73 1e 3d 1b ba ea 3d 36 d1 38 be
       0.106649846 0.038684078 0.11461278 -0.18048558
0001e0 53 f5 51 3d d1 58 31 be 85 d9 74 3e dc 7d 25 3e
       0.05125935 -0.17319037 0.23911102 0.16161293
0001f0 17 8f a6 bb b1 ec 3b bd 6a 69 2f bb ea b1 86 bd
       -0.0050829756 -0.045880023 -0.0026765713 -0.06576903
000200 e8 c6 ae bc 34 ec 7a bc bb 5e d0 bd 87 1a f3 bd
       -0.02133508 -0.015315104 -0.101743184 -0.11870294
000210 00 49 c6 3d 03 ae ae bb 45 93 80 bd 88 6e e5 3b
       0.096818924 -0.0053308024 -0.062780894 0.0070017017
000220 f4 34 5a be ca ff ea 3d 7c 03 a5 bd 53 f4 8e bd
       -0.21309263 0.11474569 -0.08057305 -0.06980195
000230 8b 3d dc 3d 26 35 9e bc d3 18 84 3d b8 cf 5a be
       0.10753926 -0.019312453 0.06450047 -0.21368301
000240 f4 08 31 3e 89 1f cf 3d 3b 73 40 be 2f 5b 2e bc
       0.17288572 0.10113437 -0.18793957 -0.010641857
000250 48 04 18 3e c1 ff 57 bd 59 9a f7 bd 9d 46 c1 3d
       0.14845383 -0.05273414 -0.12089986 0.094372965
000260 fe 31 07 3e b1 71 d7 bd d1 20 e6 3d bc f9 21 be
       0.13202664 -0.10519732 0.11236728 -0.15817922
000270 67 97 9a bc 75 64 52 3e 74 5a 61 bc 0b 0c 36 bd
       -0.018871022 0.20546134 -0.013754476 -0.04444508
000280 f8 f6 0c bd 0c 03 02 be 52 c9 19 be bd e7 de bd
       -0.034415215 -0.12696475 -0.15018204 -0.10884044
000290 19 37 c8 bd f0 18 a1 3c 33 e6 0d 3e 0a 84 fb bd
       -0.09776134 0.019665211 0.13857345 -0.12281044
0002a0 7a 73 8b bd 50 60 64 3c bf 3c 28 be a2 d1 cb 3d
       -0.06809135 0.013938978 -0.16429423 0.09952094
0002b0 b0 80 01 be 16 36 9d bd 99 5b 28 be 35 9f 00 3e
       -0.12646747 -0.07676332 -0.16441192 0.12560733
0002c0 27 c3 21 be 83 2f 47 bc 8d 9c 7c 3d 56 07 4e bd
       -0.15797101 -0.012157324 0.061672736 -0.050299965
0002d0 3f e0 f6 bd 73 42 84 bd a5 52 3c be 1b d2 22 3c
       -0.1205449 -0.06457987 -0.18390901 0.009937788
0002e0 12 5a f1 3d d3 1c 63 3d 5d ab a6 be 4e 32 a0 bd
       0.11784758 0.05544741 -0.32552615 -0.07822095
0002f0 d5 87 c7 bc ee 8c 4b bd 94 52 9e 3d 48 06 20 3d
       -0.024356762 -0.049694948 0.07730594 0.03906849
000300 d1 6d 19 3e ea ba a4 3d 00 73 e9 3c da 35 fb 3d
       0.14983298 0.080434635 0.02849722 0.12266131
000310 68 74 87 bd ef cb 29 3e 46 c3 a7 3d 28 66 c6 3c
       -0.066139996 0.165817 0.08191542 0.024218634
000320 43 c6 e4 bd 86 bb dd 3d 00 1b b5 bc de 9b c8 3d
       -0.11170628 0.10826783 -0.022107601 0.09795354
000330 e8 d7 42 bd c0 ba 3d 3d 28 58 1b 3d 00 16 4d bc
       -0.047569185 0.046320677 0.03792587 -0.012517452
000340 ff ee fd 3d 53 58 c4 3d 43 40 ac 3d ae 28 16 be
       0.123991005 0.09587159 0.084106945 -0.14663956
000350 30 4f 0a 3d f0 2c 2b 3e 8d 91 2b 3e 81 cc 2d 3e
       0.033766925 0.16716361 0.16754742 0.16972543
000360 06 8e 89 bd cc ea bb 3d cb c2 0c be 1b 57 28 bd
       -0.06716542 0.09175643 -0.13746183 -0.041098695
000370 8f 04 94 3d c4 f7 81 3d ff 9c 33 3e 95 5e c9 3d
       0.07227432 0.06346086 0.17540358 0.09832493
000380 f0 88 9f bd 1a 95 99 3d f0 1a ab bd 88 3f fb bd
       -0.07789791 0.07499142 -0.08354747 -0.12267977
000390 18 99 c1 3c 03 39 30 be cd 65 12 bb 59 27 10 be
       0.023632571 -0.17209248 -0.002233851 -0.1407751
0003a0 ee 76 f6 bd 59 fd e2 3d 48 73 97 bd d6 e9 87 3d
       -0.12034403 0.110834785 -0.07395035 0.066363975
0003b0 68 80 17 be 84 bc d3 bd 5a 99 07 3e 0a 52 02 3e
       -0.14795077 -0.10338691 0.13242093 0.12726608
0003c0 9b 02 81 3d 61 b8 59 3e 04 31 af 3d 96 74 ce bd
       0.06299325 0.21261741 0.08554271 -0.10080831
0003d0 6a 0a 47 3d 2d 9a 36 3e 88 d7 21 be 1a 31 7a bd
       0.048593916 0.17832251 -0.15804875 -0.061081983
0003e0 08 43 5a be 85 92 0b 3e 28 7e 1d bc 62 b7 f5 bd
       -0.21314633 0.13630112 -0.0096125975 -0.11997868
0003f0 0a 51 fe 3d 90 ba 59 be 97 6e 3b bd 6b 28 19 3e
       0.12417801 -0.21262574 -0.045759764 0.14956824

weight_hh_l0 f4 [128, 32]
000000 62 dd 56 3d 11 51 20 3d b4 18 62 3d 14 46 6a 3d
       0.05245722 0.03913981 0.05519934 0.057195738
000010 2c 14 20 be 22 4f bb 3d 1a 26 04 be 75 05 00 3e
       -0.15632695 0.09145953 -0.1290516 0.12502082
000020 19 4e 45 3c f4 e9 e0 bd 7e 75 9a 3d 42 b6 87 bd
       0.012042546 -0.10982123 0.07541941 -0.0662656
000030 ec 00 9b bd 40 08 14 be ef 8a fa 3d 53 88 08 3c
       -0.07568535 -0.14456272 0.12233531 0.0083332835
000040 a9 2c 8b 3d 59 32 3f be 7b 50 8c bd cc 7f 29 3d
       0.067956276 -0.1867155 -0.06851288 0.041381642
000050 24 b7 5c 3d a0 50 22 3e 96 5c ac bc d7 c9 1c 3e
       0.053885594 0.15851068 -0.021040242 0.15311371
000060 b0 8b 95 bd d8 f8 df bd 90 3e 70 3d e9 5f 9a bb
       -0.07302034 -0.10936135 0.058653414 -0.0047111404
000070 68 20 a4 bc 75 7d 79 3d 79 91 c4 3c 0b 6a b7 3d
       -0.020034984 0.06091066 0.023995148 0.08955773
000080 38 e7 fa bc 20 15 36 bd d8 ce 9a bd 2c 09 10 be
       -0.030627832 -0.04445374 -0.075589836 -0.14065999
000090 4c 64 09 bd 29 5c 17 3e 0c 5e 94 3b 98 f7 d2 3d
       -0.033542916 0.1478125 0.004527813 0.10301131
0000a0 cf 1b 83 3d c1 0a 0e bc 92 79 77 bd 80 99 21 3c
       0.064017884 -0.008669556 -0.060418673 0.009863257
0000b0 d0 9e 1c bc 50 95 2d bc 2c 5b 96 3c e7 85 4d 3e
       -0.009559348 -0.010594681 0.018354021 0.20070611
0000c0 b9 44 30 3e 7e 3a cf bd 0c fd 0f 3d 5a d1 55 bd
       0.17213716 -0.101185784 0.035153434 -0.052201606
0000d0 c7 fb e6 bd 47 29 26 3d d9 be 8a 3d c4 94 5b bd
       -0.112784915 0.04056671 0.067746826 -0.05360867
0000e0 d1 b6 67 3d d8 c2 05 3d 11 15 25 be b3 f8 e3 3c
       0.05657083 0.03265652 -0.16121317 0.02782855
0000f0 b7 19 23 be a6 a3 91 3c 7f 0b 02 be 1c 5c 2d 3d
       -0.15927778 0.017778229 -0.12699698 0.04232417
000100 06 e0 fb bd 7e 8b 0f be 76 96 ca 3d 9e e8 01 3e
       -0.122985885 -0.14018056 0.098919794 0.12686393
000110 ed ae f6 bd e0 9c 4c 3c a8 c5 27 bd a2 4e cd 3d
       -0.12045083 0.012488574 -0.040959984 0.10024764
000120 fb b2 a2 bc 5c a8 5b bd ec 20 06 be 53 1f 87 bd
       -0.019860735 -0.053627357 -0.13098496 -0.065977715
000130 97 25 24 3e e8 73 11 3d 18 3a 96 bd c3 99 0a 3e
       0.16029964 0.035510927 -0.07335299 0.13535218
000140 98 42 fa 3d 27 b3 f3 bd a3 a2 8a 3d e4 d7 54 39
       0.12219733 -0.11899405 0.06769302 0.00020298321
000150 e7 5b 91 3d af c7 06 3e 23 12 c7 3d b6 c0 40 3d
       0.07097607 0.13162111 0.09720256 0.047058783
000160 29 1d 22 3e 46 0f e9 bc 00 1b 72 3c 14 37 e5 3c
       0.15831436 -0.028449666 0.014776945 0.027980365
000170 d4 b9 ed bd cc be 11 be e7 1d 17 be a6 4e 07 3d
       -0.116077095 -0.1423294 -0.147575 0.03303399
000180 e6 1f a9 3d 71 11 1c 3c 51 31 34 be f5 7f 3f be
       0.08258037 0.009525643 -0.17596938 -0.18701155
000190 92 4f ef 3b 27 92 2b be 08 f8 18 3e 16 84 06 3e
       0.0073031867 -0.16754971 0.14938366 0.13136324
0001a0 70 e4 2e 3d bd d0 d8 bd 7b 96 9a 3d a4 19 cc 3d
       0.042698324 -0.10586689 0.07548233 0.09965828
0001b0 00 10 6d 38 87 ad ad bd 1d 84 36 3e 81 cd ce 3d
       5.6520104e-05 -0.08480363 0.17823835 0.100977905
0001c0 4e cb fe 3c 19 f2 54 be 78 99 a1 3c 92 49 a0 3d
       0.031102803 -0.20795478 0.0197265 0.078265324
0001d0 48 df 37 bd 9d f5 a9 bd c9 8d e7 3d 01 1a 14 3e
       -0.044890672 -0.082988 0.1130634 0.14463045
0001e0 68 bc 14 be 17 10 2d 3d f9 0b 02 be 24 9e 46 be
       -0.14524996 0.042251673 -0.1269988 -0.19396263
0001f0 56 e9 07 be 8a 9c 29 be 4f 61 77 bc ed fb 70 bb
       -0.13272604 -0.16563621 -0.015098884 -0.0036771253
000200 03 af 88 3d 42 f9 d8 bb 1c 90 13 be 33 d7 2b 3e
       0.06674006 -0.0066215107 -0.14410442 0.1678131
000210 6b 51 b1 bd 90 3d da 3c cf 53 6a bb 51 30 2a 3c
       -0.08658107 0.026640683 -0.003575552 0.010387496
000220 e1 ae 31 3d 5f 3a 4d be 09 2c ef bb b5 83 8b bc
       0.04337967 -0.20041798 -0.0072989506 -0.017030576
000230 0d 2d ba bd a0 5e 30 bd 4d ff 3e 3e 20 79 92 bc
       -0.09090624 -0.04305899 0.18652077 -0.017880023
000240 a5 b1 72 bd 4c 46 e3 bd 72 a6 ae 3c dc 43 b7 bd
       -0.059251446 -0.110973924 0.021319602 -0.0894849
000250 bc ee 42 bc ac 1b 5c bb a1 df 88 3d 2b 2a b9 bd
       -0.011897739 -0.003358583 0.06683279 -0.09041246
000260 ed 1f 47 3e 5b 9b be bd ce a0 21 be 0e 89 92 3d
       0.19445772 -0.093069755 -0.15783998 0.07155047
000270 e2 ff a1 3d 6c bb 00 be 70 26 76 be 96 e5 b4 bc
       0.07910134 -0.12571496 -0.240381 -0.022082131
000280 ce 45 57 bd e1 4c 04 be 7d ed 29 3e ca 36 b8 3d
       -0.052556805 -0.12919952 0.16594501 0.08994825
000290 ba fa 17 3e b1 45 ad bd 6c 9a e7 bc fe 2b 59 3d
       0.14841738 -0.08460558 -0.028271876 0.05302047
0002a0 24 65 f2 bc 13 ee 95 bd 47 99 13 bd 9e e8 30 bd
       -0.029589243 -0.073208 -0.03603485 -0.04319059
0002b0 8d 21 ad bd 68 24 95 bc 34 1b c3 bd de 5d 37 3d
       -0.08453665 -0.018205836 -0.09526673 0.044767253
0002c0 c6 45 07 3d e5 79 19 bd 39 49 1e be f2 37 73 bd
       0.033025526 -0.037469763 -0.1545762 -0.059379525
0002d0 a3 66 10 3e 94 ba 94 3c 4e 7d 34 be c3 2c 90 bd
       0.14101653 0.018155374 -0.17625925 -0.070397876
0002e0 1b bf 1a be da b4 10 3d 3a ed b7 3d 93 29 8c bc
       -0.15111963 0.035328723 0.08980794 -0.017109668
0002f0 64 30 20 3d b2 64 ca 3c 38 3c 06 bd f6 fd fc 3d
       0.03910865 0.024706218 -0.032772273 0.12353127
000300 22 7b b9 bd 08 4e 5c bb 2f cc d5 bd 07 d9 10 3d
       -0.09056689 -0.0033615846 -0.104393356 0.035363223
000310 8e df 77 3d 2d e3 12 3e 37 d0 a0 3d a2 21 d2 3d
       0.060515933 0.14344473 0.07852214 0.10260321
000320 af bd 7e 3d 3f f3 4b 3d f2 14 ab bb 28 b7 a8 bc
       0.062192615 0.049792524 -0.0052210027 -0.020595148
000330 68 24 bd bc 28 e0 06 be 66 19 06 3e 52 ef 1e be
       -0.023088649 -0.13171446 0.13095626 -0.15520981
000340 65 91 08 3e 71 91 b7 3d d1 3a db bd fb 71 7d bc
       0.13336714 0.089632876 -0.10704578 -0.01546907
000350 49 64 24 3e 1b ff 3d 3d b7 a9 e0 3c 66 1f 53 bd
       0.16053881 0.046385866 0.027424676 -0.051543616
000360 82 d8 17 be df 6e ba 3c 88 58 0a bd 08 4c 5c be
       -0.14828685 0.022757946 -0.033775836 -0.21513379
000370 08 04 2b bd 33 94 c9 bd 9f 97 31 bc dc 8e 8b 3d
       -0.04175189 -0.0984272 -0.010839372 0.06814358
000380 ca 9c a7 bd a0 ae e9 3d 26 fa 83 bd ab 54 d0 bc
       -0.08184202 0.1141026 -0.064441964 -0.025430998
000390 ab 63 81 be 28 a2 c7 bc f4 32 ab bc 73 89 d8 be
       -0.25271353 -0.024369314 -0.02089832 -0.42292365
0003a0 40 44 8f bd dc 40 47 3e 3f 77 99 3d ef db 78 3e
       -0.069954395 0.19458336 0.074934475 0.24302648
0003b0 cc 48 d7 bd f3 d5 9b bd a3 f5 1f 3c 9c bf 96 3e
       -0.10511932 -0.07609167 0.009763154 0.2944306
0003c0 10 2a 15 bd 50 7a d2 bd 5e 80 b5 bd af 5f 08 be
       -0.036417067 -0.102772355 -0.08862375 -0.1331775
0003d0 cd e3 0d be 2c 3c 44 be 47 71 ac 3d 8a 9b e8 3c
       -0.1385643 -0.19163579 0.084200434 0.02839448
0003e0 5b 2d 62 bc 0e 58 2f 3e 50 ee 7b 3c fa 35 58 3e
       -0.013804759 0.17123434 0.015376642 0.2111434
0003f0 60 c1 24 3d 5e 68 21 3e 1e 8f f4 3c ae 3b 18 3e
       0.04022348 0.15762469 0.0298534 0.14866516

bias_ih_l0 f4 [128]
000000 c6 72 e3 3b 6d b4 ce 3d 52 b8 27 bd 47 16 87 3c
       0.0069411723 0.10093007 -0.040947266 0.016490115
000010 36 2c 10 bd 2c 59 0d bd 21 3d fa bd b7 11 d3 3d
       -0.035198413 -0.03450887 -0.12218691 0.10306113
000020 e8 aa 17 3e 9a 5c 14 3e 71 1a 99 bd 92 22 3b 3e
       0.1481129 0.1448845 -0.074757464 0.18274906
000030 5a ab fc bd 7e 7e 9f 3d 94 a8 01 3e 7c ff 22 bd
       -0.1233737 0.07787798 0.12661964 -0.03979443
000040 02 5a 97 3d a8 c7 d9 3d 97 bc 43 bb ed 2f 0b 3e
       0.073902145 0.106337845 -0.0029867047 0.13592501
000050 72 24 4e 3e 7a ba e5 bd 8f 4d 08 be 20 d1 0a be
       0.2013109 -0.11217208 -0.13310836 -0.13556337
000060 f3 eb 67 be 81 86 20 be 78 14 f9 bd fc 12 05 be
       -0.22648601 -0.15676309 -0.12162107 -0.12995523
000070 e5 e0 d4 bd 2a a3 1a 3e 75 25 0b 3d 9f 04 8e bd
       -0.10394458 0.15101305 0.03397127 -0.06934475
000080 3f d7 43 be 86 fb db bd 50 ec ef bd a0 ef 2c 3d
       -0.19125079 -0.10741334 -0.11714995 0.04222071
000090 af d3 f3 bb b6 47 ea bc 97 7a 7c be 2f 91 0a be
       -0.007441006 -0.028598648 -0.2465614 -0.13531946
0000a0 99 47 06 be 3c dc 0c 3e 0d b8 2d be 06 e1 1e bd
       -0.1311325 0.13755888 -0.16964741 -0.038788818
0000b0 28 23 bb bc 7a 7a f4 3d 50 81 a5 3d e5 7f 3f 3d
       -0.022843912 0.11937423 0.08081305 0.04675283
0000c0 00 ec 01 3d 27 f1 eb bd 4a 1f b9 bd 94 16 1f 3b
       0.031719208 -0.115206055 -0.09039171 0.0024274932
0000d0 dc 01 a1 3e cb 1c ba bd a2 fd c3 bd 40 ae c5 bc
       0.3144673 -0.09087523 -0.09569861 -0.02413094
0000e0 a0 d1 81 be f4 f4 44 be 68 b7 b8 3c 97 41 09 3e
       -0.25355244 -0.19234067 0.022548392 0.13403927
0000f0 b0 b4 ce 3c 7e 5d 6f bc 35 d1 b4 3d f1 02 60 bd
       0.025232643 -0.014609693 0.088289656 -0.054690305
000100 5f 78 bc 3c eb 3e eb bd f2 42 cb 3d 62 e7 90 bd
       0.023006616 -0.1148661 0.09924878 -0.07075383
000110 b8 c3 e9 bd d6 cb ea 3d ee 07 bb 3d c7 a5 31 3e
       -0.114142835 0.1146466 0.09132372 0.17348395
000120 f2 71 1a 3d 4d 68 c1 3c 12 7e 73 3d 05 46 b8 3d
       0.037706323 0.023609305 0.059446402 0.0899773
000130 cf fa c0 bd 69 d4 32 3e dd 81 00 3e 09 bf fc 3b
       -0.09422838 0.1746384 0.12549539 0.007713203
000140 00 13 a0 bb 31 46 f6 bd 6b 42 49 3d 57 5b 06 3e
       -0.0048850775 -0.12025107 0.049135607 0.13120781
000150 fb b4 c6 ba e8 e0 1e be 42 d0 84 bd ef 29 27 3e
       -0.0015160138 -0.15515482 -0.064850345 0.1632459
000160 51 e6 32 3e 27 2e 00 be 6c 6e 0b be c2 42 d6 bd
       0.17470671 -0.12517606 -0.13616341 -0.10461952
000170 23 d1 1f 3e a0 b4 e7 3c 06 1e d6 bd 19 bb 9e bd
       0.15607123 0.02828437 -0.10454945 -0.0775053
000180 86 b8 f4 bd e9 a7 cc bd 4f a2 99 bd 0a 17 dd 3b
       -0.119492576 -0.09992964 -0.07501661 0.0067471312
000190 df 88 44 3d 0a 2c d6 3d f2 46 18 be 8b 5a 54 3d
       0.047982093 0.104576185 -0.14870813 0.05184416
0001a0 af ed 5e 3d 7e 0c ee 3d fb f9 60 bd 2d 22 0a 3d
       0.05442589 0.116234764 -0.0549259 0.033724
0001b0 48 1b a3 bc 81 cb 11 be 2a 35 7c bd 55 4b 41 3e
       -0.01991047 -0.14237787 -0.06157414 0.18876393
0001c0 3e 24 0e be 44 9b 45 be bb 31 43 3d fe 46 c8 bd
       -0.13881013 -0.1929751 0.04765485 -0.09779166
0001d0 80 07 4f bc e2 69 22 3e a6 7e cd bd 7a 18 a3 3d
       -0.0126360655 0.15860704 -0.10033922 0.07963653
0001e0 09 c2 44 be e7 e0 c7 3d 76 3d ab 3d 21 f8 80 bd
       -0.19214644 0.097596936 0.08361332 -0.06297327
0001f0 a2 8f b1 3d 89 71 12 3e ec 8f f6 bd 0e 29 e5 3d
       0.08669974 0.14301123 -0.1203917 0.11189471

bias_hh_l0 f4 [128]
000000 ae b3 2e bc 04 1d cc bc cd c8 1d 3e 56 3b 7d 3c
       -0.010662956 -0.02491618 0.1540863 0.015456041
000010 39 25 05 be cf d5 d1 3d 8b e8 e8 bd b5 de d9 3d
       -0.1300248 0.10245859 -0.11372479 0.10638181
000020 a0 c2 28 3e 70 35 0b 3e d8 43 ef bd aa 1e 66 3d
       0.16480494 0.13594604 -0.11682862 0.056181587
000030 40 78 52 3d aa 9d 11 be d9 49 25 3e bd 3f 8e 3d
       0.05138421 -0.142203 0.16141452 0.06945751
000040 36 df ef 3d 73 34 0b be 5d fe 18 be fb 41 1d 3e
       0.11712496 -0.13594227 -0.14940782 0.15357201
000050 be 77 8c 3d cf d5 f2 3d 49 0e 94 bd 0f 17 f2 3d
       0.068587765 0.11857187 -0.07229287 0.11820804
000060 9c f9 10 be 1d 72 08 bc 59 b7 26 3e 7b a5 1a 3d
       -0.14157718 -0.008327988 0.16280879 0.03775547
000070 07 a3 32 be 90 2c d2 3d 0e 4c cb bc 01 f3 a2 bd
       -0.17445002 0.10262406 -0.02481654 -0.079565056
000080 cf bd 06 be e5 30 39 3d e8 e0 e3 3d 55 40 38 3e
       -0.13158344 0.045212645 0.11126882 0.1799329
000090 0f 91 ae 3d 8e 47 24 3e 4b 72 1c 3d c6 75 d1 3d
       0.085237615 0.16042921 0.038194936 0.102275416
0000a0 df 8f 46 bd 40 0b ee 3d 26 4c e0 3d 8f bb 1c bd
       -0.04847705 0.116232395 0.10952024 -0.038264807
0000b0 00 3b aa bc e2 97 02 be 08 24 4c 3e f5 36 83 3d
       -0.020780087 -0.12753251 0.1993562 0.064069666
0000c0 cd 58 9d 3c 73 97 a0 3d b9 27 18 bd 19 cd 21 3d
       0.019207383 0.07841387 -0.037147257 0.039502237
0000d0 31 99 97 3e 2e b7 06 bd 49 c6 b1 bd d0 20 fd bc
       0.29609063 -0.032889538 -0.08680398 -0.030899435
0000e0 84 95 ba bd b5 80 47 bd bc ca 71 bd 96 49 86 3d
       -0.09110549 -0.04870673 -0.059031233 0.06557004
0000f0 20 9c e0 3c cd 18 4e 3d c2 8b 02 bd 2d 92 c3 bd
       0.027418196 0.05031662 -0.031871565 -0.09549365
000100 58 3e 07 3e 85 d6 47 be 14 b7 06 3d 2f 2d 33 be
       0.13207376 -0.19515426 0.03288944 -0.17497705
000110 dc 87 ab bd bc 8a 00 be cc 8f 09 be f3 02 29 3c
       -0.083755225 -0.12552923 -0.1343376 0.010315645
000120 9f ec 31 be 41 82 a4 3d d6 c1 35 3e 5b 45 2f bc
       -0.1737542 0.080326565 0.17749724 -0.010697688
000130 36 92 d8 3d 8f 8e 27 3e f4 31 c1 bd 79 ad ed bd
       0.105747625 0.16362976 -0.09433356 -0.11605353
000140 11 ef 1e 3e fc 39 12 be ca 36 c8 3c 04 b6 95 3d
       0.15520884 -0.14279932 0.024440188 0.07310107
000150 22 a6 20 3e 98 0e 9e bc 1b 5b 21 3d 42 a1 58 bd
       0.15688375 -0.019294068 0.039393526 -0.052888162
000160 4c 92 75 3d 4d a9 19 3e ba 6b e4 3d 86 b9 c4 bd
       0.059953973 0.1500599 0.1115336 -0.09605698
000170 40 4b 15 bd 27 e3 b6 bd 60 8a dc bb ae 10 c3 bc
       -0.036448717 -0.089300446 -0.006730363 -0.023811664
000180 bb 5e 1d bd d8 ff 8b be d6 c2 0d 3d 7a 8d ee bd
       -0.03842042 -0.2734363 0.03460964 -0.11648078
000190 26 c5 8d bd 5c 6b 6e 3d ad 9b ca 3d ae df ea bd
       -0.06922369 0.058207855 0.09892974 -0.11468445
0001a0 bc 59 48 3e 9f e5 2f 3e 3e d9 06 3c e2 4c 0f 3d
       0.19565481 0.17177437 0.0082305055 0.03498543
0001b0 14 75 2b 3d 2b 70 99 bd 2d 0b 38 3e 07 1a ae 3d
       0.0418597 -0.074920975 0.17973013 0.08501058
0001c0 e5 4b 45 be 8d b9 c3 3d ee 04 6f be dc 30 95 3d
       -0.19267233 0.095568754 -0.23341724 0.0728471
0001d0 c4 7c 21 be c3 c0 06 3d 1d e7 39 be 85 62 82 bc
       -0.1577025 0.032898676 -0.18154569 -0.015916118
0001e0 3c 4f 74 bd 85 13 53 bc f4 d7 34 bd dc e9 d0 bd
       -0.059645876 -0.012883072 -0.04415126 -0.10200855
0001f0 62 9b ca 3d b6 a0 89 bd 44 5e 12 be 40 c0 23 bd
       0.09892918 -0.06720106 -0.14293772 -0.039978266

weight_ih_l0 f4 [256, 32]
000000 5d 8a 04 3f 09 11 04 bf 61 49 90 3a bd 66 2e be
       0.51773626 -0.51588494 0.0011008197 -0.17031379
000010 ad 75 2c 3e ec 92 9e bd ed 47 aa be 04 f1 f1 3e
       0.16841765 -0.07742867 -0.33258 0.47254193
000020 92 3c 46 be b6 c6 37 3e 6a 75 e1 be fd dc e5 bd
       -0.19359043 0.17946896 -0.44034892 -0.11223791
000030 d0 c2 71 3c 78 b6 84 3c 37 11 bf 3e 8e 15 af be
       0.01475592 0.01620029 0.3731782 -0.34196132
000040 d7 d6 c0 be b0 61 5c be 57 02 2c 3f 5a 09 9a be
       -0.3766391 -0.2152164 0.6719107 -0.3008526
000050 36 74 52 3e 87 b6 a4 3e 96 f5 2c bf 9f 47 a1 3c
       0.20552143 0.32170507 -0.67562234 0.019687472
000060 5a a2 17 3f 52 84 92 bf 46 73 a7 3d 7f 73 02 bf
       0.59232104 -1.1446631 0.081762835 -0.50957483
000070 84 83 8e bd c5 c7 a8 be a6 64 1e 3e b7 be 38 bf
       -0.06958678 -0.32964912 0.15468082 -0.7216601
000080 eb fd a5 3d 8a 87 67 be 47 f1 ff bc 97 a2 8e bd
       0.08105072 -0.22610298 -0.03124298 -0.06964605
000090 b6 0b 48 3e 38 82 38 3d 82 8f 84 be ae bb fe 3d
       0.19535717 0.04504606 -0.25890738 0.12438141
0000a0 1d d5 66 be 0f 77 c9 bd 05 fc ff bd 27 ae 3c be
       -0.22542234 -0.09837162 -0.12499241 -0.18425809
0000b0 60 01 7b 3c 38 f6 0a bd a4 12 8e 3e dc 76 2c 3e
       0.015320152 -0.03392622 0.27748597 0.16842216
0000c0 dd f7 41 be d2 f0 1b be 1f 9b ec 3d 06 c9 2c be
       -0.18942209 -0.15228584 0.115530245 -0.1687356
0000d0 d3 21 fe bd fd 42 11 3e d5 de 8e 3d 0d 60 4e 3e
       -0.12408795 0.1418571 0.069760956 0.20153828
0000e0 18 da bb 3d 13 2e 06 be f4 c3 83 3d cc 38 8f be
       0.091724575 -0.13103513 0.064338595 -0.2797302
0000f0 70 2f 37 bc bd 96 76 be 21 e8 ab bd 81 bd bc 3d
       -0.011180744 -0.2408094 -0.083938845 0.092158325
000100 54 4a 63 3e 33 3c 33 be 04 48 a3 3d 66 65 b7 be
       0.22196323 -0.17503433 0.0797272 -0.35819548
000110 9b 0e ca 3d 08 47 ba bc 73 cb 96 be 9e 1f f5 3e
       0.09866067 -0.022738948 -0.29452094 0.47875684
000120 ce 0d d7 be 8b 01 0c bd fe 4a 2a bb 7d d8 0b bf
       -0.4200272 -0.03418116 -0.002598464 -0.5462721
000130 38 80 dd bd 00 02 f4 bb e1 a1 15 3e cb 20 8e 3e
       -0.108154714 -0.0074465275 0.14612533 0.27759394
000140 da 92 a7 be b1 c2 2e be ca 43 8e 3d 8e 65 88 be
       -0.32729226 -0.17066456 0.069465235 -0.2663998
000150 ea 41 07 be d8 3f af 3e ba 67 f9 3d b5 c2 4f 3d
       -0.13208738 0.34228396 0.121779874 0.050722796
000160 aa 27 e6 3d 46 0e 9d 3e fc a8 95 3d 3e b4 9b be
       0.11238034 0.30674952 0.07307622 -0.3041095
000170 30 ba 22 bc dd 96 0e be d9 05 d7 bd ff 7c 89 3d
       -0.009932086 -0.13924737 -0.10499162 0.06713294
000180 23 6e 9e 3e 7b 52 29 be 40 92 c3 bd 6d 94 77 be
       0.30943403 -0.1653537 -0.09549379 -0.24177714
000190 96 96 c1 bc 60 88 8b bd ea 80 78 be 56 e5 02 3f
       -0.023631375 -0.06813121 -0.24267927 0.5113119
0001a0 9a d1 63 be 32 3d 96 be 63 df 9f bd 09 84 39 be
       -0.22247925 -0.29343563 -0.078062795 -0.18116774
0001b0 d8 6a 7a 3d 48 32 88 3c fe ec 2c 3e 80 91 a7 3e
       0.06113705 0.016625538 0.1688728 0.32728195
0001c0 ba 9b 54 be 45 3b 38 3e 73 48 0a 3d 94 f7 0a be
       -0.2076253 0.1799136 0.0337605 -0.13571006
0001d0 80 64 17 be 03 5b 7a 3e 8e ed e1 3d 4c c2 bf bd
       -0.14784431 0.2444878 0.11031638 -0.09363231
0001e0 f0 34 95 3d 2e 03 33 3e 96 96 9c 3d 88 c3 ed bd
       0.07285488 0.17481682 0.076459095 -0.1160956
0001f0 8e f6 dd bd 04 d5 f4 bd 15 07 18 be e5 1d e4 3d
       -0.10838042 -0.11954692 -0.14846452 0.111385144
000200 22 08 f4 3d 36 e9 71 be 97 56 bc bc b6 a0 e5 bb
       0.11915614 -0.23624119 -0.022990508 -0.0070076836
000210 00 dd a3 3d e8 89 8b bc 99 c2 80 be 62 94 82 bd
       0.08001137 -0.017033532 -0.25148466 -0.06375958
000220 1f 85 30 be b9 0d aa bd 6d 62 0e 3a 9c 49 f5 bd
       -0.17238282 -0.08303399 0.00054315367 -0.119769305
000230 20 e0 e3 bb e0 6a e2 bd e5 ed 6d 3e 72 4d 2a be
       -0.006954208 -0.11055541 0.23235281 -0.16631106
000240 0a 8a e5 bd 00 3b 61 3d 19 9b d9 3c 13 4c 5a be
       -0.112079695 0.054987907 0.026563214 -0.21318083
000250 e2 06 86 bc f6 b3 d5 3d d3 0a 2e be 55 4c ba bc
       -0.016360704 0.104347154 -0.16996317 -0.022741476
000260 25 4d 9b 3d 2f ae 22 bc 74 58 61 bd c3 16 3f be
       0.075830735 -0.009929224 -0.055015996 -0.18661027
000270 24 fd b2 3d 47 fe 41 be 9e 16 9b bd 3c 00 1e 3e
       0.08739689 -0.18944655 -0.07572673 0.15429777
000280 df 80 02 3f 85 e5 2f bf 56 2d 80 bc a9 21 b2 be
       0.5097789 -0.68709594 -0.015646618 -0.34791306
000290 89 25 0e 3f ae 76 dd bd 0a 23 d2 be 24 2f 64 bc
       0.55526024 -0.10813652 -0.41042358 -0.013927255
0002a0 96 0e f1 be bd 4e 78 3c 7a 7a 1d bf 99 52 ad be
       -0.4708144 0.015155491 -0.6151501 -0.3385208
0002b0 60 59 d4 3d 02 71 9c 3d 0d 3b 0e 3f ed fb 18 bf
       0.103686094 0.07638742 0.55558854 -0.5975941
0002c0 ce a2 19 bf af 06 22 bf 19 b9 e6 3e cc 47 19 bf
       -0.60014045 -0.6329145 0.45063093 -0.5987518
0002d0 a7 2a 34 3d f5 61 1e 3f ec 5f 1d bf e8 99 f0 3e
       0.04398599 0.6186822 -0.6147449 0.4699242
0002e0 38 f0 17 3f 2e 80 4e bf d0 6e 5a bd 8a 22 07 bf
       0.5935092 -0.80664337 -0.053328335 -0.5278708
0002f0 20 41 d2 bd ff 0e 19 bf 51 c5 c2 3c 5d 94 e3 be
       -0.10266328 -0.5978851 0.023775728 -0.4444913
000300 e9 51 54 3e 45 2a 40 be 34 cd 21 3d dc 10 68 be
       0.20734371 -0.18766125 0.039502338 -0.22662681
000310 c6 4f 79 3d d0 c4 49 3d cf 83 5e be 12 90 b2 3e
       0.060867094 0.04925996 -0.21729968 0.34875542
000320 62 43 48 be 6c 32 bd 3d 59 b2 ce 3d 2a 08 62 be
       -0.19556955 0.09238133 0.10092611 -0.22073427
000330 24 8e 64 bd b6 30 c2 bd f4 8b 12 3c 82 02 aa 3d
       -0.05579962 -0.09481947 0.0089445 0.083012596
000340 d6 51 41 be 39 48 5b 3e 75 81 de bc 92 e5 05 be
       -0.18878874 0.2141427 -0.02716134 -0.13075855
000350 e6 a8 1f be ae 08 9c 3d d7 12 b7 3d 33 87 ac bc
       -0.15591773 0.07618843 0.0893914 -0.021060562
000360 b8 0b 5c 3e 9d 72 48 3e 7a 27 da 3d cd f7 1d be
       0.21488845 0.19574971 0.10652061 -0.1542656
000370 d2 47 86 3d d6 95 e8 bd 37 85 68 bd aa 07 4d bd
       0.065566674 -0.11356704 -0.05676767 -0.050056137
000380 83 6c 02 3f 7d 2a 12 bf 50 11 74 3d 5b 12 93 be
       0.50946826 -0.5709608 0.059586823 -0.28724942
000390 08 84 25 3f 38 05 73 bd c2 90 87 be 82 c6 15 3f
       0.6465459 -0.05933115 -0.2647763 0.58506024
0003a0 ba 63 0a bf 29 83 ba bd ce fb 3d bf 2c 0b 06 bf
       -0.5405842 -0.09107048 -0.7421235 -0.52360797
0003b0 28 61 02 bd f0 91 5f bd 68 9f d3 3e f9 a4 70 3d
       -0.031830937 -0.054582536 0.41332555 0.05875108
0003c0 ba f2 36 bf ea d8 bb be 17 b4 0c 3f af fb 0a bf
       -0.7146412 -0.3668893 0.54962295 -0.5429029
0003d0 ec 4a 0a bc 13 a1 12 3f 47 1d 72 be 4b bf 0d 3f
       -0.008440714 0.5727703 -0.23643981 0.55370015
0003e0 f5 dd b5 3e ff 1b a5 be 80 83 be bd dc ef fc be
       0.35520902 -0.32247922 -0.093024254 -0.49401748
0003f0 38 e7 47 3d 67 57 10 bf e4 59 d0 be bf ae 0d bf
       0.04880449 -0.56383365 -0.4069358 -0.55344766

weight_hh_l0 f4 [256, 64]
000000 2a da 42 be 67 c0 fc 3d 4b cd 41 3e c4 d1 bd bd
       -0.19028535 0.12341385 0.1892597 -0.09268525
000010 a4 96 20 be 9b 25 dc bd 20 a2 6f be e7 5c 6e 3e
       -0.15682465 -0.1074936 -0.2340169 0.23277627
000020 81 f3 91 be d2 49 ca be 60 35 83 3e 40 5d de bd
       -0.2850609 -0.39509445 0.2562666 -0.1085763
000030 1e df a1 3e a6 0b af 3e 17 95 af 3e 69 ee 59 be
       0.31615537 0.34188575 0.34293434 -0.21282353
000040 70 e6 76 3e a7 ba e6 3d d7 6b 23 3d 8d 46 97 be
       0.24111342 0.1126607 0.039897766 -0.29546013
000050 48 a8 4c bd 7c f2 8e be 7c 64 6d 3a 70 d3 cc be
       -0.049965173 -0.27919376 0.0009055806 -0.40005064
000060 03 11 7f 3e 66 ce e0 bd 9b 55 46 bc 7a 16 9a 3e
       0.24908833 -0.109768674 -0.012105371 0.30095273
000070 36 88 46 3e 32 90 9c be 66 25 2a be 83 24 9f 3d
       0.19387898 -0.30578762 -0.16615829 0.07770636
000080 3a 52 69 3d 8e 37 32 3e b6 23 c8 be 79 67 49 3e
       0.056963183 0.17404005 -0.39089745 0.19668378
000090 4b 45 93 3e 8b 17 9f 3e c7 60 90 3e 54 4e 49 3e
       0.28763804 0.3107265 0.28198835 0.19658786
0000a0 d1 5a 8c be 29 c0 46 3e 9f 4a 9e be 54 fb 59 3e
       -0.27413037 0.19409241 -0.30916306 0.2128728
0000b0 37 5b 59 3d 95 e8 a6 be 31 7b 5f be 0e d6 bb be
       0.053065505 -0.3259932 -0.21824338 -0.36686748
0000c0 4d fe c6 3e 0e dc 9e 3d cb ea a8 3e a5 b0 85 3e
       0.3886589 0.07756816 0.32991633 0.26111332
0000d0 fb c9 80 be 15 60 8f be fa bd f5 be e9 01 63 3e
       -0.251541 -0.28002992 -0.47996503 0.22168697
0000e0 b2 fd a8 3d b3 8b a1 be d4 2b 67 3d dd c3 64 3c
       0.082515135 -0.31551895 0.056438282 0.013962713
0000f0 d3 ba 0c be 59 67 f7 3e d0 98 ee 3e c4 d2 88 be
       -0.13743143 0.48321036 0.46600962 -0.267233
000100 30 3e 5a bd 68 bd 4d bd 9b d0 97 3d f3 67 2d bd
       -0.053281963 -0.05022946 0.07412835 -0.04233546
000110 08 51 02 bc a4 c9 01 be 74 72 5e 3c d8 8f 8f be
       -0.00795389 -0.12674576 0.013577092 -0.28039432
000120 9a d9 24 bd cd fe f4 3c 53 78 48 3e 35 eb 96 bd
       -0.040246584 0.029906655 0.1957715 -0.07369081
000130 1e c3 88 3c 64 c9 70 3d 61 d5 27 3d 08 d5 94 bd
       0.016694602 0.05878581 0.04097498 -0.07267195
000140 96 d6 a8 3d 65 6a 59 3d 91 5e 2d 3d e2 4b a3 bd
       0.08244054 0.05307998 0.042326514 -0.07973458
000150 cb 4c da bd 7b 3c eb 3b fa ff b7 3d e6 fa 0a be
       -0.10659178 0.0071788407 0.089843705 -0.13572273
000160 2a 3d 10 bd 2b 63 ba bc ae 5e 0c 3c 18 85 9e bd
       -0.03521458 -0.022752365 0.008567495 -0.07740229
000170 9c 04 90 3d 2c a7 d1 bc 43 92 53 bd 4f e5 24 3e
       0.07032129 -0.02559241 -0.051653158 0.161031
000180 f1 93 c9 3d a8 6c 58 3d 58 60 3e be df 18 e8 3d
       0.09842671 0.052837998 -0.1859144 0.11332869
000190 f3 6a c8 bb ee db 0e 3d f2 56 de 3c 58 8f 0b be
       -0.006116265 0.03487771 0.027141068 -0.136289
0001a0 2c c6 1a bb 4f c3 41 3e 3a 89 0e bd ad 55 88 bb
       -0.0023616655 0.1892216 -0.03479884 -0.004160604
0001b0 08 f7 0c 3e f5 35 87 bd 27 af 19 be 09 99 51 be
       0.1376611 -0.06602088 -0.15008222 -0.20468535
0001c0 fb 25 f6 bc 48 44 f3 3c 39 b5 55 3e f6 4d 23 3d
       -0.030047407 0.029695645 0.20869912 0.03986927
0001d0 04 3e 3c be f3 a5 2d 3e a8 ca 19 be ed d8 ce 3c
       -0.18383032 0.16957836 -0.15018713 0.025249923
0001e0 29 b5 e5 bd 1a 97 12 bd 4f ca 6a bd 72 da 03 3e
       -0.11216194 -0.035788633 -0.057321843 0.12876299
0001f0 00 2e 3d be fb 9b 3b 3e 98 aa 24 3d be b1 3e be
       -0.18474579 0.1832122 0.040201753 -0.18622491
000200 db 7b 5f be 52 bc fe 3d 99 26 36 3d c8 03 88 3b
       -0.21824591 0.12438263 0.044470403 0.0041508414
000210 b9 0b dd bd 10 92 d9 bd 77 aa 89 bd 61 f0 1d 3d
       -0.107932515 -0.10623562 -0.06721967 0.03855932
000220 4b e3 f1 3c ff 17 da bd b5 43 ce 3d bd 83 4c bd
       0.029527327 -0.10649108 0.10071508 -0.049930323
000230 5c dc 9d bc 80 8b 19 bd cf 21 f8 bd 33 6c 47 3d
       -0.019270115 -0.037486553 -0.121158235 0.04868717
000240 ab 8f 8c 3d ab c4 ab 3d 08 74 77 bd 3e d8 d1 bd
       0.0686334 0.08387121 -0.06041339 -0.10246323
000250 54 7f 9d 3d 97 d9 3d bc e8 1a c2 bd bf 36 19 3d
       0.076903015 -0.011587522 -0.09477788 0.037405726
000260 d9 bc e7 3c b8 28 12 be c8 e0 4c bc a4 9c 53 bc
       0.028288292 -0.14273345 -0.012504764 -0.012915764
000270 11 91 a7 bd 38 cc 1d be 47 9b a9 bd 25 45 0f bd
       -0.08181966 -0.15409935 -0.0828157 -0.03497805
000280 b1 5f 1b be 97 86 ac 3d 6b 4a 7f bd da 31 cd 3d
       -0.15173222 0.084241085 -0.06232683 0.10019274
000290 ef 81 9a bd 8b 86 e6 3d ba 75 2f 3e 68 a9 6d 3c
       -0.07544314 0.11256131 0.17134753 0.014505722
0002a0 db 76 1d bd 6b 80 f3 3c ff 8f ec 3d e0 49 1f 3e
       -0.038443428 0.02972432 0.115509026 0.15555525
0002b0 3e 2e 79 3d c4 bb cd bd 8f 53 d7 bd 80 7c b0 3d
       0.060835116 -0.10045579 -0.105139844 0.086174965
0002c0 7a a2 03 bd b0 f1 1c 3e 7e d9 4b 3d 66 4a 01 3e
       -0.03213737 0.15326571 0.049767964 0.12626037
0002d0 88 ef 15 bb 2b 6a ca bd 64 b3 96 3d c2 9c a9 3d
       -0.0022878367 -0.09883531 0.07358435 0.08281852
0002e0 21 13 27 3d e9 2e 88 bd 0b 5a e9 3d 5b 94 00 3d
       0.040789727 -0.066495724 0.113941275 0.031391483
0002f0 b6 67 dd bd 7b 8c a3 bd be 6c 00 be bf f8 88 3b
       -0.10810797 -0.07985779 -0.12541482 0.0041800435
000300 09 61 fa 3d ac b6 15 bc e2 64 4e 3b 45 6c 4c 3d
       0.12225539 -0.009137791 0.0031493236 0.04990794
000310 5d b6 3d 3e 01 b1 f8 bd 06 be 76 3d 6c 61 9e be
       0.18526597 -0.12143136 0.060239814 -0.30933702
000320 b3 7e 03 3e 3a cc 01 3d e5 07 f7 3d 5b 24 82 be
       0.128413 0.031688906 0.12062053 -0.25418362
000330 59 ef 26 3d c5 42 9f bd a5 03 3c be b9 32 cc bd
       0.040755603 -0.07776407 -0.18360765 -0.09970612
000340 d9 a7 1f bc 9a 7b 8e 3e c2 19 0a 3d 7f 41 ac 3b
       -0.009744608 0.27828676 0.03371597 0.005256831
000350 12 4e 2a be 0e 26 e7 bd 02 0d 05 3d 27 dd 4e bd
       -0.16631344 -0.11286555 0.03248311 -0.050503876
000360 0a f6 34 be 80 f6 16 3d 25 d4 bc 3d b9 27 f1 bd
       -0.17671981 0.036856174 0.09220151 -0.117751546
000370 2d a3 81 bd e8 5c 3c 3e 46 de 33 3e 61 d9 a1 39
       -0.063299514 0.18394816 0.1756526 0.00030870273
000380 74 0a ac 3d 85 d8 b1 3d dd d8 1b be 8a 0e 29 be
       0.08400431 0.08683876 -0.15219446 -0.16509452
000390 b1 42 9e 3d 8b 3b 81 be 8e f6 b6 3b 7a 52 ba bc
       0.07727564 -0.2524074 0.005583591 -0.022744406
0003a0 88 3a 30 bd a4 d4 78 3d 5c 11 f8 3b eb 80 4c 3e
       -0.04302457 0.060749665 0.007570429 0.19971053
0003b0 61 3b 3a 3e d1 22 1b bd b9 8c ba 3d a5 98 49 3e
       0.18186714 -0.037875 0.09108872 0.19687136
0003c0 a2 9c 97 be c7 80 20 b9 25 9b fc bc af dd 00 bb
       -0.2961169 -0.00015306762 -0.030835697 -0.0019663384
0003d0 3a d6 63 3d 8e 8b f6 3d fc 9a d5 3c 7d 1a 06 be
       0.055624224 0.12038337 0.026074879 -0.13096042
0003e0 31 64 96 bd 3b f8 3c 3e cc 33 8a bd 3e df 0b 3e
       -0.07343329 0.18454067 -0.06748161 0.13659379
0003f0 16 00 bb 3d 90 c9 ff 3c 7f 56 a8 bd 0e 3e a9 3d
       0.09130876 0.031224042 -0.08219623 0.08263789

bias_ih_l0 f4 [256]
000000 91 52 fb 3e d7 d5 ee 3d 47 d6 ba 3e 21 57 dc 3d
       0.4908643 0.116618805 0.36491606 0.10758806
000010 64 c9 58 3e 8b 17 19 3f 4b 5b 35 3e cc 14 23 3f
       0.21170574 0.5980155 0.17710607 0.6370361
000020 2d 10 b9 bd 01 94 1c bd 98 66 9e bc 4e 72 19 3f
       -0.090362884 -0.038227085 -0.01933603 0.5994004
000030 af 5d 44 3e a1 00 05 3e 4e b1 87 3d 28 9f 1a 3f
       0.19176362 0.12988521 0.06625615 0.60399103
000040 c5 49 bf 3c 6e fb 1f 3f 18 e8 22 3e 8c 0b 28 3e
       0.023350606 0.62493026 0.15908849 0.16410655
000050 16 8a ce 3d 03 67 e7 3e 06 7e a3 3d 13 16 8d 3e
       0.100849316 0.4519578 0.079830214 0.27555904
000060 68 93 80 bd f5 b9 41 bd 68 47 0b 3f 28 34 cd 3c
       -0.062781155 -0.047296483 0.5440583 0.025049284
000070 c7 2c 02 3e eb c6 62 3e a6 30 25 3f 67 94 72 3f
       0.12712394 0.22146194 0.64527357 0.94757694
000080 2e d6 4d 3d 13 73 0b 3f c0 ef 33 3f eb 5f 3d 3e
       0.050253086 0.54472464 0.70287704 0.18493621
000090 3d ee ba 3e 05 ed 80 3e b6 7f 43 3e ac f9 0b 3d
       0.36509886 0.25180832 0.19091687 0.034173653
0000a0 3d 93 d8 3e 1d 34 91 3e 2d f5 12 3e 95 04 5f 3e
       0.42299834 0.28360072 0.1435134 0.21779092
0000b0 21 b8 98 3e cc 04 0c 3e f5 32 e9 3d f0 7e a3 3e
       0.2982798 0.13673705 0.113866724 0.31932783
0000c0 d0 8f 3b 3f c4 ee 06 3d 89 6b 4d 3f 6c 03 c5 3d
       0.73266315 0.03294255 0.8024221 0.09619793
0000d0 cc d9 0f 3f 84 b7 f1 3e 99 33 80 3c 07 96 7f 3e
       0.56191707 0.47210324 0.015649604 0.24959575
0000e0 88 41 bd 3d b1 b4 be 3d e3 7d 6f 3b 92 c3 29 3f
       0.09241015 0.09311808 0.003654354 0.6631404
0000f0 99 ad 44 3e 76 1b 9b 3e 50 72 29 3f 66 7e 55 bd
       0.19206847 0.3029439 0.6619005 -0.052122496
000100 29 90 7b bd 8c a3 b0 bc a0 ff 0b be ce 39 cc bd
       -0.06141678 -0.02156236 -0.13671732 -0.09971963
000110 64 f0 33 3a 25 b7 32 3c d2 1e 1a bd 02 c9 4a be
       0.0006864129 0.010907923 -0.03762705 -0.19803241
000120 d3 d3 45 3d 36 c7 7c bd 13 8d e7 bd 25 a2 26 be
       0.048297714 -0.06171342 -0.11306205 -0.1627279
000130 a2 2f 2a bd c4 24 a0 3c ea 71 26 be 2b 19 a6 ba
       -0.041549332 0.019548781 -0.16254392 -0.0012672296
000140 4a 8d 6e bd 1b 3e 9e bd e7 4e 5e bd 16 b8 0a 3c
       -0.058240213 -0.077266894 -0.054274466 0.008466741
000150 bb 1a ef bd a2 37 08 be fb e9 64 bd 4e a2 a2 3c
       -0.1167502 -0.13302472 -0.055887204 0.019852784
000160 50 54 df 3d fb c2 72 bd 8f 67 53 be ca bf e4 3d
       0.10904753 -0.05926798 -0.20644973 0.11169393
000170 39 6c d5 bd 62 77 0d be 3b 9e c8 bd 39 87 c7 bd
       -0.104210325 -0.13815072 -0.09795805 -0.097425885
000180 14 25 06 bd 34 85 34 bd d1 f7 ef bd e0 dd 0c bd
       -0.032750204 -0.044072345 -0.11717189 -0.034391284
000190 ca fd b4 bd 9b fc 00 be 28 cd 01 be 38 ea 52 bd
       -0.08837469 -0.12596361 -0.12675917 -0.0514929
0001a0 7e c2 e0 bd a0 10 1f be 4a b5 54 bd ac aa be bd
       -0.109745964 -0.15533686 -0.051930703 -0.09309897
0001b0 e2 a7 c3 bd 1a af 3d 3d 1d 99 38 be 07 50 e0 bd
       -0.095535055 0.046309568 -0.18027158 -0.10952764
0001c0 f1 a0 8d bd 36 db 4a be 62 a5 c5 3b ff e6 93 bc
       -0.06915463 -0.19810185 0.006031678 -0.018054483
0001d0 de a9 29 3d bb d2 49 bd 6b dd 75 bd 8a fd e4 bd
       0.041421764 -0.049273234 -0.060025614 -0.11181171
0001e0 9b d4 46 bd c0 1c c4 3d 62 f1 1c be c2 24 d9 bc
       -0.0485426 0.09575796 -0.15326455 -0.026506785
0001f0 db ad ba bd 4d 96 ff bc 15 e7 6a bc 37 7e e9 bc
       -0.091151915 -0.031199599 -0.014337321 -0.028502567
000200 9e 81 93 bd 41 da 08 3e 6d c6 fb 3d c6 33 77 be
       -0.07202457 0.13364507 0.12293706 -0.24140844
000210 0f e3 9a bd 7b 32 b9 bd fc bc 09 be 77 d4 36 3d
       -0.07562839 -0.090428315 -0.13450998 0.044636216
000220 7b dd f5 bc a7 bf 59 3c 1e ce f3 bc d6 ad 87 bd
       -0.030012837 0.013290322 -0.02976137 -0.066249534
000230 40 34 24 3e 4f ac a9 3d 38 f4 20 3d 4a 11 ce 3d
       0.16035557 0.082848184 0.039295405 0.100618914
000240 d9 4c 61 3c e3 ce 7d bd 2b 1a d3 3d 8e 19 96 3c
       0.013751232 -0.06196488 0.103077255 0.018322732
000250 28 11 bc bd b7 8b 1d bd 29 1c 50 3d 03 53 62 3d
       -0.0918296 -0.03846332 0.050808106 0.055254947
000260 4e 4c 3e 3d eb 86 9c 3c ad e5 8e bd 44 c7 1e 3e
       0.04645949 0.019107303 -0.06977401 0.15505701
000270 ca 1a 00 3d 93 fa 89 bd 99 a7 40 bd fc 85 b8 3c
       0.031275548 -0.06737246 -0.047034834 0.022524826
000280 1f f8 d9 3d 04 a9 fd 3d e1 2a 6f 3d 14 b9 2b 3d
       0.106430285 0.12385753 0.058390502 0.04192455
000290 66 8e 6e 3c 27 ee ad bc 82 e9 c8 bd 8f 08 18 3e
       0.014560318 -0.021231724 -0.09810163 0.14847015
0002a0 04 cf 12 3d 37 74 99 3d bd e3 a9 3d a8 c9 64 3d
       0.035841957 0.07492869 0.08295391 0.055856377
0002b0 90 e2 95 3d 4b b3 01 be dc 2f 29 be 6d 64 a1 3c
       0.07318604 -0.12666051 -0.16522163 0.019701207
0002c0 aa 68 b7 3d f4 75 98 3d 77 f9 17 bd 96 f4 88 3d
       0.0895551 0.07444373 -0.037103143 0.06687276
0002d0 ca 6b 2b be a3 0d d7 3b 8a 53 cf bd 34 d6 42 3e
       -0.16740337 0.006562905 -0.10123356 0.19027025
0002e0 67 95 56 bb 49 22 12 be 8c 88 14 3d 92 0d f6 bd
       -0.003274286 -0.14270891 0.036263034 -0.12014307
0002f0 f6 7f 2c bd d8 e4 1b 3d 15 ce df 3d 2e 50 95 3d
       -0.04211422 0.03806004 0.10927979 0.07290684
000300 c7 ca d4 3e 18 a1 94 bd 43 d6 f7 3d b8 d0 92 3d
       0.41560957 -0.07257289 0.12101414 0.07168716
000310 43 95 23 bd 4b 2a f7 3e 71 01 88 bd 01 20 0b 3f
       -0.03993727 0.48274454 -0.066409 0.5434571
000320 58 79 fe bd d1 c4 90 3d de 14 23 3e 9e 16 3f 3f
       -0.12425488 0.0706879 0.15925929 0.74643886
000330 8a a3 19 3e 61 46 18 3e c2 df ef 3d ab 06 0d 3f
       0.15003791 0.14870597 0.117126 0.550883
000340 ec 99 01 3b 4d f3 43 3f aa 6b d6 3e 30 18 37 3e
       0.0019775582 0.7654312 0.41879016 0.1788032
000350 23 8e 6d 3e a5 c5 f0 3e f9 64 58 3e ea af 5e 3d
       0.23198752 0.4702579 0.21132268 0.054366983
000360 62 1c a9 bd 38 96 52 3d fe 39 1c 3f e9 61 e9 bd
       -0.08257367 0.05141279 0.6102599 -0.11395628
000370 39 41 c0 3d 6d 7f 40 3c 1f 29 1e 3f 3a ba 32 3f
       0.0938744 0.011749131 0.61781496 0.6981541
000380 f3 1a 40 3e 51 d0 10 3f 08 a8 2c 3f a6 10 9a 3d
       0.1876028 0.56567866 0.67443895 0.07522707
000390 f9 0a c5 3e 9e 5c 9b 3e cb 78 db 3e 4e 56 8f bd
       0.38484934 0.303441 0.42865595 -0.06998883
0003a0 cd 0d 0e 3f 52 ea 98 3e 9f 50 7c 3e 72 80 91 3e
       0.5548981 0.29866272 0.2464013 0.28418308
0003b0 5c be 0f 3f 02 12 aa bd c2 58 e9 bc 7d e6 d6 3e
       0.5614984 -0.08304216 -0.028484706 0.41972724
0003c0 7c 52 5a 3f d2 83 3e 3e 85 75 2d 3f 3e d2 86 bd
       0.8528211 0.18604973 0.67757446 -0.06583069
0003d0 e9 4a eb 3e e1 dc db 3d e3 85 00 3d dd 25 2c 3e
       0.4595559 0.10735489 0.031377684 0.16811319
0003e0 32 79 8f 3d 7d 98 cf bd 08 ad 76 3e 53 85 16 3f
       0.07005538 -0.10136507 0.24089444 0.58797187
0003f0 9d 83 4e 3e 3e e7 9e 3e 48 ca 43 3f de ac 14 3e
       0.20167394 0.310358 0.7648053 0.14519069

bias_hh_l0 f4 [256]
000000 a0 fa c1 3e 2b a1 34 3e 98 04 62 3e 2a 89 5a 3e
       0.37886524 0.17639606 0.22072065 0.21341386
000010 a9 99 e2 3d 8f 4a ea 3e 33 46 69 3e c5 4e 17 3f
       0.110644646 0.4576001 0.22780685 0.5910457
000020 f9 54 cb bd c6 81 e6 3d 49 2b 45 3d 50 df 4e 3f
       -0.099283166 0.11255221 0.048136983 0.808095
000030 72 e6 9f 3d d6 7b 49 3d e6 32 65 3d 9e df 19 3f
       0.07807626 0.049190365 0.055956744 0.6010684
000040 6d d8 c2 3d e0 a0 18 3f a6 b7 b3 3e 85 df 20 3b
       0.09513936 0.59620476 0.3510105 0.002454729
000050 25 85 a0 3d ff 34 e1 3e a5 fc 23 3e c2 3e 4b 3e
       0.07837895 0.43985745 0.16014345 0.19848159
000060 d1 76 39 3d 91 ec b8 bd 7e 18 f7 3e 5d 7f 84 3d
       0.045279328 -0.090294965 0.48260874 0.06469605
000070 2b e7 d9 bc 1b 09 0a 3e 7c cf 2c 3f 2f 29 6d 3f
       -0.026599487 0.13480036 0.67504096 0.92640966
000080 2b 0c 61 3d a0 d0 1b 3f 0a ad 47 3f 5b 5f ec bc
       0.054943245 0.6086521 0.7799841 -0.028854063
000090 58 68 99 3e 9e 9b ef 3e 84 dc a6 3e 7d 9e 49 bc
       0.2996242 0.46798414 0.32590115 -0.012305853
0000a0 5a cd e6 3e 87 07 96 3e 19 2a 83 3e 81 61 a8 3e
       0.45078546 0.29302618 0.25618055 0.3288689
0000b0 43 27 d9 3e 53 cc 1e 3e 5e 8d 20 bc f0 49 96 3e
       0.42412767 0.15507631 -0.00979933 0.29353285
0000c0 36 d2 34 3f d3 88 31 3d 80 90 4a 3f 5c 01 ee 3c
       0.70633256 0.043343376 0.7912674 0.029053383
0000d0 29 c6 2e 3f 9e e1 e0 3e bd 61 0b 3e 5f 92 6c 3e
       0.6827112 0.43922132 0.13611503 0.23102711
0000e0 5d 19 3f bd f4 8e 04 3e 3b 62 e8 3d a6 03 34 3f
       -0.046655048 0.12945157 0.11346861 0.7031807
0000f0 c8 14 66 3e 31 eb e3 3e 45 16 3c 3f 82 c4 e4 3d
       0.22468865 0.44515374 0.7347148 0.111702934
000100 92 40 5a be bc d2 12 be 1c a9 93 3d db b6 0f be
       -0.21313694 -0.14338201 0.072099894 -0.14034598
000110 75 53 bc 3d 32 98 a2 bc 20 04 1f 3d 6b f1 a8 bc
       0.09195606 -0.019847963 0.038822293 -0.02062293
000120 cf 7d 03 be d6 85 45 bd 4d 51 5a bd 7e 4d 43 be
       -0.12840961 -0.04822334 -0.05330019 -0.1907253
000130 cd f4 82 3d 9e d8 78 bc 54 f5 2c bd 68 d1 f6 bd
       0.06394348 -0.015188364 -0.04222615 -0.1205166
000140 29 6a fb 3b e6 8c 74 bd 70 5f f7 bc 43 a9 14 be
       0.0076725674 -0.059704684 -0.030196875 -0.14517693
000150 59 27 59 bd b4 da e7 3c 42 86 fd 3b 9e 50 78 bd
       -0.05301604 0.028302528 0.007736952 -0.060623758
000160 44 f3 22 bd 96 fd cb 3d d8 32 6a 3b a3 94 7d bc
       -0.039782777 0.09960477 0.0035735872 -0.015477332
000170 55 64 da bd 58 51 8d bd 6e 4b be bd f4 55 23 3d
       -0.10663668 -0.06900281 -0.09291731 0.039876893
000180 52 c5 96 bc 1d 18 aa 3b c1 cf c5 bd d4 a3 c0 3b
       -0.018404637 0.005190863 -0.096587665 0.005878905
000190 2f 3c 2f be 5e fa af bc 87 24 a1 bd 0f 59 79 bc
       -0.17112802 -0.021481689 -0.07868295 -0.015218987
0001a0 23 aa 67 bd 70 bf 2d bd 06 91 6e 3d 88 b3 c4 3d
       -0.05655874 -0.042418897 0.058243774 0.09604555
0001b0 62 f0 13 be 62 0e cb 3d 3a 19 4e bd 1d 38 cf bd
       -0.14447168 0.09914853 -0.050317027 -0.10118125
0001c0 37 20 bc 3b 2d 40 08 be 9c bc 86 bd a5 5d 11 bd
       0.005741145 -0.13305731 -0.06578943 -0.035489697
0001d0 01 b7 45 bc 5e af db bd d9 85 40 be 4c 77 86 bc
       -0.012067557 -0.10726808 -0.18801059 -0.016414307
0001e0 4c 58 2e be 01 eb 89 3d 05 45 ae 3b 45 fd fa bd
       -0.1702587 0.067342766 0.0053182864 -0.122553386
0001f0 d3 40 e8 bd a5 f4 0b be e8 00 2d be e2 62 ec bd
       -0.11340489 -0.13667543 -0.16894877 -0.11542298
000200 0b 5e c6 3d 3c ee 88 3e da 87 c9 bc 8f 52 61 be
       0.09685906 0.26744258 -0.024600912 -0.2200415
000210 8d 49 70 be d4 33 66 bd 78 77 22 bd ea a9 c6 3d
       -0.23465557 -0.05620177 -0.039664716 0.09700377
000220 b4 02 0d 3c cb 83 0e 3d 20 53 23 be d1 41 66 3d
       0.0086066015 0.034793656 -0.15949678 0.05621511
000230 66 98 6f 3c 33 16 bf 3d 5c 83 fb 3c d8 77 8a 3d
       0.014623737 0.09330406 0.030702285 0.0676114
000240 2d 72 1e bd fb a6 31 3d 52 7f 30 bc 21 71 05 bd
       -0.038683105 0.043372136 -0.010772543 -0.03257859
000250 ad 27 5c bc 67 ce f5 3d f6 a5 28 3b dc f9 f2 bd
       -0.013437194 0.12002259 0.0025733686 -0.11864063
000260 8a 9d f3 3d 26 ff 2a 3d f9 23 86 bb 81 a1 4b 3e
       0.118952826 0.041747235 -0.0040936437 0.19885828
000270 9d 50 5c bd 53 57 7d 3d 40 91 d1 3c 83 ee 36 bd
       -0.053787816 0.061850857 0.025581956 -0.044661056
000280 7f bf 9b 3c 81 f8 79 bc ce cc 28 be f8 c5 da ba
       0.01901221 -0.015257002 -0.16484377 -0.0016691079
000290 48 4e 1e bb 6a 65 a0 3d 79 4b 1a be 6a 9b ce 3b
       -0.0024155546 0.07831843 -0.15067853 0.006305148
0002a0 94 cf 89 3c d5 d1 cc 3d 68 c6 74 3d 1d a7 96 3d
       0.016822614 0.1000096 0.059759527 0.07356093
0002b0 58 79 bd 3d ee cd e0 bd 1c e6 0f be 32 ba a5 bd
       0.0925166 -0.10976778 -0.14052624 -0.080921546
0002c0 4f 37 d9 bd 0c 4f 77 bd 62 14 ea bb 8c d4 6d 3d
       -0.106062524 -0.06037812 -0.007143543 0.05806403
0002d0 79 f5 1b be 46 e9 3b bd de 43 4b bd 73 e5 76 3d
       -0.15230359 -0.045876764 -0.04962527 0.060277414
0002e0 54 a1 c2 3d 36 21 8a 3a f5 43 24 be 93 e2 69 bd
       0.09503427 0.0010538462 -0.16041549 -0.057100844
0002f0 ca b2 0b be 64 c7 04 3d e9 13 6f bd 6e d7 3a bd
       -0.13642421 0.032416716 -0.058368597 -0.045615606
000300 46 1e b5 3e 9e a0 ac 3c c0 45 b1 3d 7c a5 ed 3d
       0.3537466 0.021072682 0.08655882 0.11603829
000310 a7 08 8b 3d c3 18 ff 3e 3a 75 81 bd 81 1e 0c 3f
       0.0678876 0.4982358 -0.06321187 0.54734045
000320 f2 45 20 bd 7c 5a 30 bd 10 bd b6 3d 86 a2 47 3f
       -0.039129205 -0.043055043 0.089227796 0.77982366
000330 40 7c b3 3d 39 10 60 3d 7b 29 f7 3c 81 2c 2c 3f
       0.08763933 0.05470297 0.030171147 0.6725541
000340 34 29 ff 3c 6f 3b 30 3f 56 57 93 3e 71 43 b1 3d
       0.031147577 0.6884069 0.2877757 0.086554416
000350 37 88 34 3e 4a 9c 0c 3f 5c 5a 1f 3d a6 59 22 3e
       0.17630087 0.5492598 0.038904533 0.1585451
000360 95 4d a9 bd e2 9e 39 3c 50 e7 cb 3e 91 15 5b bd
       -0.08266751 0.0113293845 0.39824915 -0.053487364
000370 f9 cb 83 bd 0d ee ee bd c6 10 14 3f 64 c8 2a 3f
       -0.06435389 -0.11666498 0.57838094 0.6671202
000380 52 55 01 3e 79 10 17 3f e6 fe 35 3f de b2 d4 bd
       0.12630203 0.5900951 0.7109207 -0.10385679
000390 9f 0d bd 3e d6 7c 86 3e d0 52 b7 3e da 95 0b bc
       0.36924455 0.26267117 0.35805368 -0.008519614
0003a0 7f bb 10 3f 2f eb 19 3e b0 fa a8 3e 60 1e be 3e
       0.56536096 0.15031122 0.3300376 0.3713255
0003b0 74 0b f7 3e 31 92 5e bd e5 ac c0 3d f9 8b 3c 3e
       0.48250926 -0.054338638 0.09407977 0.1841277
0003c0 4e a6 4e 3f 64 7e 1f 3e 64 26 3d 3f c3 8e af bd
       0.8072251 0.15575558 0.73886704 -0.085721515
0003d0 45 09 b3 3e 91 75 94 3e e5 f6 bd 3d fe 2d 76 3e
       0.3496801 0.28995946 0.09275607 0.24040982
0003e0 45 a0 94 bd 9a 4f b7 3c db 5e 81 3e 7f 28 fa 3e
       -0.072571315 0.022376824 0.2526768 0.4885902
0003f0 be 7a 45 3e 76 85 4d 3e f1 e1 22 3f 54 6d 33 bd
       0.19285104 0.20070443 0.6362601 -0.043805435
