new_model.pth (torch, 101332 bytes, 10 tensors)

weight_ih_l0 f4 [256, 16]
0.291559 0.12159114 0.026006203 0.31599334 0.039913587 0.008799239 -0.0737434 0.033115063
-0.15206106 0.3505766 0.16991164 0.18494648 0.15149714 0.15707724 -0.10890607 0.47044823
0.08752806 -0.18695623 -0.13172151 -0.19068484 0.0410453 -0.14051075 0.11766936 0.0861945
0.17554392 0.13468549 -0.1652791 -0.051498998 0.27710864 -0.20339817 0.35433963 -0.31593832
-0.16121794 0.1025032 -0.15878212 -0.21972962 -0.12872902 -0.005709736 -0.09334141 0.15466316
0.1564378 -0.261495 0.22322538 -0.15234575 0.049319558 -0.43714583 -0.068200044 -0.16326237
-0.08435945 -0.19243212 0.034589607 0.0094863735 -0.22745463 -0.031978555 -0.16494165 0.25960758
-0.068810746 0.080216855 -0.41801846 -0.3178057 -0.21438622 0.439966 -0.07955252 0.24966393
-0.3001918 0.2348531 -0.008316937 0.24165575 0.09783655 0.11444819 0.14339156 0.017500725
0.025177905 -0.105845205 -0.16705896 0.027506642 -0.19127047 0.018012712 0.12001217 0.06551685
0.12585068 0.06313281 -0.07711994 -0.010456688 0.0062885606 -0.13009575 -0.0757247 0.33335224
0.0403906 0.11950967 -0.07959976 -0.3091708 -0.06810115 0.07621122 0.16229612 -0.35991114
0.27528247 0.29684055 0.058323804 0.015652092 0.14702801 -0.08955759 0.2546682 -0.054290164
0.22845347 -0.0691415 0.089161694 0.015313366 0.18521893 -0.23360986 0.399962 -0.097029276
-0.29252845 0.21050213 -0.21206732 0.11554864 0.10772721 0.2617209 0.5807951 0.36442375
-0.09020788 0.5041509 -0.03919024 -0.116778485 -0.23555163 0.08538261 -0.19895346 0.32442245
-0.08107728 0.03642938 -0.17593728 -0.017908504 -0.07008945 0.050715607 0.3003093 0.15111096
0.30488813 -0.06721125 0.18905696 -0.18698801 -0.13212205 0.071140364 0.25461653 0.06483965
-0.033415504 -0.31639776 -0.2453683 -0.005238508 -0.10965436 -0.03466846 -0.2495692 0.059766553
-0.035660315 -0.20970677 -0.13912903 -0.15637325 0.21709935 -0.010634118 -0.17193949 -0.35145518
-0.24796227 -0.3420803 -0.22020733 -0.5865535 -0.14769337 -0.34508654 0.15935844 0.021612803
-0.16284095 -0.04690722 0.30706674 0.017300973 0.09802096 -0.34301147 -0.112773426 -0.02328056
0.22068065 0.12701447 -0.19712938 -0.074117936 -0.08122736 -0.10285251 0.0995858 -0.05058204
0.01984631 -0.18022628 0.27064914 -0.026074672 -0.08297933 -0.27521375 -0.054717526 0.07094318
0.039356075 0.06529001 0.3163218 0.26598793 0.28895563 0.096970126 0.109311 0.31516293
0.40005252 0.27902606 -0.009147856 0.1248948 0.0367418 0.37688118 0.20954661 0.28340924
0.014471613 0.2175473 0.00593247 -0.06384724 0.10208622 0.005296536 0.16131802 0.049492877
-0.11490437 -0.03965905 -0.054708846 0.10404185 0.16115993 -0.1252078 0.027351828 0.074179724
-0.03287589 -0.06876658 -0.13833864 0.0462638 0.059502237 -0.029594932 -0.16087523 0.0137364175
-0.32743672 -0.29008868 0.21719345 0.19225876 -0.15053275 0.06446921 0.031537645 -0.056900505
-0.22983001 -0.15349813 0.050085545 0.15126161 -0.14689024 -0.03971564 -0.11965184 0.067075446
0.26028758 0.36141682 0.04439188 -0.10154804 -0.0812349 -0.18025291 0.056960702 0.18878375
00000000: 3947 953e c704 f93d f60a d53c e1c9 a13e
00000010: 6e7c 233d af2a 103c c806 97bd a9a3 073d
00000020: e5b5 1bbe c77e b33e 51fd 2d3e 9c62 3d3e
00000030: 1122 1b3e dbd8 203e 250a dfbd 97de f03e
00000040: e941 b33d 7471 3fbe 01e2 06be e342 43be
00000050: 1e1f 283d 0de2 0fbe a2fc f03d be86 b03d
00000060: c9c1 333e feea 093e ed3e 29be 9df0 52bd
00000070: 2fe1 8d3e 9c47 50be 016c b53e abc2 a1be
00000080: 5116 25be 33ed d13d c897 22be cd00 61be
00000090: 8ad1 03be bd18 bbbb c829 bfbd 0560 1e3e
000000a0: 3b31 203e ace2 85be 3295 643e 8600 1cbe
000000b0: 4e03 4a3d 94d1 dfbe 77ac 8bbd 402e 27be
000000c0: a6c4 acbd ed0c 45be d5ad 0d3d bc6c 1b3c
000000d0: dee9 68be f2fb 02bd 77e6 28be 49eb 843e
000000e0: a6ec 8cbd bc48 a43d 8406 d6be 6eb7 a2be
000000f0: 1088 5bbe 3943 e13e 6eec a2bd e7a7 7f3e
00000100: bdb2 99be 557d 703e c343 08bc 9b74 773e
00000110: 875e c83d d063 ea3d 3dd5 123e ae5d 8f3c
00000120: e541 ce3c 5fc5 d8bd 8111 2bbe 9c55 e13c
00000130: 68dc 43be 658f 933c f1c8 f53d b32d 863d
00000140: 00df 003e c64b 813d 0ff1 9dbd 8752 2bbc
00000150: 4510 ce3b d237 05be 8d15 9bbd 25ad aa3e
00000160: 9d70 253d 7cc1 f43d 3305 a3bd a34b 9ebe
00000170: 9e78 8bbd a114 9c3d f430 263e 4646 b8be
00000180: d3f1 8c3e 7cfb 973e f1e4 6e3d d138 803c
00000190: 838e 163e f869 b7bd df63 823e 5d5f 5ebd
000001a0: b5ef 693e 0f9a 8dbd 689a b63d eae4 7a3c
000001b0: 08aa 3d3e 6c37 6fbe d2c7 cc3e 49b7 c6bd
000001c0: 4ac6 95be df8d 573e 2d28 59be c4a4 ec3d
000001d0: 15a0 dc3d 4800 863e fdae 143f c095 ba3e
000001e0: e9be b8bd 0910 013f f285 20bd 8f29 efbd
000001f0: 7234 71be 14dd ae3d 75ba 4bbe b31a a63e
00000200: d80b a6bd f936 153d e728 34be dbb4 92bc
00000210: 0f8b 8fbd 2bbb 4f3d 24c2 993e d5bc 1a3e
00000220: 4c1a 9c3e 0da6 89bd 2698 413e c979 3fbe
00000230: 014b 07be 0ab2 913d 195d 823e a7ca 843d
00000240: b2de 08bd e3fe a1be d441 7bbe caa7 abbb
00000250: 7792 e0bd 8400 0ebd 128f 7fbe c6cd 743d
00000260: 8d10 12bd 5fbd 56be d777 0ebe 4f20 20be
00000270: 4b4f 5e3e b93a 2ebc e810 30be eff1 b3be
00000280: d2e9 7dbe 2625 afbe 087e 61be 5f28 16bf
00000290: ee3c 17be 2faf b0be dc2e 233e 550d b13c
000002a0: c7bf 26be c921 40bd da37 9d3e c5ba 8d3c
000002b0: 37bf c83d 339f afbe c1f5 e6bd dfb6 bebc
000002c0: 1cfa 613e 1510 023e 49dc 49be 25cb 97bd
000002d0: 885a a6bd 56a4 d2bd a4f3 cb3d 1d2f 4fbd
000002e0: bb94 a23c 3d8d 38be 8692 8a3e 8d9a d5bc
000002f0: 11f1 a9bd d1e8 8cbe 7c1f 60bd a84a 913d
00000300: d633 213d c5b6 853d eef4 a13e 922f 883e
00000310: fef1 933e 4698 c63d 72de df3d 095d a13e
00000320: afd3 cc3e 81dc 8e3e e4e0 15bc d8c8 ff3d
00000330: 927e 163d 92f6 c03e 6393 563e 041b 913e
00000340: 581a 6d3c b8c4 5e3e 2a65 c23b 57c2 82bd
00000350: 9512 d13d 908e ad3b 8d30 253e 0bb9 4a3d
00000360: fb52 ebbd 8771 22bd 6216 60bd e513 d53d
00000370: 1c07 253e 7936 00be f110 e03c 8aeb 973d
00000380: dfa8 06bd 7ed5 8cbd a5a8 0dbe 1c7f 3d3d
00000390: 9eb8 733d 1271 f2bc 7abc 24be b60e 613c
000003a0: c9a5 a7be 8186 94be f667 5e3e 7bdf 443e
000003b0: 4225 1abe 6f08 843d 9e2d 013d 8110 69bd
000003c0: 8f58 6bbe 9d2e 1dbe 8026 4d3d 53e4 1a3e
000003d0: 656a 16be deac 22bd 060c f5bd da5e 893d
000003e0: 6a44 853e a00b b93e 43d4 353d 6bf8 cfbd
000003f0: 7c5e a6bd 3894 38be a04f 693d 8750 413e

weight_hh_l0 f4 [256, 64]
-0.122379646 -0.059223432 -0.14795582 0.19111149 0.030455656 0.1453956 0.20241904 -0.01607529
0.1333695 -0.17964886 -0.11862769 0.034803264 -0.02683229 -0.14378448 -0.051410366 -0.074450076
0.06173747 -0.19576693 -0.13691927 0.08921146 -0.08485912 0.020796312 -0.0740226 0.04709281
0.086655684 0.026783116 0.004559054 -0.027570078 -0.015444072 0.14597271 -0.067994095 -0.103364445
-0.0286718 0.19864304 -0.015440236 -0.18977849 0.046443876 -0.14209504 -0.046663515 0.033928834
0.034917735 -0.029954758 -0.01419794 0.08189942 -0.014773693 0.31541023 0.2353392 -0.07924992
0.010348207 0.057937827 -0.22362475 -0.2191548 0.33660576 0.01696106 0.12225891 0.12379211
-0.023865541 -0.06432244 0.05941866 0.14504158 -0.18288201 -0.020080421 -0.39870703 -0.019017296
0.044373423 -0.12899975 -0.057398353 -0.102142654 -0.119151965 -0.3187157 0.015237698 0.19867934
0.029826457 -0.028146913 -0.004833811 0.19185644 -0.19989142 -0.13553396 -0.048699453 -0.023188982
-0.098412596 -0.30545023 8.975553e-05 0.43854928 -0.020849789 -0.07461414 -0.25208828 -0.050327577
-0.26301873 0.10549028 0.02632381 0.07329689 -0.13984112 -0.10082821 -0.09359561 0.047167804
-0.06774028 -0.061873954 0.12488797 0.06586881 -0.09258532 0.080205366 0.16048579 -0.257227
0.084881745 -0.089481324 0.13780446 0.28374478 0.03537015 0.08226282 0.13486327 -0.1356961
-0.1173038 -0.1386073 0.02322064 -0.030864807 0.10796451 0.34759995 -0.09765361 0.088585585
-0.13840395 0.07856902 0.06343528 0.211924 0.26343215 0.026543694 -0.20088086 0.047226496
0.01011805 0.13106574 0.06177809 -0.39653394 0.24064669 -0.215567 -0.12479141 0.017488731
0.09673907 -0.102734834 0.060780782 -0.06620673 -0.0032155374 -0.20375773 0.20358275 -0.15122335
0.0055315644 0.035488427 0.34025675 0.119135335 0.060327493 -0.077441454 0.1720228 -0.10533348
-0.17431395 0.22358541 0.14966767 0.00081386534 0.10111533 0.109730795 0.030481402 -0.055002075
0.21655406 -0.1506293 0.22443828 0.21147408 0.08285535 -0.035172075 -0.05882842 0.32042572
-0.041835085 0.06478255 0.042370897 0.2631079 0.15669964 -0.07114332 -0.039476234 0.09755046
-0.14175886 -0.02508719 -0.27653936 -0.13083677 -0.1498446 0.084481224 -0.064978085 0.068151295
-0.21508202 -0.1671865 0.053911682 0.0011409704 -0.031995464 -0.31776142 0.13769317 0.15615945
0.18502623 -0.13958614 0.16332538 0.06516259 -0.12341405 -0.08473586 0.0034630802 0.49822727
-0.24024928 -0.21447049 -0.14386368 -0.14756753 0.17838785 0.03317254 -0.044314306 -0.15008788
-0.2202966 0.13601193 0.26752365 0.03708036 -0.15231812 -0.0411126 0.00029754153 -0.1234254
0.07495223 0.22480577 0.107048154 -0.08204577 -0.122711465 -0.061342686 0.059242368 0.0005445763
0.13498119 0.31748158 0.025651949 -0.32546383 0.12829407 -0.019739121 0.1022793 0.08774032
0.27853957 0.0031200843 0.17392825 0.14024873 0.3157929 0.05292411 -0.101947516 -0.011813247
-0.008263803 0.22275975 0.07341108 -0.14679621 0.26179197 0.17558114 0.046112604 0.20426168
-0.17429543 -0.12462475 0.22556464 0.038978342 0.14103584 -0.26558113 0.16314833 0.12466279
00000000: 2ea2 fabd 4594 72bd bb81 17be bbb2 433e
00000010: 247e f93c 96e2 143e f046 4f3e 54b0 83bc
00000020: 0492 083e dff5 37be 13f3 f2bd de8d 0e3d
00000030: 64cf dbbc 3d3c 13be ad93 52bd 4879 98bd
00000040: 6ee0 7c3d 2077 48be 9134 0cbe 7fb4 b63d
00000050: 9eca adbd 075d aa3c 2999 97bd 64e4 403d
00000060: 8978 b13d 4468 db3c 1e64 953b a5da e1bc
00000070: 2209 7dbc df79 153e 7d40 8bbd bdb0 d3bd
00000080: 1fe1 eabc 1569 4b3e 0bf9 7cbc 4b55 42be
00000090: ef3b 3e3d 5d81 11be 3e22 3fbd f6f8 0a3d
000000a0: e605 0f3d ae63 f5bc 7a9e 68bc e2ba a73d
000000b0: 5c0d 72bc 737d a13e c2fc 703e c84d a2bd
000000c0: 878b 293c 3750 6d3d e3fd 64be 1e6a 60be
000000d0: 9757 ac3e ecf1 8a3c e162 fa3d b886 fd3d
000000e0: ab81 c3bc 7cbb 83bd fb60 733d c885 143e
000000f0: 6c45 3bbe b27f a4bc 5423 ccbe 29ca 9bbc
00000100: e8c0 353d 8318 04be 891a 6bbd 2b30 d1bd
00000110: f205 f4bd b42e a3be 8aa7 793c 9972 4b3e
00000120: 9d56 f43c 5b94 e6bc f264 9ebb 0476 443e
00000130: 56b0 4cbe 6ac9 0abe 1479 47bd d2f6 bdbc
00000140: 8b8c c9bd f963 9cbe 223b bc38 8889 e03e
00000150: 2dcd aabc 4ccf 98bd b711 81be 4a24 4ebd
00000160: 64aa 86be 4a0b d83d 08a5 d73c ae1c 963d
00000170: 8332 0fbe 057f cebd 0eaf bfbd 0733 413d
00000180: 6abb 8abd 8b6f 7dbd 44c5 ff3d 3ae6 863d
00000190: 5f9d bdbd b642 a43d 6356 243e 42b3 83be
000001a0: 7bd6 ad3d fc41 b7bd 9d1c 0d3e ff46 913e
000001b0: 4ae0 103d 6979 a83d 9919 0a3e ebf3 0abe
000001c0: fa3c f0bd 12ef 0dbe 3639 be3c 31d8 fcbc
000001d0: 7f1c dd3d 9ff8 b13e 9efe c7bd 5c6c b53d
000001e0: c4b9 0dbe cbe8 a03d 5bea 813d 9b02 593e
000001f0: 94e0 863e 2972 d93c b6b3 4dbe 9270 413d
00000200: 2dc6 253c 1936 063e 060b 7d3d 7f06 cbbe
00000210: 166c 763e 98bd 5cbe a492 ffbd 8744 8f3c
00000220: 221f c63d a466 d2bd 45f5 783d 6597 87bd
00000230: c4bb 52bb dea5 50be ff77 503e 4bda 1abe
00000240: 2042 b53b 505c 113d 2236 ae3e 3afd f33d
00000250: f619 773d a099 9ebd bf26 303e 14b9 d7bd
00000260: 5b7f 32be 93f3 643e 7b42 193e 9459 553a
00000270: 8e15 cf3d 8aba e03d 22b4 f93c db49 61bd
00000280: 59c0 5d3e 913e 1abe 26d3 653e a98c 583e
00000290: 11b0 a93d 9810 10bd 12f6 70bd d70e a43e
000002a0: 445b 2bbd b7ac 843d 1b8d 2d3d 14b6 863e
000002b0: df75 203e 97b3 91bd d5b1 21bd 89c8 c73d
000002c0: 3c29 11be a783 cdbc 9196 8dbe 13fa 05be
000002d0: dd70 19be 7e04 ad3d 3b13 85bd e892 8b3d
000002e0: 763e 5cbe f032 2bbe 7fd2 5c3d 9d8c 953a
000002f0: ad0d 03bd a0b1 a2be 70ff 0c3e 43e8 1f3e
00000300: 8477 3d3e abef 0ebe c53e 273e f773 853d
00000310: 81c0 fcbd ff89 adbd d8f4 623b a517 ff3e
00000320: e803 76be 279e 5bbe 0051 13be f11b 17be
00000330: 4eab 363e eedf 073d eb82 35bd a3b0 19be
00000340: 6f95 61be b646 0b3e dcf8 883e 93e1 173d
00000350: 48f9 1bbe b065 28bd 59ff 9b39 75c6 fcbd
00000360: 8e80 993d 7c33 663e 103c db3d 9d07 a8bd
00000370: 2650 fbbd 7842 7bbd 20a8 723d e6c1 0e3a
00000380: 8238 0a3e f28c a23e 0924 d23c 32a3 a6be
00000390: 855f 033e f0b3 a1bc cf77 d13d 32b1 b33d
000003a0: bd9c 8e3e 547a 4c3b 3f1a 323e 5d9d 0f3e
000003b0: 9baf a13e f4c6 583d dcc9 d0bd 598c 41bc
000003c0: e764 07bc 221b 643e 8c58 963d bf51 16be
000003d0: 9909 863e 8bcb 333e 92e0 3c3d f929 513e
000003e0: 807a 32be 433b ffbd 6bfa 663e c1a7 1f3d
000003f0: b36b 103e 40fa 87be 5b10 273e 344f ff3d

bias_ih_l0 f4 [256]
-0.012616205 0.23241514 0.16426682 0.089119464 0.086558744 0.018953798 0.04818068 0.1386302
0.08862921 0.31196454 -0.010765205 0.023552785 0.051306542 0.17617299 0.01708142 0.18709947
-0.04896083 -0.03880055 0.14418463 0.05497035 0.079212084 0.064995356 0.43189096 0.21770157
0.12232521 0.21332344 0.07984645 0.16157767 0.32591426 0.17518118 0.0822251 -0.026320983
0.18066457 0.021899385 0.33683884 0.033774886 0.020113273 -0.03344707 0.06707555 0.09760362
0.13668986 0.09964882 0.08227498 0.15528905 0.05263636 0.047965765 0.10650694 0.1682658
-0.031916305 0.13312522 0.031523373 0.088054955 0.23580922 -0.005768537 0.10222656 0.045879845
0.027427973 0.029519541 0.06263309 0.16905938 0.045846395 0.15582646 -0.032211784 0.08015345
0.15434663 0.002684234 0.067154594 -0.03762546 0.08254138 0.042357147 0.31671205 0.1917489
0.2051999 0.29006502 0.29262114 0.045571513 0.2258213 0.24686477 0.18014008 -0.005656203
0.27717036 0.08361275 0.23205703 0.25248334 0.21885855 0.17778967 0.33925068 0.22531518
-0.018418306 0.20431666 0.11552169 0.11835615 0.181609 0.07285006 0.12635998 0.21225837
0.075743906 0.22181903 0.05149135 0.09493339 0.16294922 0.06491937 0.017933005 0.035239868
0.08385672 0.18470709 0.2491363 0.11824684 0.20444004 0.1162733 0.16097113 0.11577426
-0.048569202 0.17994684 0.10505652 0.16119272 0.1998377 0.19078116 0.23900089 0.27316064
0.1840988 0.18673433 0.07249372 0.047999054 0.09668233 0.12790176 0.11740769 0.15823233
0.093302645 -0.14986767 -0.06760565 -0.07915483 0.049030814 -0.009556242 -0.029499102 -0.0542977
-0.043512143 -0.09607045 -0.018672848 0.06936235 -0.19535851 0.09630753 -0.092861824 0.08347109
-0.08439934 -0.03509903 0.104415804 0.054959007 -0.097764075 0.09485835 -0.032326393 -0.08541052
0.115239054 0.10732161 0.092638984 0.021662634 -0.030567832 0.07495091 -0.027574703 0.013569175
0.11758764 -0.046009373 0.048341274 -0.019024229 -0.10059218 -0.07299074 0.1377089 0.0678679
0.09077669 -0.025935639 -0.11624447 -0.035961945 0.010131952 -0.014639508 0.025552267 0.11294706
0.057436876 -0.066243246 0.007807483 -0.16603743 0.05051073 -0.0044135493 -0.06196972 0.11155314
-0.06641004 -0.07004976 -0.014674652 0.04328497 0.023840988 -0.018214274 -0.1090824 -0.12294384
0.12274684 0.098286405 0.17083801 0.11002565 0.09688413 -0.063359424 0.11440888 0.35571146
0.27076152 0.16045028 0.15481201 0.2097864 0.109616645 0.08636312 0.19114421 0.08581833
0.22746985 0.23588423 0.35791042 0.21592556 0.090148665 0.14974272 0.40544283 0.36085624
0.03811604 0.30654952 0.01290229 0.08023553 0.3344777 0.15284795 0.27669498 0.20791934
0.18215363 0.27765468 0.3116449 0.25676975 0.27201262 0.07175172 0.041246057 0.036268283
0.027272493 0.19602625 0.19617958 -0.0039287093 0.053752474 0.29599983 0.10666725 0.21401817
0.072214745 0.23426212 0.056599166 0.24773975 0.013018136 0.10657905 0.056682665 0.204279
0.23260057 -0.021577429 0.10072023 0.22039494 0.18230107 0.22365871 0.086933516 0.033912264
00000000: 33b4 4ebc 3cfe 6d3e 9035 283e 4484 b63d
00000010: b645 b13d ff44 9b3c 1b59 453d 13f5 0d3e
00000020: 3b83 b53d d1b9 9f3e 8b60 30bc c5f1 c03c
00000030: cf26 523d b166 343e 56ee 8b3c 0197 3f3e
00000040: 278b 48bd 53ed 1ebd 23a5 133e 9728 613d
00000050: f239 a23d 491c 853d d020 dd3e 29ed 5e3e
00000060: a485 fa3d 7671 5a3e 8986 a33d 9e74 253e
00000070: 3cde a63e b262 333e a265 a83d 1a9f d7bc
00000080: 2200 393e 5766 b33c 2476 ac3e 8957 0a3d
00000090: 97c4 a43c cbff 08bd e85e 893d 68e4 c73d
000000a0: 6df8 0b3e ae14 cc3d c97f a83d 1804 1f3e
000000b0: 3999 573d c077 443d 5020 da3d df4d 2c3e
000000c0: acba 02bd fa51 083e a71e 013d 2856 b43d
000000d0: f977 713e ff05 bdbb 295c d13d 81ec 3b3d
000000e0: a1b0 e03c f7d2 f13c c745 803d e71d 2d3e
000000f0: 6ec9 3b3d f990 1f3e 81f0 03bd 7e27 a43d
00000100: 0b0d 1e3e f9e9 2f3b 5988 893d 281d 1abd
00000110: 740b a93d b07e 2d3d 1528 a23e d359 443e
00000120: ec1f 523e 6783 943e 70d2 953e 32a9 3a3d
00000130: b33d 673e 1eca 7c3e a476 383e ab57 b9bb
00000140: 46e9 8d3e 293d ab3d 5ca0 6d3e 7f45 813e
00000150: 751c 603e 7f0e 363e 44b2 ad3e 06b9 663e
00000160: fde1 96bc 6338 513e a396 ec3d b664 f23d
00000170: b6f7 393e 6a32 953d 8364 013e 425a 593e
00000180: 9f1f 9b3d 8724 633e 98e8 523d 706c c23d
00000190: 29dc 263e 72f4 843d 3de8 923c ae57 103d
000001a0: 12bd ab3d db23 3d3e 961d 7f3e 662b f23d
000001b0: bb58 513e b220 ee3d 9ed5 243e 0e1b ed3d
000001c0: 80f0 46bd fc43 383e df27 d73d b40f 253e
000001d0: 41a2 4c3e 235c 433e a6bc 743e b6db 8b3e
000001e0: 6584 3c3e 4937 3f3e 9677 943d a89a 443d
000001f0: 6301 c63d aef8 023e 7173 f03d a807 223e
00000200: 7515 bf3d e976 19be d574 8abd ed1b a2bd
00000210: 89d4 483d c991 1cbc 1aa8 f1bc 4467 5ebd
00000220: ca39 32bd 96c0 c4bd cdf7 98bc d90d 8e3d
00000230: 100c 48be e23c c53d 572e bebd e4f2 aa3d
00000240: 90d9 acbd 00c4 0fbd f4d7 d53d b21c 613d
00000250: 8838 c8bd 1845 c23d ae68 04bd b6eb aebd
00000260: 7402 ec3d 6fcb db3d 82b9 bd3d d675 b13c
00000270: 6469 fabc dd7f 993d 58e4 e1bc 3f51 5e3c
00000280: cad1 f03d 5374 3cbd 8001 463d b3d8 9bbc
00000290: 4603 cebd 2b7c 95bd 9003 0d3e 53fe 8a3d
000002a0: 21e9 b93d fa76 d4bc 9511 eebd d54c 13bd
000002b0: 7d00 263c 8cda 6fbc fd52 d13c ca50 e73d
000002c0: ee42 6b3d 8aaa 87bd ead5 ff3b b705 2abe
000002d0: 57e4 4e3d 899f 90bb f6d3 7dbd f975 e43d
000002e0: fd01 88bd 4076 8fbd f46d 70bc 954b 313d
000002f0: 2d4e c33c 1a36 95bc 9866 dfbd fbc9 fbbd
00000300: b262 fb3d 624a c93d 29f0 2e3e 2155 e13d
00000310: 306b c63d 96c2 81bd 344f ea3d d01f b63e
00000320: 41a1 8a3e 144d 243e 0a87 1e3e 3fd2 563e
00000330: b17e e03d 26df b03d 4fbb 433e 85c1 af3d
00000340: dbed 683e a38b 713e 0940 b73e 971b 5d3e
00000350: dd9f b83d 2856 193e 3496 cf3e 26c2 b83e
00000360: 911f 1c3d 0ff4 9c3e 2064 533c 8752 a43d
00000370: a940 ab3e 2c84 1c3e f7aa 8d3e cfe8 543e
00000380: 7b86 3a3e c128 8e3e ec8f 9f3e 5377 833e
00000390: 3d45 8b3e 91f2 923d a0f1 283d 0d8e 143d
000003a0: 906a df3c 1bbb 483e 4de3 483e 67bc 80bb
000003b0: 8e2b 5c3d 4a8d 973e 5c74 da3d 9427 5b3e
000003c0: 53e5 933d 69e2 6f3e 87d4 673d 7daf 7d3e
000003d0: 054a 553c 1e46 da3d 152c 683d 842e 513e
000003e0: d82e 6e3e 26c3 b0bc 6846 ce3d 36af 613e
000003f0: 22ad 3a3e ca06 653e 330a b23d 96e7 0a3d

bias_hh_l0 f4 [256]
-0.007469384 0.1321247 0.11966254 0.10296283 0.20431183 -0.046119723 0.107432246 0.08004704
0.05864146 0.21684779 0.036941394 0.054684546 0.1674342 0.17622153 0.088606015 0.18183362
-0.046879552 -0.007313193 0.01732385 0.14871378 0.043681655 0.12406334 0.38940194 0.26891184
0.1017541 0.17858675 -0.050928254 0.06909135 0.2980836 0.034121543 0.31483108 0.118688025
-0.05094819 -0.02329546 0.15866674 0.082391985 0.22475602 0.05282702 -0.028437695 -0.01140482
0.0071095494 0.066270016 0.03916117 0.13212931 0.23934326 0.075466976 -0.045128014 0.13709262
0.00019350194 0.081860416 -0.07917297 0.18619484 0.23915443 0.14843845 0.12461632 -0.03444111
0.11953269 0.04482071 -0.040090527 -0.047408435 0.10924207 0.06583462 -0.033142548 -0.042743087
0.20546518 0.16336644 0.2393508 0.082009874 0.23836732 0.09828613 0.3168884 0.25573114
0.19117351 0.11143632 0.24025697 0.11360943 0.17901485 0.2440212 0.027589424 -0.007338424
0.2878702 0.041387953 0.20856673 0.31883883 0.04669051 0.113316186 0.13397408 0.18313259
0.03635465 0.30242026 0.24451347 0.2534515 0.15502359 -0.024612935 0.12845342 0.07829047
0.2234985 0.076378904 0.06430597 0.07651108 0.30004573 0.09238402 0.25035745 0.1743586
0.22420704 0.12886229 0.28863788 0.113336086 0.18922113 0.091346115 0.11144927 0.04156145
0.03896269 0.035835408 0.06129555 0.29503635 0.03513942 0.034798183 0.24016982 0.31569794
0.34412944 0.07761438 0.031006223 0.10265532 0.25414374 0.17357181 0.22601473 0.036913455
0.06521747 -0.100915454 -0.032317504 -0.028252628 -0.1038659 -0.08595523 -0.13225247 0.054574385
-0.14989309 -0.043534968 -0.022300394 0.048748467 -0.19778337 -0.02559011 -0.033579264 -0.109062724
-0.096377455 -0.062064175 0.093714625 0.019732883 -0.00840174 0.03835914 0.0604345 0.1376133
-0.00021146364 0.05306882 0.041134942 0.080165915 -0.17215139 0.02993147 -0.0658695 -0.022441236
0.053690236 0.0677441 0.123354964 -0.11805911 -0.119280435 0.05354755 0.008157548 0.1170556
0.06626772 -0.094001554 -0.11079505 0.065213084 0.09555168 0.14451882 0.08654574 0.0140585685
-0.07859267 -0.074794196 0.09683853 -0.021017734 -0.022083739 0.04109907 0.028894858 0.021783778
0.012222668 -0.036971252 0.03268337 0.09948502 0.02961293 -0.13881534 -0.104821265 -0.029271418
0.18624863 0.19187063 0.2437465 0.24759078 0.10272031 0.13266523 0.0063357316 0.41446304
0.12545143 0.24960892 0.15790085 0.16575144 0.034856327 0.24883415 0.013005686 0.1351376
0.14612819 0.17467633 0.14770803 0.03828149 0.074705705 0.17708275 0.25520378 0.14258523
0.05648622 0.24844003 0.1615441 0.18053827 0.20564362 0.22310969 0.17615679 0.1459465
0.23251696 0.16069852 0.37984553 0.25524682 0.22537704 0.11885888 0.22707304 0.031578556
0.08928788 0.25977513 0.15439503 0.19421923 -0.019738078 0.20448326 0.047311667 0.30123073
0.16847394 0.121122174 -0.038000114 0.1601479 0.12927909 0.14882071 0.20703942 0.1991615
0.20636286 0.044053763 0.111444525 0.02947562 0.2166856 0.10132127 0.08917322 0.1366969
00000000: bcc1 f4bb b34b 073e a211 f53d 2dde d23d
00000010: 1f37 513e 09e8 3cbd 7005 dc3d b4ef a33d
00000020: 0732 703d 590d 5e3e dc4f 173d e7fc 5f3d
00000030: df73 2b3e 6b73 343e 1277 b53d 9832 3a3e
00000040: c604 40bd 82a3 efbb bfea 8d3c 6d48 183e
00000050: 89eb 323d ec14 fe3d b15f c73e d0ae 893e
00000060: 7464 d03d 72df 363e 259a 50bd c47f 8d3d
00000070: 6a9e 983e 08c3 0b3d 8a31 a13e b512 f33d
00000080: 0daf 50bd 1fd6 bebc 8979 223e 21bd a83d
00000090: 7126 663e 2561 583d 2bf6 e8bc 48db 3abc
000000a0: 39f7 e83b 93b8 873d 7767 203d e84c 073e
000000b0: 6616 753e 6e8e 9a3d 27d8 38bd 0262 0c3e
000000c0: c8e6 4a39 6fa6 a73d 7025 a2bd dca9 3e3e
000000d0: e6e4 743e 4000 183e d736 ff3d 1f12 0dbd
000000e0: 8ecd f43d ec95 373d f735 24bd 592f 42bd
000000f0: 4eba df3d 4dd4 863d 7bc0 07bd 6013 2fbd
00000100: 7765 523e 8849 273e 6018 753e cbf4 a73d
00000110: 9016 743e 3d4a c93d 323f a23e 31ef 823e
00000120: fdc2 433e ba38 e43d ec05 763e 10ac e83d
00000130: ab4f 373e b2e0 793e 3703 e23c 2a77 f0bb
00000140: b963 933e 6a86 293d 8492 553e d83e a33e
00000150: 8c3e 3f3d 5112 e83d 8030 093e 1c87 3b3e
00000160: 9de8 143d d4d6 9a3e bd61 7a3e 65c4 813e
00000170: 81be 1e3e 11a1 c9bc 4b89 033e c156 a03d
00000180: cadc 643e 8b6c 9c3d d9b2 833d d7b1 9c3d
00000190: 989f 993e d533 bd3d da2e 803e 108b 323e
000001a0: 8896 653e 7af4 033e 58c8 933e c01c e83d
000001b0: 2fc3 413e ac13 bb3d 843f e43d 573c 2a3d
000001c0: 5797 1f3d 26c8 123d 0b11 7b3d 010f 973e
000001d0: 5aee 0f3d 8a88 0e3d 14ef 753e 29a3 a13e
000001e0: bc31 b03e 4af4 9e3d c300 fe3c f43c d23d
000001f0: 211f 823e cfbc 313e 6870 673e 9032 173d
00000200: bd90 853d c3ac cebd 5c5f 04bd 0e72 e7bc
00000210: a5b7 d4bd 4c09 b0bd 316d 07be 6489 5f3d
00000220: 937d 19be b951 32bd 51af b6bc 79ac 473d
00000230: b987 4abe 5aa2 d1bc 698a 09bd 475c dfbd
00000240: 8b61 c5bd 0137 7ebd 74ed bf3d dba6 a13c
00000250: 74a7 09bc 791e 1d3d 2b8a 773d 80ea 0c3e
00000260: 57bc 5db9 b15e 593d 1d7d 283d 072e a43d
00000270: 7448 30be d832 f53c 97e6 86bd afd6 b7bc
00000280: 4bea 5b3d 6bbd 8a3d 87a1 fc3d fac8 f1bd
00000290: 4d49 f4bd ad54 5b3d 3ca7 053c d9ba ef3d
000002a0: 5fb7 873d e383 c0bd 84e8 e2bd 708e 853d
000002b0: 99b0 c33d befc 133e e53e b13d e955 663c
000002c0: 32f5 a0bd b32d 99bd 4753 c63d 622d acbc
000002d0: f5e8 b4bc 8057 283d e9b4 ec3c e573 b23c
000002e0: 9641 483c 2b6f 17bd ffde 053d cdbe cb3d
000002f0: d196 f23c 9c25 0ebe 88ac d6bd 9dca efbc
00000300: f6b7 3e3e bc79 443e af98 793e 7088 7d3e
00000310: 075f d23d 65d9 073e f89b cf3b 8034 d43e
00000320: 5776 003e 7b99 7f3e c3b0 213e bfba 293e
00000330: 82c5 0e3d 61ce 7e3e cd15 553c 8361 0a3e
00000340: a1a2 153e 5ade 323e c640 173e 0dcd 1c3d
00000350: 4eff 983d 2e55 353e 12aa 823e dd01 123e
00000360: 185e 673d 1067 7e3e d16b 253e 06df 383e
00000370: 3e94 523e de76 643e 7262 343e 0073 153e
00000380: ed18 6e3e 278e 243e 1d7b c23e b6af 823e
00000390: 3dc9 663e 496c f33d d685 683e 8458 013d
000003a0: 90dc b63d 3f01 853e bb19 1e3e 68e1 463e
000003b0: c0b1 a1bc 0f64 513e e1c9 413d ea3a 9a3e
000003c0: 6f84 2c3e e70e f83d 02a6 1bbd d0fd 233e
000003d0: bd61 043e 7564 183e 2402 543e fef0 4b3e
000003e0: c950 533e b871 343d 073d e43d db76 f13c
000003f0: d4e2 5d3e 8781 cf3d 73a0 b63d 46fa 0b3e

weight f4 [32, 64]
-0.057480887 0.13459122 -0.09478299 0.17646016 -0.41720837 -0.013579459 -0.18639626 0.37191552
0.19808976 0.7431632 -0.6835727 -0.2900308 0.2955282 0.26794732 0.17386681 -0.31621557
0.013578604 -0.25797296 -0.22310469 -0.18915057 -0.021293724 -0.19314459 -0.10137053 0.59317094
-0.0442132 0.15818712 -0.23540479 -0.09687492 0.47963062 -0.42963237 -0.17859758 0.017259808
0.34420782 0.38058642 0.08710845 -0.24787109 -0.21099122 -0.37148988 -0.27190834 -0.078227945
0.05214248 0.20842476 0.21609123 -0.16660997 0.46471146 -0.020241505 -0.1764858 -0.15851112
0.47125497 -0.36207074 -0.106921665 0.13175596 -0.5773153 0.01839943 -0.07505126 0.18103461
0.2315104 0.23282796 0.06183509 -0.48381606 -0.0032847559 0.9737443 -0.043574102 0.50182927
-0.038815923 -0.10111018 0.006507638 -0.14203906 -0.34324664 -0.10761295 0.56063986 0.09213771
-0.40351626 -0.23945151 -0.24701269 0.078745864 -0.1615547 0.26756343 0.43020526 0.07298584
0.71710986 -0.055351667 0.41559094 -0.25557783 -0.25441042 -0.014693956 -0.4549768 0.01090979
-0.01293146 -0.26559106 0.20994024 -0.16969666 0.6328451 0.0728283 0.0062041506 0.29390907
0.4136777 0.2823234 -0.04929627 0.013372568 -0.36488453 0.029664246 0.23108521 0.04698209
-0.61458653 0.118043385 0.2203042 -0.3428754 -0.3452699 0.24060176 -0.03224582 0.67521167
0.3491312 0.06369732 0.4139021 0.15858571 0.14310834 0.015897464 0.058799714 0.77750814
-0.46915457 0.4542904 0.11577993 -0.013067945 0.50364906 0.1567302 0.11052973 -0.090733476
-0.03475683 -0.037210792 -0.07345661 -0.11697467 0.44819555 0.016020693 0.21454999 -0.47264066
-0.11347462 0.20290676 -0.15735637 -0.027441641 0.13676989 -0.021242198 -0.04685212 0.7272562
-0.060909234 0.27027208 -0.28271165 0.08832868 0.3164342 -0.48677608 0.81526285 -0.14341421
0.12570983 0.05108386 -0.27261162 0.10992099 0.15187314 0.029633122 -0.039866325 -0.1982575
-0.13061973 0.16667697 0.29529312 -0.017899824 -0.32397336 0.16420068 -0.08162927 0.017686639
0.5032633 -0.5152268 -0.13209374 0.022548217 -0.34999982 -0.5298096 0.2536479 0.08773286
-0.11441109 -0.6273862 -0.12530097 -0.2506891 -0.8076862 -0.23213659 0.2515106 0.04034506
-0.4755365 -0.06789274 -0.39712274 0.043440502 -0.41559935 -0.2767923 -0.5309098 0.19977489
0.11795184 0.064858176 0.4328544 0.5558384 0.4535355 0.075517744 -0.47941726 -0.2971505
-0.26590934 -0.55660284 0.5050559 -0.115962565 -0.15505092 -0.28842968 -0.28291404 0.19630852
-0.38232607 -0.17506072 0.0400345 0.050312825 0.12197681 0.45172602 0.11563135 0.092680976
-0.041120093 0.22221631 0.04233471 -0.57998645 0.11578965 0.0694732 0.25704315 0.32105812
-0.24006644 0.02554815 -0.022270203 -0.47716627 0.37397557 0.606508 0.049001742 0.29375193
-0.10431769 -0.54573345 0.30249482 0.22973332 -0.4895994 -0.17314246 0.14152713 -0.53568614
-0.15414004 -0.5702446 -0.06530985 -0.39056662 0.38951632 0.1691573 -0.23944913 -0.4751826
0.078280225 -0.5984768 -0.36521152 -0.08808419 -0.15362369 -0.0525926 0.0372775 -0.012069189
00000000: 1471 6bbd 48d2 093e 961d c2bd f9b1 343e
00000010: 569c d5be 617c 5ebc a9de 3ebe b66b be3e
00000020: 0bd8 4a3e f23f 3e3f 9ffe 2ebf eb7e 94be
00000030: 794f 973e 6430 893e 240a 323e 02e7 a1be
00000040: cb78 5e3c 0815 84be 8e75 64be b0b0 41be
00000050: 2d70 aebc b2c7 45be 5a9b cfbd 0dda 173f
00000060: e718 35bd cefb 213e f40d 71be 5c66 c6bd
00000070: 2592 f53e c6f8 dbbe 49e2 36be 7164 8d3c
00000080: 023c b03e 39dc c23e ea65 b23d ebd1 7dbe
00000090: 150e 58be ec33 bebe 9237 8bbe f935 a0bd
000000a0: 5a93 553d 4d6d 553e 0547 5d3e ce9b 2abe
000000b0: a9ee ed3e 83d1 a5bc b2b8 34be bd50 22be
000000c0: 5548 f13e 5661 b9be bff9 dabd 09eb 063e
000000d0: efca 13bf 67ba 963c 7ab4 99bd 2361 393e
000000e0: 1011 6d3e 746a 6e3e cb46 7d3d bdb6 f7be
000000f0: 0f45 57bb 4e47 793f c27a 32bd e277 003f
00000100: 72fd 1ebd db12 cfbd 063e d53b b072 11be
00000110: 06be afbe 2e64 dcbd 1886 0f3f b2b2 bc3d
00000120: af99 cebe c732 75be e5f0 7cbe 8345 a13d
00000130: 986e 25be 13fe 883e dd43 dc3e 9a79 953d
00000140: 8394 373f 6eb8 62bd 56c8 d43e 19db 82be
00000150: 1542 82be ebbe 70bc b8f2 e8be fabe 323c
00000160: 79de 53bc 8dfb 87be 93fa 563e f6c4 2dbe
00000170: 2302 223f 0127 953d 304c cb3b 407b 963e
00000180: 90cd d33e b18c 903e e3ea 49bd 9e18 5b3c
00000190: 25d2 babe 6f02 f33c 9aa1 6c3e 4b70 403d
000001a0: 8b55 1dbf bbc0 f13d 6d97 613e 5d8d afbe
000001b0: 37c7 b0be 4f60 763e 3114 04bd acda 2c3f
000001c0: 53c1 b23e be73 823d faea d33e 4b64 223e
000001d0: fe8a 123e 663b 823c f8d7 703d c60a 473f
000001e0: 0735 f0be c098 e83e 071e ed3d ef1a 56bc
000001f0: 25ef 003f e27d 203e 695d e23d 79d2 b9bd
00000200: 2e5d 0ebd 586a 18bd 6b70 96bd 6a90 efbd
00000210: e379 e53e d43d 833c feb2 5b3e f5fd f1be
00000220: 6265 e8bd cac6 4f3e 0722 21be 4bcd e0bc
00000230: 680d 0c3e 1e04 aebc 02e8 3fbd 762d 3a3f
00000240: f67b 79bd 1a61 8a3e 95bf 90be abe5 b43d
00000250: aa03 a23e b73a f9be 11b5 503f 2ddb 12be
00000260: 14ba 003e 4f3d 513d c093 8bbe 421e e13d
00000270: a284 1b3e 29c1 f23c df4a 23bd 0404 4bbe
00000280: 2ec1 05be 5ead 2a3e a930 973e a7a2 92bc
00000290: d6df a5be 3924 283e 3f2d a7bd 92e3 903c
000002a0: ddd5 003f e7e5 03bf 9543 07be 0ab7 b83c
000002b0: 2d33 b3be 9aa1 07bf 23de 813e 49ad b33d
000002c0: 5d50 eabd 629c 20bf e64e 00be 525a 80be
000002d0: 86c4 4ebf 37b5 6dbe ffc5 803e dd40 253d
000002e0: 8579 f3be 590b 8bbd ac53 cbbe abee 313d
000002f0: 70c9 d4be b8b7 8dbe b4e9 07bf ca91 4c3e
00000300: bc90 f13d 5dd4 843d 189f dd3e 6d4b 0e3f
00000310: ce35 e83e 0ca9 9a3d 2e76 f5be 1c24 98be
00000320: 4525 88be 867d 0ebf 584b 013f c87d edbd
00000330: abc5 1ebe 0ead 93be 1cda 90be 1a05 493e
00000340: 3ec0 c3be 1e43 33be 37fb 233d d214 4e3d
00000350: face f93d a248 e73e 21d0 ec3d 86cf bd3d
00000360: 8b6d 28bd ac8c 633e 2967 2d3d fe79 14bf
00000370: 2023 ed3d f747 8e3d 299b 833e bb61 a43e
00000380: fad3 75be 5b4a d13c 0070 b6bc 234f f4be
00000390: ba79 bf3e 1c44 1b3f 0db6 483d a766 963e
000003a0: 83a4 d5bd 30b5 0bbf 9ae0 9a3e 363f 6b3e
000003b0: c6ac fabe 424c 31be 7dec 103e ba22 09bf
000003c0: e3d6 1dbe 8dfb 11bf 2cc1 85bd 59f8 c7be
000003d0: af6e c73e 9237 2d3e 2732 75be 224b f3be
000003e0: 6251 a03d c735 19bf 01fd babe 7c65 b4bd
000003f0: 874f 1dbe 576b 57bd 4bb0 183d d9bd 45bc

bias f4 [32]
-0.06429858 -0.14925265 -0.1838913 -0.061014075 -0.52745134 0.14392903 -0.18217373 0.19093834
-0.13653089 -0.15548567 -0.109950066 0.0063711028 0.09693965 -0.057112075 -0.08462534 0.095147714
0.066944994 0.3428895 0.023401057 0.09717309 -0.1786487 0.13893507 -0.23763461 0.5163107
0.22313938 -0.08367126 -0.13526225 0.09133018 -0.14978132 -0.03900755 -0.17132525 0.045575686
00000000: f9ae 83bd b0d5 18be 004e 3cbe e5e9 79bd
00000010: 0d07 07bf 2262 133e c08b 3abe 5785 433e
00000020: c1ce 0bbe a337 1fbe 802d e1bd afc4 d03b
00000030: 4c88 c63d 5aee 69bd 0d50 adbd cedc c23d
00000040: 751a 893d 368f af3e 93b3 bf3c af02 c73d
00000050: afef 36be ff44 0e3e 7d56 73be f02c 043f
00000060: a67e 643e d65b abbd 3082 0abe 510b bb3d
00000070: 4660 19be 61c6 1fbd e36f 2fbe 92ad 3a3d

weight f4 [16, 32]
0.5253617 0.87504095 -0.06747828 -0.2866012 -0.5254834 -0.22677138 -1.5139573 0.23885474
2.4317057 -0.23286596 0.49046388 0.33196428 -0.3073714 0.19750406 -0.19869593 0.4927419
-0.12606911 0.38955903 0.11819426 0.11194003 0.12977868 0.24336666 0.25366783 0.38057932
0.090532206 0.018020868 0.12386385 -0.2461124 0.76638794 0.15901318 -0.20997037 0.38335714
-0.50320995 -0.2299731 -0.16703774 2.0392127 0.059727 -0.17442228 0.0805487 0.8872505
-0.23380665 0.114764854 0.38175228 1.1519194 0.28438908 1.0021714 0.4556725 -0.4039212
0.45527953 0.12837766 0.0333053 0.093094476 -0.8449066 0.35622734 -0.051689275 0.27585748
0.02091989 0.64120716 -0.14476807 -0.31979844 -0.15330152 0.19515024 0.16647814 0.04499622
0.19007416 0.560553 -1.3380518 -0.4482008 -0.9798188 0.70776093 0.018146385 0.1047525
0.7918431 -0.122296356 0.3748225 -0.24854514 0.20435922 0.20765284 -0.08771505 0.99330276
-0.39350742 0.25905532 0.017252339 0.2732064 0.87779146 0.6625915 0.2188767 0.07374708
0.30799738 -1.08419 0.5306885 -0.0481867 0.20432241 -0.8907865 0.18654777 0.19251277
-0.57571065 -0.8532389 -0.13076931 0.28367737 0.031116065 0.12039239 1.16873 -0.3690381
-0.54316396 0.7719177 -0.11882329 0.24950606 1.5478665 0.011542215 0.28724647 -0.45752957
0.33850008 -0.6111602 0.79759735 -0.13371657 0.008727588 0.56279933 0.69800186 -0.8487449
0.16710284 -0.1287808 0.10709989 -0.6080198 0.2706158 0.31943983 0.45088464 0.17803276
0.1195002 0.10328213 0.97842234 -0.69700533 -1.2933861 1.3071717 0.12018758 0.07378885
0.026435135 0.36198708 -0.7618863 0.022664223 0.3023768 -1.0712695 0.58914924 -0.022708839
0.8093531 0.34066534 0.0155909285 -0.28089055 0.30619588 0.2097784 0.05834283 0.42272142
0.090721674 -0.022501433 -0.24730079 -0.16877769 -0.56799304 0.058752637 0.21422921 -0.1288081
1.2855937 -0.62067276 0.1568549 -0.34847504 0.33972532 0.82426184 -0.3436263 0.48821646
0.28302658 -0.4260148 0.057599965 0.3308331 -0.029315405 -0.08800089 -0.20959899 0.03655475
0.059398413 0.76787657 -1.8145707 -0.3708086 1.6816283 0.8815543 -0.5683604 0.6261398
-0.12734172 -0.057142504 0.15686654 0.71281856 -0.87225896 -0.005465056 0.07303877 0.015731089
0.30114573 0.7946309 -0.11883943 0.2223653 -0.1468619 0.7106359 -1.0732833 0.43612447
0.25732216 -1.9660108 -0.35702738 0.24958836 0.19677892 -0.00037700514 0.022894507 0.24746172
-0.110188365 0.23768197 -0.832901 0.031701565 0.006816734 0.12559113 -1.9684552 0.12557171
0.2152179 0.17970009 -1.4478197 -1.4684768 -0.89883864 -0.33310407 -2.1215584 -0.020057
0.7024825 -0.08621608 0.07746162 -0.09585972 -0.17386702 0.7836595 -2.0300994 0.38561776
0.58250666 -0.41701758 0.11247758 0.51911163 -0.0031769567 0.15728815 0.22810961 -0.38607848
0.017293433 0.74439925 -1.7646344 -0.40522712 0.69878566 0.5581093 -0.21098186 0.44142932
-0.55510384 0.50685954 -0.4605861 -0.07531851 -0.29534647 0.96671927 -0.023720356 -0.0828351
00000000: 1b7e 063f af02 603f 0d32 8abd 64bd 92be
00000010: 1586 06bf c236 68be 5ac9 c1bf 5696 743e
00000020: 11a1 1b40 6a74 6ebe 151e fb3e 39f7 a93e
00000030: c95f 9dbe 813e 4a3e f276 4bbe ab48 fc3e
00000040: 4318 01be 4874 c73e d50f f23d d040 e53d
00000050: b4e4 043e 1c35 793e c0e0 813e 4bdb c23e
00000060: f368 b93d 80a0 933c 55ac fd3d e404 7cbe
00000070: 0032 443f 5ad4 223e 7902 57be 6347 c43e
00000080: 5ed2 00bf 117e 6bbe f10b 2bbe 7682 0240
00000090: 4ca4 743d c19b 32be b8f6 a43d d922 633f
000000a0: 036b 6fbe d609 eb3d 0975 c33e 1872 933f
000000b0: 729b 913e 2747 803f e84d e93e c2ce cebe
000000c0: 661a e93e 6f75 033e 236b 083d 51a8 be3d
000000d0: cd4b 58bf 6e63 b63e 22b8 53bd 313d 8d3e
000000e0: 3060 ab3c 2726 243f 153e 14be 9fbc a3be
000000f0: 13fb 1cbe 77d5 473e 3f79 2a3e f54d 383d
00000100: cda2 423e 6780 0f3f 4845 abbf 937a e5be
00000110: 68d5 7abf d22f 353f baa7 943c 7b88 d63d
00000120: 3bb6 4a3f 8376 fabd bce8 bf3e 9e82 7ebe
00000130: 8b43 513e f2a2 543e f3a3 b3bd 1749 7e3f
00000140: ce79 c9be e6a2 843e c754 8d3c b6e1 8b3e
00000150: f1b6 603f 999f 293f 3721 603e b608 973d
00000160: d5b1 9d3e bdc6 8abf 34db 073f 6b5f 45bd
00000170: e539 513e 960a 64bf 6106 3f3e 1122 453e
00000180: c661 13bf dd6d 5abf 64e8 05be 293e 913e
00000190: 1ee7 fe3c 4990 f63d f298 953f 90f2 bcbe
000001a0: cb0c 0bbf 669c 453f a059 f3bd 847e 7f3e
000001b0: 7d20 c63f 8f1b 3d3c f811 933e 5141 eabe
000001c0: e24f ad3e ff74 1cbf 572f 4c3f ffec 08be
000001d0: 28fe 0e3c 9e13 103f 40b0 323f 5947 59bf
000001e0: 021d 2b3e 1ddf 03be 3057 db3d 30a7 1bbf
000001f0: 278e 8a3e 9e8d a33e 5ada e63e 384e 363e
00000200: 85bc f43d 9585 d33d e379 7a3f f16e 32bf
00000210: ad8d a5bf 6751 a73f e824 f63d 9c1e 973d
00000220: 7f8e d83c 5f56 b93e fb0a 43bf 52aa b93c
00000230: 22d1 9a3e 5c1f 89bf 7cd2 163f e307 babc
00000240: c431 4f3f b06b ae3e 1871 7f3c e3d0 8fbe
00000250: b5c5 9c3e 26d0 563e e4f8 6e3d f16e d83e
00000260: 49cc b93d ed54 b8bc 6b3c 7dbe 0fd4 2cbe
00000270: fe67 11bf 9ba6 703d e75e 5b3e 45e6 03be
00000280: 568e a43f 69e4 1ebf 929e 203e 526b b2be
00000290: 7af0 ad3e d302 533f c9ef afbe 82f7 f93e
000002a0: dce8 903e 9d1e dabe f1ed 6b3d f562 a93e
000002b0: dc26 f0bc d039 b4bd 1ea1 56be 6fba 153d
000002c0: c04b 733d 8f93 443f da43 e8bf a0da bdbe
000002d0: 993f d73f 8bad 613f 1180 11bf b34a 203f
000002e0: de65 02be 420e 6abd 9fa1 203e 477b 363f
000002f0: 5d4c 5fbf 3614 b3bb 5a95 953d 7cde 803c
00000300: c62f 9a3e ee6c 4b3f 1662 f3bd bbb3 633e
00000310: f762 16be 3cec 353f 5961 89bf b54b df3e
00000320: bbbf 833e 3ea6 fbbf 4bcc b6be 1794 7f3e
00000330: 6a80 493e c6a8 c5b9 438d bb3c 9b66 7d3e
00000340: 70aa e1bd e762 733e 0039 55bf 80d9 013d
00000350: e95e df3b f69a 003e 57f6 fbbf df95 003e
00000360: 1562 5c3e 4d03 383e 2852 b9bf 0cf7 bbbf
00000370: 4a1a 66bf 9e8c aabe 9dc7 07c0 944e a4bc
00000380: e5d5 333f 0e92 b0bd 33a4 9e3d 1a52 c4bd
00000390: 320a 32be e99d 483f 26ed 01c0 b16f c53e
000003a0: 281f 153f 5483 d5be a55a e63d 80e4 043f
000003b0: 7d34 50bb 2510 213e 9195 693e 14ac c5be
000003c0: f5aa 8d3c f390 3e3f 8adf e1bf ee79 cfbe
000003d0: 9ee3 323f 40e0 0e3f a10b 58be 0603 e23e
000003e0: 491b 0ebf 8cc1 013f f1d1 ebbe 9740 9abd
000003f0: a737 97be ea7a 773f 3151 c2bc 73a5 a9bd

bias f4 [16]
0.31685156 0.7589446 0.44298607 0.4759199 0.058620457 0.106951915 0.45771497 0.2995302
0.42344347 -0.042881984 0.085819475 -0.1825797 0.34287038 0.5037902 0.25670552 0.05757507
00000000: 5e3a a23e 314a 423f 12cf e23e c6ab f33e
00000010: 011c 703d 9b09 db3d 9e59 ea3e 065c 993e
00000020: 95cd d83e 05a5 2fbd 1fc2 af3d 2cf6 3abe
00000030: b58c af3e 65f8 003f e86e 833e d6d3 6b3d

weight f4 [10, 16]
0.12806317 -0.29375902 -0.51847005 -0.78043365 -0.83213294 -0.87678295 1.016448 0.035490714
0.41786116 0.37362236 -0.27149457 0.39405668 0.1074506 -0.5194864 -1.020816 -0.92769915
-4.568668e-05 0.84862584 0.9375442 0.28600028 0.4016876 -1.0485221 -0.27984092 -0.91708606
-0.07791355 -0.24211912 0.43955246 -0.027761705 -0.30727884 -1.5386322 0.2944174 -0.2777813
-0.50692785 0.6304959 -0.64315355 0.8664827 0.6015376 0.7574938 0.20553777 1.014924
-1.059738 -1.2521526 -1.0525618 -1.0497669 0.16258895 0.308543 -0.44040963 -0.6737967
0.4320498 0.24963084 -0.6776361 -1.5027803 0.28905404 -1.5895921 -1.4570422 -1.0546497
0.41980487 -0.17784633 -0.7746499 0.12146467 0.4224172 0.6085374 0.57042706 -0.72439474
-1.0101022 -0.28852332 -0.38461646 0.09804701 0.47483388 0.04809815 -0.60511196 -0.96634436
-0.113136776 -0.7115484 0.6322324 -0.49176678 -1.3919907 0.45662707 -0.41084346 0.98447645
0.3529552 -0.6086847 0.5039065 -0.60137343 -1.1943861 0.25887188 -1.1811346 0.3663079
0.42753625 0.35211766 -0.37965596 -0.23259863 0.03703417 -0.30750492 -0.057190806 0.14183342
0.4262477 0.43642122 -0.86225736 0.28932503 -0.82550025 -0.93878615 0.42362297 -0.054144528
-0.7294946 -0.31080365 0.13166465 0.57352763 -0.33209834 0.25635645 -0.048550002 0.66055924
0.40744638 -1.1677641 0.54930454 0.09555358 0.034498148 0.3820841 -0.02592805 0.12454646
-1.5377758 -0.35759118 0.37145135 -1.1434655 -0.7733883 0.40764788 0.82845056 -0.48734766
0.104929246 -0.6865352 0.3011445 0.9187146 0.43559116 0.27636304 1.1998914 0.20664287
0.13046825 0.27909815 -0.4502438 -0.31612638 -0.44383737 -0.93600774 -0.095053464 -0.52325565
-1.5675682 0.20550705 0.0440517 -0.3399375 -0.078002825 0.6048037 -1.5792414 -1.3082372
0.19730765 0.43279773 -0.21700843 0.37253046 0.4857131 0.03243254 -0.58227134 0.14713943
00000000: fe22 033e 9567 96be 74ba 04bf 80ca 47bf
00000010: aa06 55bf d974 60bf f81a 823f b65e 113d
00000020: e6f1 d53e 6e4b bf3e 5601 8bbe ccc1 c93e
00000030: 0f0f dc3d 10fd 04bf 19aa 82bf b17d 6dbf
00000040: b39f 3fb8 8b3f 593f e602 703f a16e 923e
00000050: ffa9 cd3e f935 86bf 4f47 8fbe 27c6 6abf
00000060: 2491 9fbd 13ee 77be 050d e13e 846c e3bc
00000070: a753 9dbe e6f1 c4bf e1bd 963e 5a39 8ebe
00000080: 06c6 01bf 2e68 213f b6a5 24bf cfd1 5d3f
00000090: 5efe 193f 1deb 413f 7e78 523e 08e9 813f
000000a0: 7fa5 87bf 8946 a0bf 58ba 86bf c35e 86bf
000000b0: b87d 263e 59f9 9d3e 5f7d e1be f17d 2cbf
000000c0: a235 dd3e 3a9f 7f3e 8f79 2dbf 1b5b c0bf
000000d0: e4fe 933e c177 cbbf 5c80 babf c3fe 86bf
000000e0: aaf0 d63e 591d 36be 754f 46bf 78c2 f83d
000000f0: 1147 d83e 1bc9 1b3f 8207 123f ef71 39bf
00000100: 074b 81bf 54b9 93be 73ec c4be dfcc c83d
00000110: 6d1d f33e 9102 453d 9ee8 1abf 5862 77bf
00000120: 41b4 e7bd 0928 36bf fcd9 213f dbc8 fbbe
00000130: c02c b2bf 06cb e93e 135a d2be a606 7c3f
00000140: 8bb6 b43e c3d2 1bbf 0400 013f 9cf3 19bf
00000150: a5e1 98bf db8a 843e 6b2f 97bf b68c bb3e
00000160: 08e6 da3e c448 b43e 4462 c2be 562e 6ebe
00000170: 24b1 173d 4971 9dbe e840 6abd c83c 113e
00000180: 233d da3e 9a72 df3e e6bc 5cbf 6922 943e
00000190: fc53 53bf 4a54 70bf 1ce5 d83e a7c6 5dbd
000001a0: 28c0 3abf a821 9fbe 19d3 063e b5d2 123f
000001b0: cb08 aabe 2741 833e 5edc 46bd 691a 293f
000001c0: d09c d03e 4b79 95bf 399f 0c3f 98b1 c33d
000001d0: ee4d 0d3d 87a0 c33e 1067 d4bc 3712 ff3d
000001e0: d6d5 c4bf 3116 b7be df2e be3e 145d 92bf
000001f0: c7fc 45bf 39b7 d03e 5615 543f a285 f9be
00000200: 25e5 d63d c5c0 2fbf 9d2f 9a3e e130 6b3f
00000210: ce05 df3e 757f 8d3e 0b96 993f 309a 533e
00000220: 7899 053e f4e5 8e3e 5b86 e6be 51db a1be
00000230: a73e e3be 349e 6fbf 64ab c2bd 15f4 05bf
00000240: 13a6 c8bf 7170 523e 8e6f 343d 4a0c aebe
00000250: f2bf 9fbd 6ad4 1a3f 9524 cabf 5174 a7bf
00000260: 040b 4a3e aa97 dd3e 7537 5ebe 50bc be3e
00000270: 63af f83e fcd7 043d bc0f 15bf b8ab 163e

bias f4 [10]
-0.114054404 0.10555877 0.14335172 0.18248765 -0.10246056 -0.21154168 -0.6068562 0.44894734
-0.29005966 0.11223196
00000000: 5b95 e9bd 322f d83d cbca 123e 0bde 3a3e
00000010: d8d6 d1bd 629e 58be ee5a 1bbf 6ddc e53e
00000020: b382 94be dfd9 e53d
