normalizedspecmodel.pt (torch, 145814 bytes, 16 tensors)

weight_ih_l0 f4 [128, 16]
0	0x3d8e960b	0.06962212
1	0x3e0dd125	0.13849314
2	0xbdb6c9b0	-0.089251876
3	0xbdd16425	-0.10224179
4	0xbd66a920	-0.056313634
5	0x3c9f1121	0.019417347
6	0xbe0aef93	-0.13567953
7	0x3db80d53	0.089869164
8	0xbdec78d9	-0.11546487
9	0x3e213d25	0.15745981
10	0x3cda46f8	0.026645169
11	0xbe33b245	-0.17548473
12	0x3cad54e1	0.021158637
13	0xbe28a853	-0.1647046
14	0x3e12b695	0.14327462
15	0x3bcf516c	0.006326845
16	0xbe215b9b	-0.15757601
17	0x3e21fec7	0.15819846
18	0xbe261172	-0.16217592
19	0x3b984a9e	0.004647567
20	0xbd1a2ced	-0.0376405
21	0x3d6a4137	0.0571911
22	0x3cb2b816	0.021816295
23	0x3e243795	0.16036828
24	0x3db4545c	0.08805153
25	0xbdca7797	-0.09886091
26	0x3da86d64	0.082239896
27	0x3df8be84	0.12145713
28	0xbe232012	-0.15930203
29	0xbe026e2a	-0.12737337
30	0xbd897692	-0.067120686
31	0xbe1af9f2	-0.15134409
32	0xbdfe8d6a	-0.12429316
33	0xbc742190	-0.01490058
34	0x3e09982f	0.1343696
35	0x3d8332ae	0.06406151
36	0x3dc66942	0.09688045
37	0x3e176fdf	0.14788769
38	0x3d143fc4	0.036193624
39	0x3d33dc3c	0.043911204
40	0x3d43f2a0	0.047838807
41	0x3cc5a470	0.024126261
42	0x3e329bc1	0.17442228
43	0x3e05933b	0.13044445
44	0xbe09f742	-0.13473228
45	0x3d8e3546	0.06943755
46	0xbe196dea	-0.14983335
47	0x3d8cfd3a	0.06884237
48	0xbe26a6c0	-0.16274548
49	0xbd84c473	-0.06482782
50	0x3d12d2de	0.03584563
51	0x3c39836f	0.01132284
52	0x3dea928a	0.11453731
53	0x3d7f9667	0.062399294
54	0xbe319c47	-0.17344771
55	0xbe2d6dcc	-0.16936415
56	0x3db730eb	0.08944877
57	0xbdc6907d	-0.09695528
58	0x3d9b7a12	0.075916424
59	0x3ce3013c	0.02771055
60	0xbcfc67b6	-0.030811172
61	0x3d06dfb8	0.0329282
62	0x3e184cfd	0.14873119
63	0x3df97f46	0.121824786
64	0x3ce549c8	0.027989283
65	0x3c283530	0.010266587
66	0x3e23fd0b	0.16014497
67	0x3e0cc28b	0.13746087
68	0x3d6e8430	0.058231533
69	0xbe0f2772	-0.13979891
70	0x3c1f3350	0.009716824
71	0x3e09c55d	0.13454194
72	0x3ddb5046	0.1070867
73	0x3bcf5920	0.006327763
74	0x3e1c295f	0.15250157
75	0x3de951b6	0.11392538
76	0x3dc74496	0.097298786
77	0x3d5e903c	0.05433677
78	0xbde8f7dc	-0.113754004
79	0xbe275bdf	-0.1634364
80	0xbd563cfc	-0.052304253
81	0xbdc7052a	-0.09717782
82	0xbdb21a6f	-0.08696448
83	0x3c80dbf9	0.015729891
84	0xbd0ab282	-0.033861645
85	0x3e2a3204	0.16620642
86	0xbe14ae51	-0.14519621
87	0x3dd26d99	0.1027481
88	0xbe2176ab	-0.15767924
89	0xbdf8e517	-0.121530704
90	0xbb987774	-0.004652912
91	0x3e07de3e	0.13268372
92	0x3d6c1ea2	0.0576464
93	0xbca695a7	-0.020335032
94	0x3d53913e	0.051652186
95	0xbd8264b3	-0.06366863
96	0xbe25b69a	-0.16182938
97	0xbd0cd470	-0.034382284
98	0xbe136fbf	-0.14398097
99	0x3d71959c	0.05898057
100	0xbe2f3635	-0.17110522
101	0x3d8d0614	0.06885925
102	0x3d370df4	0.04469104
103	0xbd2bc0f0	-0.041932046
104	0xbcb97c70	-0.022642344
105	0xbb0e9ec0	-0.0021762103
106	0xbd9101f2	-0.07080449
107	0xbdabff8d	-0.08398352
108	0x3d8bf3d8	0.06833619
109	0xbe208d28	-0.15678847
110	0xbd65a2d8	-0.056063503
111	0x3c8181e8	0.015809014
112	0x3d97905e	0.07400583
113	0xbd104afd	-0.035227764
114	0x3cc3c54d	0.023897791
115	0xbe00aed5	-0.12566693
116	0x3d9e2cae	0.07723366
117	0xbe03fd6e	-0.12889645
118	0xbdda9148	-0.106722414
119	0xbe0a3fb4	-0.13500863
120	0xbc354eb9	-0.011066132
121	0x3e1365c5	0.14394291
122	0xbd557dcd	-0.052121926
123	0xbde4bdb0	-0.111689925
124	0x3d668533	0.056279372
125	0x3ddf94a6	0.10917024
126	0x3e0e3be5	0.13890035
127	0xbd801f92	-0.062560216
128	0xbded8b0a	-0.11598785
129	0xbcce7860	-0.025203884
130	0xbe1893a6	-0.14900073
131	0xbc9348d8	-0.01797907
132	0xbe30d557	-0.17268883
133	0xbd4778b0	-0.04869908
134	0xbdc7761d	-0.09739325
135	0x3e234b91	0.15946795
136	0xbd2867c0	-0.04111457
137	0xbda0c66c	-0.07850346
138	0x3daca32a	0.084295586
139	0xbc3ce240	-0.011528552
140	0x3c6d9e60	0.014503092
141	0xbdd02997	-0.10164183
142	0xbdea93bd	-0.1145396
143	0x3e1baa69	0.15201725
144	0x3d836440	0.064156055
145	0x3e00845d	0.12550493
146	0x3e2c4605	0.16823585
147	0x3e32b2dd	0.17451043
148	0x3d5a4464	0.05328788
149	0x3d27aabc	0.04093431
150	0xbe2a676c	-0.16641015
151	0x3e24a809	0.16079725
152	0x3e082a99	0.132975
153	0x3cc5c498	0.024141595
154	0x3e0877e3	0.13326983
155	0xbe0a9bfc	-0.13536066
156	0x3c250ca0	0.010073811
157	0x3d78630c	0.060641333
158	0x3e2468cf	0.16055606
159	0xbbc08140	-0.005874783
160	0xbd0813d8	-0.03322205
161	0x3d8198c0	0.06327963
162	0xbd8d4de7	-0.06899624
163	0x3d65ff38	0.0561516
164	0x3d93ac3a	0.07210584
165	0x3e1e78ed	0.15475817
166	0xbdedbd7c	-0.11608407
167	0xbce2ee50	-0.027701527
168	0xbd28b5d8	-0.041189045
169	0xbd3e65dc	-0.04648386
170	0x3da90afa	0.08254047
171	0xbe332f4e	-0.17498514
172	0xbd56ad06	-0.0524111
173	0xbe022cf7	-0.12712465
174	0x3d9fd60e	0.078044996
175	0xbdd0ba0f	-0.10191738
176	0x3d79d89c	0.06099759
177	0xbe30035a	-0.17188779
178	0x3db090ce	0.08621369
179	0x3df14706	0.11781125
180	0x3e26b42d	0.16279669
181	0xbe072185	-0.1319638
182	0x3cc60e88	0.02417685
183	0x3c3d08d0	0.011537746
184	0xbcb8efd8	-0.022575304
185	0xbce35560	-0.02775067
186	0xbe15f36e	-0.14643642
187	0xbd383e78	-0.04498145
188	0xbe1230ea	-0.14276472
189	0xbe29f2ba	-0.16596499
190	0xbdff7c40	-0.12474871
191	0xbe066150	-0.1312306
192	0xbe2ed00e	-0.17071554
193	0xbd5b1bb0	-0.0534932
194	0xbd8243f1	-0.06360615
195	0xbcccae08	-0.024985328
196	0xbd4432a8	-0.047899872
197	0x3e2bd4eb	0.1678044
198	0xbe3052cc	-0.17219085
199	0x3d727bc0	0.05920005
200	0xbdcf6624	-0.10126904
201	0xbdba2639	-0.09089322
202	0x3d350204	0.044191375
203	0xbde32210	-0.11090481
204	0xbdf34b96	-0.11879651
205	0x3e200497	0.15626751
206	0x3b00d740	0.001965955
207	0xbe082e2e	-0.13298866
208	0xbe2113e9	-0.15730251
209	0xbe191881	-0.14950754
210	0xbdc136b4	-0.09434262
211	0x3dadc382	0.08484556
212	0xbdb72d36	-0.0894417
213	0xbdc2a546	-0.0950418
214	0x3d8f2eac	0.06991324
215	0x3d4b721c	0.04966937
216	0xbe15cdf8	-0.14629352
217	0x3e23bcf3	0.15990047
218	0xbd3ff464	-0.04686393
219	0xbdcaf07b	-0.09909149
220	0x3dab5a9a	0.0836689
221	0xbbce4f40	-0.0062960684
222	0xbbeaba20	-0.007163301
223	0xbcdf8bf8	-0.027288422
224	0x3dedc512	0.11609854
225	0xbaf85880	-0.0018947273
226	0xbcf2c3e0	-0.029634416
227	0x3dcdcc06	0.1004868
228	0xbddd9582	-0.10819532
229	0xbdb602ec	-0.08887276
230	0xbcca7700	-0.024714947
231	0xbde0a75c	-0.10969421
232	0xbcd6e808	-0.026233688
233	0x3de64196	0.11242978
234	0x3d93f7d4	0.07225004
235	0xbe2bdf96	-0.1678451
236	0x3c9d53d8	0.019205019
237	0xbd716468	-0.058933645
238	0x3cbdb320	0.023156703
239	0xbe1d6e79	-0.15374173
240	0x3da18f13	0.07888617
241	0x3e31f7b0	0.17379642
242	0x3d8165c5	0.06318239
243	0xbe08ce4b	-0.13359945
244	0xbe1ea576	-0.15492806
245	0x3e00b626	0.12569484
246	0x3e35257e	0.17690083
247	0x3dc3f41f	0.09568047
248	0xbb839881	-0.0040159826
249	0xbdf88549	-0.12134797
250	0xbdc1c488	-0.094613135
251	0xbd64b5e7	-0.055837538
252	0x3c249882	0.010046126
253	0x3e0b5844	0.1360789
254	0x3cde0bce	0.027105238
255	0xbd6c4e51	-0.057691876

weight_hh_l0 f4 [128, 32]
0	0x3bd278ae	0.0064230775
1	0xbdff15aa	-0.12455304
2	0x3d6a6584	0.05722572
3	0x3ddaf92c	0.10692057
4	0x3e03cbcd	0.12870713
5	0xbe0cd395	-0.13752587
6	0xbb2f3410	-0.0026733913
7	0x3e05c06f	0.13061689
8	0xbd33ce19	-0.043897722
9	0x3d048b44	0.032359377
10	0xbcb38240	-0.021912694
11	0x3dc547a5	0.09632806
12	0xbe089ca3	-0.13341002
13	0x3dda8929	0.106706925
14	0xbd31e220	-0.04342854
15	0xbdd65e0c	-0.10467157
16	0x3e1215e7	0.14266168
17	0x3dbd5222	0.09244181
18	0xbbf04b1d	-0.007333173
19	0x3cd3d54e	0.025858548
20	0x3ddfc235	0.10925714
21	0x3dae57ba	0.08512826
22	0x3d9470e0	0.07248092
23	0x3d83f961	0.064440496
24	0xbdb2f3d6	-0.08737914
25	0xbdc29e89	-0.095028944
26	0xbd0ae4d0	-0.03390962
27	0x3cfd5c78	0.030927882
28	0xbddecf27	-0.10879355
29	0x3b3f1500	0.0029156804
30	0xbdc11dd0	-0.094295144
31	0x3cea0118	0.028564975
32	0x3df57db5	0.11986867
33	0xbb91a3b9	-0.004444566
34	0xbb1bcd80	-0.002377361
35	0x3c089be6	0.00833795
36	0xbd9c90d8	-0.07644814
37	0xbcf047ea	-0.029331166
38	0x3de1c27e	0.110234246
39	0x3e2ff4d5	0.1718324
40	0xbe062186	-0.13098726
41	0xbe0ba9e4	-0.13639027
42	0x3dbec5f2	0.09315099
43	0x3e0ac3f3	0.13551311
44	0xbe27f5c3	-0.16402344
45	0xbd7bd131	-0.061478797
46	0x3c526920	0.012842447
47	0x3a1e9e00	0.00060507655
48	0xbd33a854	-0.043861702
49	0x3e00d1af	0.12579988
50	0xbe15f612	-0.1464465
51	0xbbbe0ab1	-0.0057996144
52	0xbdccb733	-0.0999588
53	0xbdba8a42	-0.09108402
54	0x3c949254	0.018136181
55	0xbc8fad00	-0.017538548
56	0xbb2e0700	-0.0026554465
57	0x3c434db7	0.011920384
58	0x3db87bb7	0.09007972
59	0x3c683580	0.014172912
60	0xbd5f96cc	-0.05458717
61	0x3e00d331	0.12580563
62	0xbe22c8c5	-0.158969
63	0x3d7e0d08	0.062024146
64	0x3e335347	0.17512237
65	0xbdf9119e	-0.12161563
66	0xbe25ec8a	-0.16203514
67	0x3c81cb28	0.015843943
68	0xbde48727	-0.11158591
69	0xbd7b940e	-0.061420493
70	0x3dee0112	0.11621298
71	0x3d27bbc4	0.04095055
72	0xbde8d5f1	-0.11368931
73	0xbe09c13e	-0.13452622
74	0x3e2a664d	0.16640587
75	0xbddbc195	-0.10730282
76	0xbd98416d	-0.07434354
77	0xbd9867d2	-0.07441677
78	0x3ddae692	0.10688509
79	0xbd837a4e	-0.06419812
80	0xbdb78345	-0.089605846
81	0x3d950dd8	0.07278031
82	0x3cd7a2d8	0.026322767
83	0x3d641310	0.055682242
84	0xbd9970e3	-0.074922346
85	0x3e2c12f1	0.168041
86	0x3d47ab68	0.04874745
87	0xbe2c64ea	-0.1683537
88	0xbe0e7445	-0.13911541
89	0x3d7ed420	0.062214017
90	0xbd971a06	-0.073780105
91	0xbe29a82a	-0.16568056
92	0xbd0ebdf4	-0.034849122
93	0xbe216044	-0.15759379
94	0x3d3a0d3c	0.045422778
95	0xbe2addcc	-0.16686171
96	0xbe101148	-0.14069092
97	0x3d62b2de	0.055346362
98	0x3daa515e	0.08316301
99	0xbd750c31	-0.05982608
100	0x3e15de41	0.14635564
101	0x3c75f651	0.01501234
102	0x3d933d57	0.07189434
103	0x3be3211c	0.006931437
104	0xbd82f39f	-0.06394123
105	0xbde6b03b	-0.11264082
106	0xbe0fd9d8	-0.14047945
107	0x3dbd3b76	0.09239857
108	0xbe2731b1	-0.1632755
109	0xbe0ceb1f	-0.13761567
110	0xbe0055a8	-0.12532675
111	0x3d539a66	0.051660918
112	0x3db77a32	0.08958854
113	0x3e3169ad	0.17325468
114	0xbd1ca723	-0.03824533
115	0x3cd7508e	0.026283529
116	0xbddb8b14	-0.107198864
117	0xbbecb450	-0.0072236434
118	0x3cb2fc36	0.02184878
119	0x3de5fd89	0.112299986
120	0xbd729d02	-0.059231766
121	0x3d9a29b5	0.07527486
122	0x3e10bd3e	0.1413469
123	0x3dc60fea	0.09671004
124	0xbe023b73	-0.1271799
125	0x3e230fcf	0.15923999
126	0x3dc6c626	0.097057626
127	0xbe1580e1	-0.14599945
128	0x3d1ca4a4	0.03824295
129	0x3d767b78	0.060176343
130	0x3d061674	0.032736257
131	0x3d84d900	0.06486702
132	0xbc8219d8	-0.015881464
133	0x3d4b1720	0.0495826
134	0x3d7925c8	0.060827047
135	0xbdcdad23	-0.10042789
136	0xbda0612f	-0.07831036
137	0xbdd54099	-0.10412712
138	0x3d321c20	0.043483853
139	0x3dc7476e	0.09730421
140	0xbddb23da	-0.107001975
141	0x3e292bbf	0.16520594
142	0xbd67eac2	-0.056620367
143	0x3dee464a	0.116345
144	0x3ce05158	0.027382538
145	0xbd9b2be3	-0.0757673
146	0x3e03bc81	0.12864877
147	0x3d71b968	0.059014708
148	0xbe2d810a	-0.16943756
149	0xbdb2295f	-0.08699297
150	0x3df3c22e	0.11902271
151	0x3d739e50	0.05947715
152	0xbc896628	-0.016772345
153	0xbe223df6	-0.15843949
154	0xbdcd6c6a	-0.10030444
155	0x3cb155a0	0.021647274
156	0xbd920c15	-0.07131211
157	0x3de0ad42	0.10970546
158	0x3d851c76	0.06499569
159	0xbdf4d9bc	-0.11955592
160	0xbe02ce30	-0.12773967
161	0x3a8e8528	0.0010873424
162	0xbe0b3e40	-0.13597965
163	0x3dbd58a6	0.09245424
164	0x3e2cf3b1	0.16889836
165	0xbe23ef0d	-0.1600916
166	0xbd3f6f9c	-0.0467373
167	0xbc652020	-0.01398471
168	0xbdf448ee	-0.11927973
169	0xbdda2a58	-0.10652608
170	0xbde52f17	-0.11190622
171	0x3bc3362e	0.0059573865
172	0xbd300749	-0.042975698
173	0x3dcd566d	0.1002625
174	0x3df45846	0.11930899
175	0x3e183a7f	0.14866064
176	0x3dabbf3e	0.08386086
177	0x3d7bd370	0.06148094
178	0xbd2fd4e1	-0.042927627
179	0x3dd841ff	0.10559463
180	0xbe33a5f6	-0.17543778
181	0x3d8913b6	0.06693213
182	0xbe0d753e	-0.13814256
183	0x3e0aa8a3	0.13540892
184	0x3de3c1e6	0.111209676
185	0x3e073054	0.1320203
186	0x3dcae3ef	0.09906756
187	0x3c70ae90	0.014690056
188	0x3dfc3f03	0.12316706
189	0xbce460b0	-0.027878135
190	0xbe290fa4	-0.16509873
191	0xbe1af655	-0.1513303
192	0xbe3352a7	-0.17511998
193	0x3da4a73e	0.080397114
194	0xbdf0de32	-0.117611304
195	0x3e0e9f6d	0.13928004
196	0xbdf37e26	-0.11889295
197	0x3deac886	0.11464028
198	0x3de3a392	0.11115183
199	0xbd371e44	-0.044706598
200	0xbbc64260	-0.006050393
201	0xbda73904	-0.08165172
202	0xbdbd4da1	-0.09243322
203	0xb9c59a00	-0.00037689507
204	0x3cb74780	0.022372961
205	0xbe20bf60	-0.15698004
206	0x3da5f506	0.08103375
207	0x3e31f42b	0.17378299
208	0xbd588c8e	-0.05286842
209	0xbd8e4f5b	-0.069487296
210	0xbd1bac24	-0.038005963
211	0xbd6a4334	-0.057192996
212	0xbd3070a0	-0.043076158
213	0x3c870ee8	0.0164866
214	0x3e0e21e9	0.13880123
215	0xbd915a5e	-0.07097314
216	0xbb8dfa00	-0.004332781
217	0x3dbb6032	0.09149207
218	0xbda1f78f	-0.07908546
219	0xbe1cfc68	-0.1533066
220	0xbdd11bd4	-0.10210386
221	0x3e28c1e9	0.16480221
222	0xbd7b3252	-0.061327286
223	0xbc990be8	-0.018682435
224	0xbe2d03e6	-0.16896018
225	0x3d6275c9	0.05528811
226	0x3c998338	0.018739328
227	0x3deeec92	0.11666216
228	0x3d3b2434	0.045688823
229	0x3d37e21d	0.044893373
230	0x3e19db7b	0.15025131
231	0xbdf6511e	-0.120271906
232	0xbc4a9bf0	-0.01236628
233	0x3a8e1400	0.0010839701
234	0xbc17e3b0	-0.0092705935
235	0xbe1a8d6a	-0.15093008
236	0xbc8821f0	-0.016617745
237	0x3d06d45b	0.03291736
238	0x3d8b3f0a	0.06799133
239	0xbe17d492	-0.14827183
240	0x3ccd8138	0.02508603
241	0x3dfe5da2	0.12420203
242	0x3e229d8b	0.1588041
243	0x3d167271	0.036730234
244	0xbe27e136	-0.16394505
245	0x3d5c66d4	0.053809002
246	0xbceebb18	-0.029141948
247	0xbde950ec	-0.11392388
248	0x3b653900	0.0034976602
249	0x3d8c097a	0.06837745
250	0x3c83b220	0.016076148
251	0xbe25139d	-0.16120763
252	0xbe113f84	-0.14184386
253	0xbe07b9d8	-0.13254488
254	0xbde0c462	-0.10974957
255	0xb9e2c88a	-0.00043255492

bias_ih_l0 f4 [128]
0	0xbb935dc3	-0.0044972613
1	0x3b4651f8	0.003026126
2	0x3daf247e	0.08551882
3	0xbdfd5750	-0.12370169
4	0x3e2854f3	0.16438656
5	0x3de211a8	0.11038524
6	0xbc282bd0	-0.010264352
7	0x3d47711d	0.048691858
8	0x3e20df2d	0.15710135
9	0xbd8e5a5c	-0.069508284
10	0xbd8c8fa0	-0.06863332
11	0xbddd9204	-0.10818866
12	0x3dc9a1ea	0.09845336
13	0x3c066510	0.008202806
14	0x3b247780	0.0025095642
15	0x3bc71be1	0.0060763215
16	0xbdc5276a	-0.09626658
17	0x3dfc5d6a	0.12322505
18	0xbd6a4e45	-0.05720355
19	0x3e2b62c9	0.16736902
20	0x3e323fd7	0.17407165
21	0xbdf4879b	-0.11939927
22	0xbdfaba66	-0.12242584
23	0xbbbf6c81	-0.005841792
24	0xbdd0dcaa	-0.10198338
25	0xbcf58140	-0.029968858
26	0xbe250f30	-0.16119075
27	0x3e18dc6b	0.14927833
28	0xbdfedf54	-0.1244494
29	0x3db7993a	0.089647725
30	0x3d44d828	0.048057705
31	0x3e1952e4	0.14973027
32	0xbe27d415	-0.16389497
33	0xbdf77ce4	-0.12084368
34	0xbe22ccf5	-0.15898497
35	0xbda575f1	-0.08079136
36	0xbdac6bfe	-0.084190354
37	0x3e0a9cc3	0.13536362
38	0xbd38c920	-0.045113683
39	0x3d98e222	0.074650064
40	0x3c920d91	0.017828735
41	0x3b729ec0	0.0037020892
42	0x3d5c5dd0	0.053800404
43	0x3e2b6be5	0.16740377
44	0x3e004813	0.12527494
45	0xbe03d934	-0.12875825
46	0xbdba4501	-0.09095193
47	0xbd1b9a9c	-0.037989244
48	0xbd9a4209	-0.075321265
49	0xbe0a0905	-0.13480003
50	0xb996ce67	-0.0002876401
51	0x3e0f191e	0.13974425
52	0xbe2bfa1d	-0.1679463
53	0xbd2a1fe0	-0.041534305
54	0x3e2d97a7	0.16952382
55	0x3ddc3272	0.10751809
56	0xbcc6e3b8	-0.024278507
57	0xbd8c50b9	-0.06851334
58	0xbdd2d452	-0.10294403
59	0xbd4479dc	-0.047967777
60	0xbd8a8ca0	-0.06765103
61	0x3af89d80	0.0018967837
62	0xbe0a1146	-0.13483152
63	0x3d833b22	0.06407763
64	0xbd90f954	-0.070788056
65	0x3c0c3fe0	0.008560151
66	0xbdaec04e	-0.08532773
67	0xbd0c61a3	-0.0342728
68	0xbd84b388	-0.06479555
69	0x3e2fae5e	0.1715636
70	0x3dd91b2e	0.10600887
71	0xbd694708	-0.056952506
72	0x3e1cbbdf	0.15306042
73	0x3d8c5262	0.06851651
74	0xbe2b5ef0	-0.16735435
75	0xbd92eee6	-0.071744725
76	0xbe0147e9	-0.12625088
77	0x3d874c52	0.06606354
78	0xbd2751dc	-0.04084955
79	0xbce2c808	-0.027683273
80	0xbe153436	-0.14570698
81	0xbc3c6dc0	-0.011500776
82	0xbd993a57	-0.074818306
83	0xbc7f8d50	-0.015597656
84	0xba9f3400	-0.0012146235
85	0x3e2cfcef	0.16893362
86	0xbdead2f8	-0.1146602
87	0x3daaa932	0.08333053
88	0xbe2190a6	-0.15777835
89	0xbe0f70ca	-0.1400787
90	0xbe2b0e89	-0.16704763
91	0x3dfd6f16	0.123747036
92	0xbe136e80	-0.14397621
93	0x3e102453	0.14076357
94	0x3d573178	0.05253741
95	0xbcca8040	-0.024719357
96	0xbdf0593d	-0.11735771
97	0x3cc31ea5	0.023818323
98	0x3da39e46	0.07989173
99	0xbd8bf415	-0.06833664
100	0x3e33d9c9	0.17563547
101	0xbdbf46d6	-0.09339683
102	0xbda49124	-0.08035496
103	0xbdba8631	-0.09107626
104	0x3e373c78	0.17894161
105	0x3ddf663a	0.1090817
106	0x3e20d82b	0.15707462
107	0xbe290d47	-0.16508971
108	0xbe142d47	-0.14470397
109	0x3e1fdbe5	0.15611227
110	0xbe192f52	-0.14959458
111	0x3df1e3ea	0.11811049
112	0x3b7e134f	0.0038768833
113	0x3d95b122	0.07309176
114	0x3d49b534	0.049245074
115	0x3e119815	0.14218171
116	0x3ddd762e	0.108135566
117	0x3e33d163	0.17560343
118	0x3dfb3b74	0.12267199
119	0x3db9d189	0.09073169
120	0x3d90e28c	0.070744604
121	0x3e0ad11d	0.13556333
122	0x3da7e7c6	0.08198504
123	0xbd8d85b8	-0.069102705
124	0xbe3b1496	-0.18269572
125	0xbd6854ac	-0.056721374
126	0xbd8975f7	-0.06711953
127	0xbdb5b500	-0.08872414

bias_hh_l0 f4 [128]
0	0x3dde5a29	0.108570404
1	0x3de43eef	0.11144816
2	0xbd7bb76a	-0.061454214
3	0x3e227ed5	0.15868695
4	0xbe06262a	-0.13100496
5	0x3dbccf4c	0.09219226
6	0x3e16553f	0.14680956
7	0x3cce1d80	0.025160551
8	0xbd2e38e4	-0.042534724
9	0xbd2b4f38	-0.041823596
10	0xbc30c1a0	-0.010788351
11	0xbe22ed3c	-0.1591081
12	0xbe2f45bf	-0.1711645
13	0xbd7bea54	-0.06150277
14	0x3d3557a8	0.04427305
15	0x3e0884aa	0.13331857
16	0x3e14cf01	0.1453209
17	0xbb87cc88	-0.004144255
18	0x3dec59c4	0.11540559
19	0xbe34624b	-0.17615621
20	0x3e023adf	0.1271777
21	0xbe11f4b7	-0.14253508
22	0xbd92eb15	-0.071737446
23	0xbde457aa	-0.11149533
24	0xbc453c50	-0.012038305
25	0x3c783a70	0.015150651
26	0xbdc8cf3e	-0.09805153
27	0x3deea292	0.116521016
28	0x3d427ba0	0.04748118
29	0x3d4430e4	0.04789819
30	0x3b6e14e5	0.0036328372
31	0xbe164c00	-0.14677429
32	0xbe23e79d	-0.16006322
33	0x3d8a20fc	0.067445725
34	0x3d0bd570	0.034139097
35	0xbdf79d63	-0.12090566
36	0x3dfdb6da	0.12388392
37	0x3c764330	0.015030667
38	0x3d655cc8	0.055996686
39	0x3d85816c	0.06518826
40	0x3e1dbd3a	0.15404215
41	0x3b9ff0a0	0.0048809797
42	0xbdaada06	-0.08342366
43	0x3d78f9dd	0.060785163
44	0xbe0fcbfd	-0.14042659
45	0xbde62c6d	-0.11238942
46	0xbdf4fa18	-0.11961764
47	0x3e25efef	0.16204809
48	0xbdc7334b	-0.0972658
49	0x3e09bb9b	0.13450472
50	0xbe2becbe	-0.16789529
51	0x3dd55139	0.104158826
52	0x3e2cad4f	0.16862987
53	0xbdaf371c	-0.08555433
54	0xbcb21e88	-0.021743074
55	0xbdf2964b	-0.11845072
56	0x3d680e5c	0.05665432
57	0xbdb33373	-0.087500475
58	0x3d49ca69	0.0492653
59	0xbe269ddd	-0.16271158
60	0x3d73ce1b	0.05952273
61	0x3b8d6bc0	0.0043158233
62	0x3c993db8	0.018706188
63	0x3defde9e	0.11712383
64	0x3cc968b0	0.024586052
65	0x3e3318fd	0.17490001
66	0x3dc26472	0.09491815
67	0xbe2b20ad	-0.16711684
68	0x3d7d0984	0.061776653
69	0xbdcd404d	-0.1002203
70	0x3e06ff49	0.13183321
71	0x3d8418f4	0.06450072
72	0x3c9f6ff8	0.01946257
73	0x3d79df78	0.061004132
74	0xbe330f5a	-0.17486325
75	0x3df28fe2	0.1184385
76	0x3d2a4960	0.041573882
77	0x3dbf6b82	0.09346677
78	0xbdde290a	-0.10847671
79	0xbe1fb870	-0.15597701
80	0x3d875200	0.06607437
81	0xbe1c3730	-0.15255427
82	0x3dafabf0	0.08577716
83	0x3dd3c986	0.10341172
84	0xbdf333e4	-0.11875132
85	0x3d5e4898	0.05426845
86	0xbdb489b4	-0.08815327
87	0xbdb27b35	-0.08714906
88	0xbd7e9dd0	-0.06216222
89	0xbd490384	-0.04907562
90	0x3e1ef313	0.15522413
91	0xbe000988	-0.12503636
92	0xbe1db138	-0.15399635
93	0x3d424064	0.04742469
94	0xbe00a1e8	-0.12561762
95	0x3d133164	0.035935774
96	0xbdd68b42	-0.1047578
97	0x3b8471d9	0.004041892
98	0xbe0d53a6	-0.1380144
99	0xbe21c4da	-0.15797749
100	0x3e18136f	0.14851163
101	0x3e22aa7d	0.15885349
102	0x3c2f7c45	0.0107107805
103	0xbe2f2345	-0.17103298
104	0x3d6355ee	0.05550187
105	0xbd8994a0	-0.06717801
106	0x3d41b8b0	0.047295272
107	0xbe08d2e7	-0.13361703
108	0x3d1d0221	0.03833211
109	0xbe254c07	-0.16142283
110	0xbda7d593	-0.08195033
111	0x3d8846f0	0.06654155
112	0xbca95080	-0.020668268
113	0x3c1e14e0	0.009648532
114	0xbe0b95de	-0.13631389
115	0xbcf7adf8	-0.030234322
116	0x3c930e98	0.017951295
117	0xbb0b3e00	-0.0021246672
118	0xbd107464	-0.03526725
119	0xbd99c01b	-0.07507344
120	0xbd89c05b	-0.06726142
121	0xbbf68529	-0.007523198
122	0xbdfce35c	-0.12348053
123	0xbd372e7c	-0.044722065
124	0xbc5886f1	-0.013215766
125	0xbe1373a3	-0.1439958
126	0xbd371754	-0.04469998
127	0x3c86a5eb	0.016436538

weight_ih_l0 f4 [256, 32]
0	0xbd698a97	-0.057016935
1	0x3dd45e60	0.10369563
2	0xbd4e5acc	-0.05037956
3	0x3cc2247b	0.023699036
4	0xbde0f4cc	-0.10984191
5	0xbccd5128	-0.025063112
6	0x3d6bdf0a	0.057585754
7	0xbdc3933c	-0.09549567
8	0x3de1bfa5	0.110228814
9	0x3dad4004	0.08459476
10	0x3d041600	0.032247543
11	0xbce0c02e	-0.027435388
12	0x3cc3e856	0.023914497
13	0x3e01a290	0.12659669
14	0x3dd4d9d2	0.103931084
15	0x3ce4918e	0.027901437
16	0xbdcf9080	-0.10134983
17	0xbd8451b8	-0.06460899
18	0xbac86888	-0.0015289942
19	0xbc7f513c	-0.015583333
20	0xbcd19882	-0.025585417
21	0x3da2640b	0.07929238
22	0xbd9b9a3b	-0.075977765
23	0xbb390263	-0.0028230182
24	0xbd0d9d0c	-0.0345736
25	0xbdad872b	-0.08473047
26	0xbd5e5dc4	-0.05428864
27	0x3d6e909c	0.05824338
28	0xbd8e8829	-0.06959564
29	0xbdfee74e	-0.124464616
30	0x3dc6a682	0.096997276
31	0x3cdde87d	0.027088398
32	0xbd5eb9e8	-0.054376513
33	0x3db996ef	0.090619914
34	0x3d958076	0.072998926
35	0x3d40f777	0.047111
36	0xbdf4aca8	-0.11946994
37	0xbd7e533f	-0.06209111
38	0xbaabfe99	-0.0013122141
39	0x3d753672	0.059866376
40	0x3da79ce5	0.08184222
41	0x3dd15598	0.10221404
42	0xbd8d2a60	-0.06892848
43	0xbdec92fe	-0.11551474
44	0xbe026914	-0.12735397
45	0xbd0ba1e4	-0.034089938
46	0x3db0bc2c	0.08629641
47	0xbd6285bd	-0.055303324
48	0xbddfff1a	-0.10937329
49	0xbdf587c0	-0.11988783
50	0x3d90af2e	0.07064663
51	0xbd61c41b	-0.05511866
52	0x3dd15358	0.10220975
53	0x3ddf921e	0.109165415
54	0xbdec4a66	-0.11537628
55	0x3d524ff3	0.051345777
56	0x3d129340	0.03578496
57	0xbd71fe59	-0.059080455
58	0xbb8c0f6c	-0.0042742994
59	0x3db97ab0	0.09056604
60	0x3cfbad16	0.030722182
61	0x3dabee76	0.08395092
62	0xbb0fe981	-0.0021959248
63	0x3d632004	0.055450454
64	0xbdb5a806	-0.088699386
65	0xbd0b18b0	-0.03395909
66	0xbdb6453c	-0.08899924
67	0x3bb67f30	0.005569361
68	0xba2f0000	-0.000667572
69	0xbd171d58	-0.03689322
70	0x3d9c1b66	0.07622413
71	0x3d21e384	0.039523616
72	0x3d4fdb09	0.050745998
73	0x3c956768	0.018237785
74	0xbd8e67f2	-0.0695342
75	0x3ca8fbdb	0.020627907
76	0x3db4653e	0.08808373
77	0xbce700cb	-0.02819862
78	0xbdadac10	-0.08480084
79	0x3d162118	0.036652654
80	0x3dfde81e	0.123977885
81	0xbd87b026	-0.066253945
82	0xba8f365e	-0.0010926237
83	0xbdbbbc5a	-0.091667846
84	0x3e06799f	0.13132332
85	0xbdf7feca	-0.12109144
86	0x3db30a03	0.08742144
87	0xbda37c8e	-0.07982741
88	0x3daed46e	0.085366115
89	0xbb338c7d	-0.002739697
90	0xbdfb641a	-0.12274952
91	0x3d8fd8c4	0.07023767
92	0xbde4d318	-0.111730754
93	0xbd4a11c8	-0.049333364
94	0x3d4c5dc0	0.049894094
95	0x3d686e12	0.056745596
96	0x3d501da7	0.05080953
97	0xbd1927c9	-0.037391458
98	0x3c8767a0	0.016528904
99	0xbd48edb6	-0.049054824
100	0xbd8206a8	-0.06348926
101	0x3dd1b6cb	0.10239943
102	0x3c1130ac	0.008861702
103	0x3db2e8c1	0.087358005
104	0x3db7c5c3	0.08973267
105	0x3d09cbb8	0.033641547
106	0xbcb319a8	-0.02186282
107	0xbd50350e	-0.050831847
108	0x3dfb09e4	0.12257746
109	0x3dd8d300	0.1058712
110	0x3da03410	0.0782243
111	0xbd78770f	-0.060660418
112	0x3d238264	0.039919272
113	0x3c9c5928	0.019085482
114	0x3dec2b31	0.115316756
115	0xbd626a48	-0.05527714
116	0x3df980f7	0.12182801
117	0xbcf59477	-0.02997802
118	0xbda85279	-0.082188554
119	0x3cc340fe	0.023834702
120	0x3d9b6848	0.075882494
121	0xbcbe054f	-0.02319589
122	0x3d1c3ef0	0.03814596
123	0x3d7c294c	0.06156282
124	0x3db20cdf	0.08693861
125	0xbd35c254	-0.04437478
126	0xbca12928	-0.019672945
127	0xbd8cbc3f	-0.068718426
128	0xbd6b2425	-0.057407517
129	0xbdc30f71	-0.095244296
130	0xbdf8d542	-0.12150051
131	0x3de76d4d	0.11300144
132	0x3dff69ac	0.12471327
133	0xbc7971b6	-0.015224865
134	0x3d374270	0.044741094
135	0x3b8b9b7b	0.004260478
136	0x3d86bb66	0.06578712
137	0xbd52a220	-0.051424146
138	0xbdd934f8	-0.10605806
139	0x3d9c561e	0.07633613
140	0xbd7cab7a	-0.06168697
141	0xbdb8fad5	-0.090322174
142	0x3df2699e	0.11836551
143	0x3c5e9205	0.013584618
144	0xbdd93f52	-0.106077805
145	0xbcbd87a8	-0.023135975
146	0xbc9b766c	-0.018977366
147	0xbe06d3b2	-0.13166693
148	0x3d561d5b	0.05227409
149	0xbcc2bfbd	-0.023773069
150	0xbd711cb4	-0.058865264
151	0x3d38ba24	0.045099393
152	0x3dc84dfc	0.09780499
153	0xbc90361e	-0.01760393
154	0x3deb4334	0.11487427
155	0xbdc8433a	-0.097784474
156	0x3d823987	0.06358629
157	0x3d9312c8	0.071813166
158	0x3c2e1e60	0.010627359
159	0x3cd2e8f4	0.025745846
160	0xbc9fc6e9	-0.019504027
161	0xbd5413be	-0.05177664
162	0xbd8bef0e	-0.068327054
163	0x3d2146ba	0.03937409
164	0x3c98b188	0.018639341
165	0xbd33021a	-0.043703176
166	0x3db06475	0.08612911
167	0xbc279f60	-0.010230869
168	0xbdd50fa2	-0.10403372
169	0x3c77e9d0	0.015131429
170	0xbdf37cc6	-0.11889033
171	0xbd3ab3ca	-0.045581616
172	0x3df0e20a	0.117618635
173	0xbdaaee02	-0.08346178
174	0x3d45bd54	0.04827626
175	0xbd48f5f9	-0.049062703
176	0x3dc05490	0.09391129
177	0x3de4cdb8	0.1117205
178	0x3d0b2991	0.033975188
179	0x3cbe9765	0.02326555
180	0x3d59a83b	0.053138953
181	0xbd118596	-0.035527788
182	0x3d85ab3a	0.065267995
183	0x3db8ffa8	0.090331376
184	0xbdeb24bc	-0.11481616
185	0x3d95d6f3	0.07316389
186	0x3d89fe09	0.067379065
187	0x3ca546f0	0.020175427
188	0xbda7e41a	-0.08197804
189	0x3d400bbc	0.04688619
190	0xbd148cbc	-0.036267027
191	0x3ce7a8a8	0.028278664
192	0x3d8be610	0.0683099
193	0x3d80684f	0.06269895
194	0xbb9a7340	-0.004713446
195	0x3d523ffc	0.05133055
196	0x3d286078	0.041107625
197	0xbdd5ca4c	-0.10438976
198	0x3d66fff5	0.056396443
199	0x3d10c06f	0.03533977
200	0x3cc9e746	0.024646413
201	0x3d414c80	0.047192097
202	0x3a9c0300	0.001190275
203	0xbd48c8f7	-0.04901978
204	0x3ca0c8a1	0.019626917
205	0x3d851c0d	0.06499491
206	0xbdaf4240	-0.08557558
207	0xbcb00729	-0.02148779
208	0x3da6caf6	0.081441805
209	0xbd0da260	-0.03457868
210	0x3d312116	0.043244444
211	0xbdb6ae0f	-0.08919918
212	0x3c49b3e5	0.012310957
213	0xbc7f171f	-0.015569477
214	0x3de03dac	0.10949263
215	0xbd32bbae	-0.043636017
216	0xbc78e290	-0.015190735
217	0xbd8e4a80	-0.069478035
218	0x3db9ef74	0.09078875
219	0x3dbcd06e	0.09219442
220	0xbc8dd578	-0.017313704
221	0xbdaad850	-0.083420396
222	0xbc271b80	-0.010199428
223	0xbc8e16e9	-0.017344909
224	0xbd534c28	-0.0515863
225	0x3c31de21	0.010856182
226	0x3cbb77c8	0.022884265
227	0x3dc936be	0.09824894
228	0xbcce80e8	-0.025207952
229	0x3dfc1636	0.12308924
230	0xbdfd179f	-0.12358021
231	0xbd9ba6a0	-0.076001406
232	0x3dc452c0	0.09586096
233	0x3d0cdea0	0.034392
234	0xbbb257c0	-0.0054425895
235	0xbde2b7d4	-0.11070219
236	0x3d2d633d	0.04233097
237	0x3d3f2fc7	0.046676423
238	0xbc5535e0	-0.013013333
239	0xbdccf6f5	-0.10008041
240	0xbd56ff48	-0.05248955
241	0x3ba1c740	0.0049370825
242	0x3bba145c	0.0056786966
243	0x3ab3d37a	0.0013719641
244	0x3ddb1ed3	0.10699239
245	0x3dbd5b08	0.092458785
246	0x3dc4f024	0.09616116
247	0x3c81b3cc	0.015832804
248	0xbba6e0a0	-0.0050926954
249	0x3d3c2b6a	0.04593984
250	0xbd35c00a	-0.044372596
251	0x3d1ab21c	0.037767515
252	0xbcbe8ecf	-0.023261456
253	0x3dbc8f1e	0.09206985
254	0x3ddcf014	0.10787979
255	0xbd80721c	-0.06271765

weight_hh_l0 f4 [256, 64]
0	0x3de395e0	0.11112571
1	0x3dead424	0.11466244
2	0x3d9d6f3b	0.07687231
3	0x3d60c589	0.054875884
4	0xbd11a3e9	-0.035556708
5	0xbc696f6b	-0.0142477555
6	0xbda1ab33	-0.07893982
7	0x3d86ccd3	0.06582036
8	0xbdaf903a	-0.08572431
9	0xbc1af99e	-0.009458927
10	0x3cd9b572	0.026575778
11	0x3b5cd695	0.0033697237
12	0x3df71651	0.120648034
13	0x3db34477	0.08753293
14	0x3cf5bab8	0.029996261
15	0x3df856b0	0.12125909
16	0x3d279310	0.040911734
17	0x3df654f0	0.12027919
18	0x3ccb5ea4	0.024825402
19	0xbcf7f4a3	-0.030268019
20	0xbc65d799	-0.014028453
21	0x3d0a2efd	0.033736218
22	0xbd48ee2f	-0.049055275
23	0x3c69c33d	0.01426774
24	0xbdd9c562	-0.10633351
25	0xbb64e161	-0.0034924375
26	0xbd54d71e	-0.051962964
27	0xbd050aab	-0.032480877
28	0xbdd09ca4	-0.10186127
29	0x3dd76086	0.10516457
30	0xbd757e56	-0.059934936
31	0x3dc31bd9	0.09526796
32	0x3c779373	0.015110838
33	0xbd1c2e5d	-0.038130153
34	0x3d367a2e	0.044550113
35	0xbdc036e3	-0.09385469
36	0xbdacb8eb	-0.08433708
37	0x3cc69ab3	0.024243688
38	0x3c532486	0.012887126
39	0x3df40781	0.11915494
40	0xbd877911	-0.066148885
41	0xbd131e32	-0.03591747
42	0x3dd40c13	0.103538655
43	0xbc87629d	-0.016526515
44	0x3c1ae405	0.009453778
45	0x3de19dc3	0.11016419
46	0xbc881c42	-0.016615037
47	0xbc92baba	-0.017911304
48	0x3ce9ec4c	0.028555058
49	0xbd4cea97	-0.05002841
50	0x3dc40eb3	0.09573116
51	0x3da930c9	0.08261258
52	0x3dd5921b	0.10428258
53	0xbcb6b6d5	-0.022303978
54	0xbc437cde	-0.011931626
55	0x3df4245a	0.11920996
56	0x3dacca5f	0.08437037
57	0x3d80b52d	0.062845565
58	0xbccf5e11	-0.025313409
59	0x3d3bda13	0.04586227
60	0xbc54c71f	-0.012986927
61	0xbdba4011	-0.09094251
62	0xbd325875	-0.04354139
63	0x3aff0b08	0.0019458244
64	0xbd0344ce	-0.03204804
65	0x3cca014f	0.024658827
66	0xbb9dd083	-0.0048161163
67	0xbdd7dbda	-0.1053998
68	0xbdbda6fc	-0.09260365
69	0x3ddc1eb9	0.107480474
70	0x3d5ad489	0.053425346
71	0xbc24db65	-0.010062073
72	0xbdd67438	-0.10471386
73	0xbdda81f6	-0.10669319
74	0x3dbb82e9	0.091558285
75	0xbd447ac5	-0.047968645
76	0x3d87264e	0.06599103
77	0xbd6509d7	-0.055917587
78	0xbb1b7287	-0.0023719387
79	0x3d1d3cdb	0.038388114
80	0xbd7bb48c	-0.06145148
81	0xbd2fdaff	-0.04293346
82	0x3cdfac61	0.027303876
83	0x3d53df2b	0.0517265
84	0xbd07db81	-0.03316832
85	0x3cbe933e	0.02326357
86	0xbd213d75	-0.03936525
87	0x3de2e5b6	0.1107897
88	0xbc8dbd3b	-0.017302146
89	0xbd22f6bb	-0.03978608
90	0x3c9682b5	0.018372873
91	0xbd42c09c	-0.047546968
92	0xbd5805c5	-0.052739877
93	0x3df506bc	0.11964175
94	0xbdcde99f	-0.10054325
95	0xbddfd198	-0.10928649
96	0x3cd06d6f	0.025442807
97	0xbd54fdeb	-0.051999968
98	0xbcc9847c	-0.024599306
99	0xbc71056c	-0.014710765
100	0xbdbc2372	-0.09186448
101	0xbde021a2	-0.10943915
102	0xbd170cac	-0.03687732
103	0x3c3fcd8b	0.01170672
104	0xbdbc2dc9	-0.0918842
105	0x3db455b1	0.08805407
106	0xbc98dcea	-0.018660028
107	0xbd704234	-0.058656886
108	0xbd8944f0	-0.06702602
109	0x3d8a05b4	0.06739369
110	0xbda79918	-0.08183497
111	0xbdd66be3	-0.104697965
112	0xbca2b614	-0.019862212
113	0xbd864335	-0.065557875
114	0x3def799b	0.11693116
115	0xbde3e583	-0.1112776
116	0x3d49a0de	0.04922568
117	0xbde8e447	-0.113716654
118	0x3d5b20ae	0.053497963
119	0xbde97ccb	-0.114007555
120	0xbdf57f9b	-0.119872294
121	0xbdac30bc	-0.08407733
122	0x3d20609d	0.039154638
123	0xbdb56856	-0.08857791
124	0xbdeefa7a	-0.11668868
125	0x3d7b60f4	0.06137176
126	0xbc21abb2	-0.0098675955
127	0x3d6ac2a7	0.05731454
128	0x3dfc9ef4	0.123350054
129	0x3c206544	0.009789769
130	0xbdd876bc	-0.10569522
131	0xbde65b85	-0.11247925
132	0xbd92797c	-0.071520776
133	0x3ddb3dbf	0.107051365
134	0x3bdb1a36	0.006686474
135	0xbd634322	-0.055483945
136	0xbdb72c47	-0.08943992
137	0xbd3114bb	-0.04323266
138	0xbda45889	-0.08024699
139	0x3d37aa21	0.044839982
140	0x3cd351e7	0.02579589
141	0xbb8d2973	-0.0043079196
142	0x3de2a9f2	0.11067571
143	0x3d66dc8b	0.05636267
144	0xbdbec2d4	-0.09314504
145	0x3dce4abb	0.100728475
146	0x3cd687ca	0.026187796
147	0xbc3f6774	-0.01168238
148	0x3d8962c1	0.06708289
149	0xbcd211cd	-0.025643254
150	0xbdd1bede	-0.10241483
151	0xbdd3bc11	-0.10338605
152	0x3e03e40b	0.1287996
153	0x3d902f7c	0.07040307
154	0x3d1933b1	0.037402812
155	0x3b1f7508	0.002433123
156	0x3dd0cda8	0.10195476
157	0x3dd4d49c	0.103921145
158	0xbda55390	-0.08072579
159	0x3dd22762	0.10261418
160	0xbd8bebfa	-0.06832118
161	0xbc8454b2	-0.016153667
162	0xbdab3f2f	-0.08361661
163	0x3db26f0f	0.08712589
164	0xbdc90901	-0.098161705
165	0x3d87159f	0.06595921
166	0x3c19134d	0.009342981
167	0x3c179cca	0.00925369
168	0xbdbb1a71	-0.09135903
169	0xbbd53b20	-0.0065072924
170	0x3d474616	0.048650824
171	0xbda95851	-0.08268798
172	0x3de5ff95	0.11230389
173	0x3dfea8ea	0.124345616
174	0x3d0dafc3	0.034591448
175	0xbde27980	-0.110583305
176	0xbde8c411	-0.11365522
177	0xbdd5a1d0	-0.10431254
178	0x3d42009b	0.04736386
179	0x3d8b6485	0.06806282
180	0xbdeef93d	-0.11668632
181	0x3dc5e784	0.09663299
182	0x3de468f3	0.1115283
183	0xbbdd0036	-0.00674441
184	0x3deda662	0.11604001
185	0xbc872b54	-0.016500153
186	0x3d7279cd	0.05919819
187	0x3df62790	0.12019265
188	0x3d4a1b60	0.049342513
189	0xbc6c1669	-0.01440964
190	0x3de5f1bb	0.11227747
191	0x3c8f5057	0.017494364
192	0x3c8c94bc	0.017160766
193	0x3d9c36d4	0.07627645
194	0x3d866f52	0.065642014
195	0x3ddb7487	0.10715585
196	0xbd8bae9d	-0.06820414
197	0xbd504967	-0.050851252
198	0xbdd26257	-0.10272663
199	0x3cfc383f	0.030788539
200	0xbdf1b9c3	-0.11803009
201	0xbdbef70b	-0.093244635
202	0xbde2f369	-0.11081583
203	0x3d0761d7	0.03305229
204	0x3dde8ea4	0.1086705
205	0x3cdae7f5	0.026721934
206	0xbdfa553e	-0.1222329
207	0x3d4a771c	0.049429998
208	0x3d839d47	0.06426483
209	0x3d82c751	0.06385673
210	0xbde4cc69	-0.11171801
211	0x3d7f3eaa	0.06231562
212	0xbc2019df	-0.009771793
213	0x3da97ee9	0.08276159
214	0x3de67fdc	0.11254856
215	0x3c0fa4a6	0.008767283
216	0xbddca551	-0.10773719
217	0xbdd27d9b	-0.102778636
218	0x3df750ce	0.12075959
219	0x3cfb6f5e	0.030692752
220	0x3df19b81	0.11797238
221	0xbdf282ce	-0.11841355
222	0xbd29906a	-0.04139749
223	0x3d8a97e3	0.06767251
224	0xbd4b4590	-0.049626887
225	0x3d67901d	0.05653392
226	0x3d1377e6	0.036003016
227	0xbde164f3	-0.11005583
228	0x3dd0e35b	0.101996146
229	0x3d8918dc	0.06694195
230	0x3dd43850	0.10362303
231	0x3d185e67	0.037199404
232	0xbdc3b8ea	-0.09556754
233	0x3dae9077	0.08523648
234	0x3da9fd8c	0.08300313
235	0x3dd534a7	0.10410433
236	0xbd2f5464	-0.04280509
237	0xbdff2ca9	-0.1245969
238	0x3db65200	0.08902359
239	0xbdc05d44	-0.09392789
240	0x3db5b819	0.088730045
241	0x3df116b8	0.117719114
242	0xbe004f39	-0.12530221
243	0x3dcd12a8	0.10013324
244	0xbd5d2a52	-0.053995438
245	0xbbced912	-0.006312498
246	0xbdc13a78	-0.0943498
247	0x3dbb1a31	0.09135855
248	0x3cce7826	0.025203776
249	0xbd7df185	-0.06199791
250	0x3d7cad7d	0.06168889
251	0x3d414c38	0.04719183
252	0xbdb52b1b	-0.08846112
253	0xbd130d61	-0.03590143
254	0xbbae3c28	-0.00531723
255	0xbdbaea23	-0.09126689

bias_ih_l0 f4 [256]
0	0x3d2bf6e5	0.041983504
1	0x3cfb9788	0.030711904
2	0x3d881f15	0.066465534
3	0xbd8bb2e8	-0.06821233
4	0x3dbfcbb0	0.09365022
5	0xbcf1653b	-0.029467216
6	0xbda1f57e	-0.07908152
7	0x3dfcbd2d	0.1234077
8	0x3de7885d	0.11305306
9	0xbdfb3aee	-0.12267099
10	0x3d8cb3b1	0.06870211
11	0xbdd416a7	-0.10355883
12	0x3dc36042	0.09539844
13	0x3cc605bb	0.024172654
14	0x3d3e24f6	0.046421967
15	0xbdadb6f7	-0.084821634
16	0xbdaa0500	-0.08301735
17	0x3dc37200	0.09543228
18	0x3d1c64d5	0.0381821
19	0x3db774c5	0.08957819
20	0xbd353a6e	-0.044245176
21	0xbd852978	-0.0650205
22	0x3ddf4b68	0.109030545
23	0x3de363d8	0.11103028
24	0xbd9b6798	-0.07588118
25	0xbd7c6942	-0.06162382
26	0x3df02c74	0.11727229
27	0x3da8601d	0.08221457
28	0xbcd59bd1	-0.026075276
29	0xba6ccc1c	-0.00090331
30	0x3d83e1a7	0.06439524
31	0xbd2d597e	-0.042321675
32	0x3de2b234	0.11069146
33	0xbdcd8797	-0.10035627
34	0x3d6bfc6d	0.05761378
35	0xbd5cd739	-0.05391619
36	0xbde51c09	-0.11186988
37	0xbd0f0a1c	-0.03492175
38	0x3bdc090f	0.006714947
39	0x3daf6f91	0.085662015
40	0xbd0cecbb	-0.03440545
41	0xbc41d7be	-0.011831222
42	0xbdd909a3	-0.10597541
43	0xbd997ee1	-0.07494903
44	0x3db47485	0.08811287
45	0x3d1cece3	0.03831185
46	0xbd5c7f29	-0.053832207
47	0xbd4d8109	-0.050171886
48	0x3caf8ab4	0.021428443
49	0x3dd0a3e1	0.101875074
50	0x3d9d999c	0.07695314
51	0xbd838c61	-0.064232595
52	0xbce91b9c	-0.028455548
53	0x3d7ec78a	0.062202014
54	0xbda9f7c9	-0.082992144
55	0xbd871a5b	-0.06596824
56	0x3de86b43	0.113485835
57	0x3d65446e	0.055973463
58	0xbd4370b1	-0.047714893
59	0xbc3be90d	-0.011469138
60	0x3d983d04	0.07433513
61	0xbd436aee	-0.047709398
62	0x3dd2d5ba	0.10294671
63	0x3cfe771f	0.03106266
64	0x3d9472f9	0.07248492
65	0xbd9194a4	-0.07108429
66	0x3da20ea5	0.079129495
67	0xbc326f01	-0.010890723
68	0xbb4b5089	-0.0031023344
69	0x3d8e6aec	0.069539875
70	0xbc51a6eb	-0.012796144
71	0x3ce73412	0.028223071
72	0x3d40886c	0.047005102
73	0xbd2bca65	-0.041941065
74	0x3df73e96	0.12072484
75	0x3d6582c5	0.056032915
76	0x3dbe9c48	0.09307152
77	0x3d49fb13	0.04931171
78	0x3cd53490	0.02602604
79	0x3cf528c0	0.029926658
80	0x3c53c468	0.012925245
81	0x3c902d97	0.017599864
82	0xbd3a0a40	-0.04541993
83	0xbd459654	-0.048239067
84	0xbd171dcc	-0.03689365
85	0xbc7bd7ed	-0.015371305
86	0xbc4268cb	-0.011865805
87	0xbdd43481	-0.10361577
88	0xbd444230	-0.047914684
89	0x3c03f2df	0.00805351
90	0xbd935556	-0.07194011
91	0x3dfa0b03	0.122091316
92	0xbcb6c81e	-0.02231222
93	0x3dd2840c	0.10279092
94	0x3dc0f8f5	0.09422485
95	0xbdce8874	-0.1008462
96	0xbb2c71bb	-0.0026312906
97	0xbd8f8de8	-0.07009488
98	0xbcc6f12e	-0.024284925
99	0x3d2e5794	0.04256399
100	0xbd35f583	-0.04442359
101	0xbcfc38d4	-0.030788817
102	0x3d1070c8	0.035263807
103	0x3d0736bf	0.033011194
104	0x3ceca022	0.028884951
105	0xbd1c14f0	-0.038105905
106	0x3ce31d2b	0.02772387
107	0xbd27fc8d	-0.041012336
108	0x3dd47f3d	0.10375831
109	0x3d8a0c1f	0.06740593
110	0x3df3d857	0.11906498
111	0xbdc0fa8c	-0.09422788
112	0x3cb7da5c	0.022442989
113	0xbd5f2fb1	-0.05448884
114	0x3de726f8	0.112867296
115	0xbbd78505	-0.0065771365
116	0xbdd35e2d	-0.10320697
117	0xbd96d03c	-0.07363936
118	0xbc055343	-0.008137527
119	0x3db6146a	0.088906124
120	0x3dff1328	0.12454826
121	0xbdf9f290	-0.12204468
122	0xbd799cdd	-0.060940612
123	0xbdb4bac6	-0.08824687
124	0x3d7c25a1	0.061559323
125	0x3d31fcbd	0.04345392
126	0xbd02c083	-0.031921875
127	0x3da7e4e1	0.08197952
128	0x3df2cf0e	0.11855899
129	0x3c4446c3	0.0119797615
130	0x3d09a8b9	0.033608172
131	0xbd91608c	-0.07098493
132	0x3ddefae6	0.10887699
133	0xbc2a4d4a	-0.010394404
134	0xbc972770	-0.018451422
135	0x3d8b78cf	0.06810152
136	0xbca2b2e7	-0.019860698
137	0xbadcf7ca	-0.0016858515
138	0x3dafd4ef	0.08585536
139	0xbe06a74f	-0.1314976
140	0xbc0e3e34	-0.008681823
141	0x3c3eac29	0.011637726
142	0xbd809812	-0.06279005
143	0x3ba3be6d	0.0049970658
144	0xbbbca18b	-0.005756562
145	0x3af19190	0.0018430222
146	0x3de6d04b	0.112701975
147	0x3dcf4dbf	0.10122251
148	0xbd4997b0	-0.049216926
149	0x3de0a794	0.10969463
150	0xbd554162	-0.052064307
151	0x3cf48eb6	0.029853206
152	0x3ddb241f	0.10700249
153	0x3ded166f	0.115765445
154	0x3c8b3aa3	0.016995734
155	0x3c4d2cce	0.012522889
156	0x3dbed1af	0.09317338
157	0x3b60e137	0.0034313926
158	0x3dc01c28	0.093803704
159	0xbd619ddd	-0.05508219
160	0x3c5bf4b4	0.013425041
161	0x3d6aca36	0.05732175
162	0xbde42d58	-0.11141461
163	0x3dd5a1b2	0.104312316
164	0xbdcf4c3a	-0.10121961
165	0xbdbd4db0	-0.09243333
166	0xbd701db5	-0.05862208
167	0x3d7e5c26	0.0620996
168	0xbd5e1643	-0.05422045
169	0xbd3d545d	-0.046223033
170	0xbd2cfc59	-0.042232845
171	0x3da4734f	0.08029806
172	0xbd7e6fc5	-0.06211831
173	0x3cb4fd44	0.022093423
174	0xbd024c8f	-0.031811293
175	0xbdd891cc	-0.105746835
176	0xbcf005a9	-0.029299574
177	0x3d53521a	0.05159197
178	0xbd96b8a2	-0.07359435
179	0x3dbeeaad	0.093221046
180	0xbdfc0ba7	-0.1230691
181	0xbd865696	-0.06559484
182	0x3d4373b9	0.047717784
183	0xbe05abfe	-0.13053891
184	0x3dae8dc0	0.085231304
185	0xbd0e2608	-0.03470424
186	0xbd86a151	-0.065737374
187	0x3d83311c	0.06405851
188	0xbc12a18a	-0.008949647
189	0x3da6aa78	0.08137983
190	0x3c92b723	0.017909592
191	0xbcb2a679	-0.021807896
192	0xbce6169e	-0.028086957
193	0xbd9548ba	-0.07289262
194	0x3ce9916b	0.028511724
195	0x3d9a42d7	0.0753228
196	0x3dc0ce9f	0.0941441
197	0x3cbf4ef5	0.02335308
198	0x3dfa64cf	0.12226259
199	0x3d1efab7	0.03881332
200	0xbd330038	-0.04370138
201	0x3dddd1e0	0.10831046
202	0xbd8dba5c	-0.06920311
203	0x3dc1c2b2	0.09460963
204	0x3d7e4a00	0.06208229
205	0xbc4bbd59	-0.012435281
206	0xbd8243a0	-0.06360555
207	0x3dfa387b	0.12217804
208	0x3de2b80e	0.11070262
209	0xbdc0c3d4	-0.09412351
210	0x3d83bf60	0.06432986
211	0xbdc8f24d	-0.0981184
212	0x3ddee9d7	0.10884445
213	0xbcf683d4	-0.030092157
214	0x3d927e64	0.07153013
215	0x3dbd1738	0.09232944
216	0x3b76debc	0.003766938
217	0x3da09c80	0.0784235
218	0x3ce836b2	0.028346393
219	0xbddc362e	-0.107525215
220	0x3cb2668e	0.021777418
221	0xbd298687	-0.04138806
222	0x3d88d264	0.06680754
223	0xbdcd81d9	-0.10034532
224	0xbd252ada	-0.04032407
225	0xbd8b2511	-0.06794179
226	0x3d8b209e	0.067933306
227	0x3bf0f927	0.00735392
228	0x3cb6d306	0.02231742
229	0x3c6451f7	0.013935558
230	0x3cc085cb	0.023501297
231	0xbdd6d2e2	-0.104894415
232	0xbc9c405f	-0.019073663
233	0xbd63525c	-0.055498466
234	0xbdad5b59	-0.08464689
235	0x3d57a05a	0.052643158
236	0x3e03605d	0.12829728
237	0xbd96d4b0	-0.07364786
238	0x3cf7f0c9	0.030266182
239	0xbd546c3d	-0.051861037
240	0x3dc2a7db	0.09504672
241	0x3d170df0	0.036878526
242	0xbc2cf828	-0.010557212
243	0xbd052cb9	-0.032513354
244	0xbdc1a5ed	-0.09455476
245	0xbdaf7bce	-0.08568536
246	0x3d1f70fa	0.038926102
247	0xbc7afd7e	-0.015319226
248	0x3ca8ae33	0.020590877
249	0x3a4f294d	0.00079025776
250	0xbd9174a3	-0.07102325
251	0xbdbf2d7a	-0.09334846
252	0x3d401fb5	0.04690524
253	0x3d5a8eb0	0.053358734
254	0xbd99fd7e	-0.07519053
255	0x3d93c1b4	0.0721468

bias_hh_l0 f4 [256]
0	0xbd8dc296	-0.0692188
1	0x3dbedcee	0.09319483
2	0xbd9d2640	-0.07673311
3	0x3df132d4	0.11777273
4	0x3de5e958	0.112261474
5	0x3d1f9d52	0.03896839
6	0x3d871008	0.065948546
7	0xbbbbf98a	-0.0057365345
8	0x3de677e9	0.1125334
9	0xbcf119d9	-0.02943127
10	0xbcf67014	-0.03008274
11	0xbda6c263	-0.08142545
12	0x39943e35	0.00028275108
13	0xbc298864	-0.010347459
14	0x3beb3387	0.0071777734
15	0xbde2b7d1	-0.110702164
16	0xbc92101a	-0.017829943
17	0x3df2e49a	0.118600085
18	0xbd8cb411	-0.068702824
19	0xbcdcd196	-0.026955407
20	0xbce4371d	-0.027858311
21	0xbd2ee2d4	-0.04269679
22	0x3dd34440	0.10315752
23	0x3d112690	0.035437167
24	0xbdbb6e64	-0.09151915
25	0x3c3405fe	0.010987757
26	0x3cd2c9ad	0.025730932
27	0xbd53f47f	-0.05174684
28	0x3cfc9930	0.030834764
29	0x3d3c0f11	0.045912806
30	0xbc192026	-0.009346044
31	0x3b24ce14	0.0025147246
32	0x3da646d4	0.08118978
33	0x3ccf4ed4	0.025306143
34	0x3db227f1	0.086990245
35	0xbd0a39c3	-0.033746492
36	0x3c1bf817	0.009519598
37	0xbca8c75d	-0.020602876
38	0xbd80d6bb	-0.062909566
39	0x3ce8a191	0.028397353
40	0x3ad72475	0.0016414063
41	0xbcc245d0	-0.02371493
42	0xbde15b9f	-0.110038035
43	0x3d57511b	0.052567583
44	0x3da23dce	0.079219446
45	0x3dfa63bc	0.12226054
46	0xbde9c4db	-0.114145
47	0xbda35631	-0.07975424
48	0xbdd05e5b	-0.10174247
49	0x3dc02253	0.09381547
50	0xbd8fb1d2	-0.070163384
51	0x3d6f4aba	0.058420874
52	0x3ca9e094	0.02073697
53	0x3def81e2	0.11694695
54	0x3e08c94d	0.1335804
55	0x3cff0b4f	0.031133322
56	0xbd744158	-0.05963263
57	0xbdec1614	-0.115276486
58	0x3df27956	0.11839549
59	0x3d7977dc	0.060905322
60	0xbd826ed6	-0.063687965
61	0xbd08354e	-0.03325396
62	0x3ddcf880	0.10789585
63	0xbbf2f4ea	-0.00741445
64	0xbdaf9231	-0.08572806
65	0x3db7e21b	0.08978673
66	0x3dbd08cc	0.092301935
67	0xbdf0b2eb	-0.11752876
68	0xbdad38de	-0.08458112
69	0xbdbc28fa	-0.09187503
70	0xbda83bb2	-0.08214511
71	0x3d656d75	0.05601259
72	0xbcbf43b4	-0.023347713
73	0x3c00a4fb	0.007851834
74	0xbcb4787c	-0.022030108
75	0xbd7b3bfe	-0.06133651
76	0x3da262ee	0.079290256
77	0xbdd50e9d	-0.10403178
78	0xbd9f3a00	-0.077747345
79	0xbc76c29f	-0.01506105
80	0x3c910b31	0.017705532
81	0x3de1f3d8	0.11032838
82	0xbdeaebeb	-0.11470779
83	0xbddbb7cb	-0.10728415
84	0xbd7682c8	-0.060183316
85	0xbd4d51cb	-0.050126832
86	0xbd365b2b	-0.04452054
87	0x3d8e0e93	0.069363736
88	0xbd91aca9	-0.071130104
89	0xbdad46ca	-0.084607676
90	0x3d573933	0.052544784
91	0xbd379451	-0.04481918
92	0x3d6867bd	0.056739558
93	0x3d8ba1a0	0.06817937
94	0xbcb65249	-0.022256033
95	0xbdb4ade4	-0.088222295
96	0x3d34f38a	0.04417757
97	0x3d05f05f	0.03269994
98	0x3d30d2f5	0.043169934
99	0x3d1619e4	0.036645785
100	0xbd01973b	-0.031638365
101	0x3d8f9918	0.07011622
102	0xbdb79ca4	-0.08965424
103	0xbc97edab	-0.018545946
104	0x3dddafd2	0.10824551
105	0xbc7c40c3	-0.0153963
106	0x3db04e01	0.08608628
107	0x3dc4f9a8	0.09617931
108	0x3cbb2364	0.022844024
109	0xbdd277dc	-0.102767676
110	0xbdf35c2f	-0.11882817
111	0x3de0dee6	0.109800145
112	0xbdb3e652	-0.087841645
113	0xbd58f1a2	-0.052964814
114	0x3d10951c	0.03529845
115	0x3e0341f0	0.12818122
116	0x3dd82605	0.10554127
117	0xbc2f4a92	-0.010698931
118	0xbdafdd20	-0.08587098
119	0xbcef6153	-0.029221212
120	0x3df2d752	0.11857475
121	0x3c956cbf	0.01824033
122	0x3d808628	0.06275588
123	0x3c7caf17	0.015422604
124	0xbdd90865	-0.10597304
125	0x3cf29b93	0.0296152
126	0xbbfefafa	-0.0077813836
127	0xbd06745e	-0.03282582
128	0xbcf1ae67	-0.029502107
129	0xbd4aebd8	-0.049541324
130	0x3dc8eab9	0.09810395
131	0xbdbf43a2	-0.09339072
132	0x3e000011	0.12500025
133	0xbd38a238	-0.04507658
134	0xbddcf816	-0.10789506
135	0xbb44b304	-0.0030013928
136	0xbd3b46b4	-0.045721725
137	0x3cb64117	0.022247834
138	0xbd0a420c	-0.033754393
139	0x3ce9bd7c	0.028532736
140	0xbd89f457	-0.06736057
141	0x3d961913	0.07329001
142	0xbdf67741	-0.12034465
143	0xbdfd499d	-0.12367556
144	0x3c0c96ba	0.008580858
145	0xbc685527	-0.014180458
146	0xbd475985	-0.048669357
147	0x3d051524	0.032490864
148	0xbc464726	-0.012101924
149	0x3c01dc84	0.00792611
150	0x3d0ad746	0.033896707
151	0xbce3ffaa	-0.027831871
152	0x3d22f7e9	0.039787207
153	0xbe02db3f	-0.12778948
154	0x3c35b29b	0.011089946
155	0x3dbc2630	0.09186971
156	0x3d023d47	0.03179672
157	0xbd1141a1	-0.03546298
158	0x3cc7433d	0.024324054
159	0xbd9410d2	-0.07229771
160	0xbdbc2b3a	-0.09187932
161	0xbdb5ead5	-0.08882681
162	0xbc91ccb1	-0.0177978
163	0x3bc14d00	0.0058990717
164	0x3d85fcb6	0.065423414
165	0x3cd4c523	0.025972908
166	0x3e023688	0.12716115
167	0xbd5bf745	-0.05370261
168	0xbdb436ab	-0.087994896
169	0xb9b01544	-0.0003358518
170	0x3cf2c023	0.029632634
171	0xbdc6268f	-0.09675323
172	0x3d89fe7c	0.06737992
173	0xbdd0e360	-0.10199618
174	0x3d2f53ff	0.042804714
175	0x3d93d45d	0.072182395
176	0x3d56d462	0.052448638
177	0x3db15f73	0.086607836
178	0x3bf58349	0.007492457
179	0x3c25c5a8	0.010117926
180	0xbdd2c9a4	-0.10292366
181	0xbd35c282	-0.04437495
182	0x3dfc58cb	0.123216234
183	0x3dcc3984	0.09971908
184	0x3e03ca00	0.12870026
185	0x3d98211a	0.074281886
186	0x3d8550b9	0.06509537
187	0x3dd4d7ab	0.10392698
188	0xbd1619d2	-0.036645718
189	0xbc4b9b69	-0.012427189
190	0xbd43dc4b	-0.04781751
191	0xbd9c2b8c	-0.076254934
192	0xbdf019ac	-0.117236465
193	0xbda27c38	-0.07933849
194	0xbaf1f96d	-0.0018461175
195	0xbc2b1086	-0.010440951
196	0xbdadaa27	-0.084797196
197	0xbd455bed	-0.04818337
198	0xbd870e69	-0.065945454
199	0x3de91561	0.11381031
200	0x3b320561	0.002716385
201	0x3de63b68	0.112417996
202	0xbd8bc989	-0.06825549
203	0x3db01e7c	0.085995644
204	0x3d51c5ae	0.051213913
205	0xbbcdd7cf	-0.00628183
206	0x3dfe90f5	0.12429992
207	0x3d923c73	0.07140436
208	0x3d91b0cc	0.071137995
209	0x3e07e9af	0.13272737
210	0xbdc5a385	-0.096503295
211	0x3dcda09b	0.10040399
212	0xbd205a3a	-0.039148547
213	0x3e05d9f9	0.13071431
214	0xbc499edf	-0.012305944
215	0xbd17e159	-0.037080143
216	0xbdca6159	-0.09881849
217	0x3dc06312	0.09393896
218	0xbd1dab0f	-0.038493212
219	0xbc15f597	-0.009152791
220	0xbcf9688a	-0.030445356
221	0xbdb76897	-0.08955496
222	0xbd85895d	-0.065203406
223	0x3cac8f40	0.0210644
224	0xbdf8ef71	-0.12155045
225	0xbd9be398	-0.076117694
226	0xbddb009e	-0.10693477
227	0x3b4b3d03	0.0031011708
228	0xbdd0090d	-0.10157976
229	0xbdc3049b	-0.09522363
230	0x3de4efde	0.111785635
231	0x3db6ac3e	0.08919571
232	0xbdbc46bf	-0.09193181
233	0xbd239c37	-0.0399439
234	0x3d8f0cd2	0.06984867
235	0xbdde422a	-0.108524635
236	0xbd513e88	-0.051085025
237	0x3c356705	0.011071925
238	0xbd15d842	-0.036583193
239	0x3cb82a30	0.022481054
240	0xbd6df559	-0.05809531
241	0xbdd3bc57	-0.10338657
242	0x382e35f8	4.1535095e-05
243	0x3dfcd052	0.123444214
244	0xbc97e3a7	-0.01854117
245	0x3dbe3248	0.09286934
246	0xbd94a6c5	-0.07258371
247	0xbd79119d	-0.060807813
248	0xbcf8c4b0	-0.030367225
249	0x3ca42525	0.020037243
250	0xbd3a5b6b	-0.04549734
251	0x3ccf9bd2	0.025342856
252	0xbda01fa3	-0.07818534
253	0x3dccd4a6	0.10001497
254	0x3c37b6ba	0.011212999
255	0xbd12931b	-0.035784822
